Tugas3_MarshalArijonaSinaga_2006560983/model_final_3.pt (torch_old, 874777 bytes, 10 tensors)

convolutional1.weight f4 [25, 3, 3, 3]
000000 b9 1f 26 bf 19 e1 34 bf 71 93 3f bf 14 67 fd be
       -0.64892155 -0.7065597 -0.7483435 -0.49492705
000010 8f 9f 1e 3f 1f 6d 0e bf 51 7f 1f 3f 20 e6 1d 3f
       0.6196222 -0.55635256 0.62303644 0.6167927
000020 b1 78 0f bf 64 ee d9 be 99 07 2f bf be ca 19 bf
       -0.56043535 -0.4256469 -0.6837097 -0.60074985
000030 03 b2 16 bf 0f 42 26 3f e3 61 ef be 34 66 2a 3f
       -0.58865374 0.6494455 -0.4675437 0.665622
000040 20 33 14 3f 1f 8f 0b bf 14 88 fc 3e ad 77 38 3f
       0.5789051 -0.5451526 0.4932257 0.7205761
000050 cf 15 2d bf 85 72 b7 be 04 b5 11 3f 55 95 1c bf
       -0.676114 -0.3582956 0.5691683 -0.6116536
000060 86 bb 01 3f d5 29 45 3f b6 dc 3c bf 46 cb 3d bf
       0.50676763 0.77016956 -0.7377428 -0.74138296
000070 63 18 fa 3e ed 9b 41 3f 6a 71 d1 3e 3c 26 06 3f
       0.4884673 0.7562855 0.4090684 0.5240209
000080 d0 82 26 3f 3d 62 43 3f 18 7c f8 3e d8 77 de 3e
       0.65043354 0.76321775 0.48532176 0.4345081
000090 ba 0f e1 be 94 2d fd 3e b3 5f 06 3f c9 d0 07 bf
       -0.4395731 0.49448836 0.52489775 -0.53052956
0000a0 1c 6f 26 3f 6b 88 f7 3e 79 1d 0b 3f 26 fd 3e 3f
       0.6501329 0.48346266 0.54341847 0.74605024
0000b0 99 17 03 3f 63 fc d3 be aa 54 11 3f 1e 69 0c 3f
       0.5120788 -0.41403493 0.5676981 0.54847896
0000c0 54 ea 0f bf 79 df 38 3f 02 af 16 3f 38 87 e9 be
       -0.5621693 0.7221599 0.5886079 -0.45610976
0000d0 ea a9 41 3f f0 cc 04 3f 6d 8d 09 bf 11 29 43 bf
       0.75649893 0.5187521 -0.53731424 -0.7623454
0000e0 c9 8d 33 3f ce 61 1a bf 1e e3 f6 be cb f6 11 3f
       0.7013822 -0.6030549 -0.48220152 0.570172
0000f0 bc 98 06 bf 4f b5 f9 be fb 54 3f bf fa 9c 10 3f
       -0.52576804 -0.4877114 -0.74739045 0.5648953
000100 c7 70 20 3f b6 e9 3d 3f fb f1 47 3f d0 fb 1f 3f
       0.62672085 0.7418474 0.7810361 0.6249361
000110 28 8f 03 3f 75 ff 08 3f 5d 4b f3 3e 1a 20 f8 3e
       0.51390314 0.53514796 0.47518435 0.48461992
000120 61 81 0e 3f 13 83 26 3f a7 c9 db 3e b3 65 04 3f
       0.55666167 0.65043753 0.42927286 0.5171768
000130 12 3c e0 3e 99 99 1f 3f da 76 27 3f df 6c 03 3f
       0.4379583 0.62343746 0.6541573 0.51338
000140 ab aa 02 3f 96 54 1d bf 67 9f 15 bf 2f 10 27 bf
       0.5104167 -0.6145719 -0.58446354 -0.6525907
000150 e2 78 30 bf e0 b5 16 bf 6d d7 3c bf 1c 60 ef be
       -0.6893445 -0.5887127 -0.73766214 -0.46753013
000160 d5 3c ff be 71 eb 31 bf 61 f0 0d bf 3b 5a 39 bf
       -0.498511 -0.6949988 -0.55444914 -0.72403306
000170 09 0f 33 bf 36 7d 24 bf e8 ab 40 bf cd fe da be
       -0.69944817 -0.64253557 -0.7526231 -0.42772523
000180 a1 11 3a bf ab 37 dd be ca 59 30 bf 7e 6f 2e bf
       -0.7268315 -0.43206534 -0.6888701 -0.68138874
000190 d1 be 19 bf 5a cf 14 bf 42 7d ee be 15 47 3a bf
       -0.6005679 -0.58128893 -0.4657994 -0.7276471
0001a0 86 33 3c bf f3 87 21 bf 26 74 f0 be 2d 2f 38 bf
       -0.7351612 -0.6309807 -0.46963614 -0.71946985
0001b0 40 89 3a bf 16 e2 3d bf 2a e2 18 bf 8b c0 44 bf
       -0.72865677 -0.74173105 -0.597201 -0.768563
0001c0 9e 14 43 bf 7a 88 d9 be 55 c9 2c 3f 29 74 d5 3e
       -0.76203334 -0.42486936 0.6749471 0.41690186
0001d0 2b 4f 0a bf 00 76 de be e0 c1 48 bf 0c d7 30 bf
       -0.5402705 -0.43449402 -0.7842083 -0.69078135
0001e0 09 3f ee be f1 90 3c bf c2 53 14 bf 0d 8f 43 3f
       -0.46532467 -0.73658663 -0.57940304 0.76390153
0001f0 bc 6a d0 3e d1 7c 1b bf 24 b8 0f bf 05 08 e7 be
       0.40706432 -0.6073733 -0.5614035 -0.45123306
000200 3c 06 d9 be cd 7f f7 be e6 09 11 bf 6f ab 33 bf
       -0.4238757 -0.48339692 -0.5665573 -0.7018346
000210 ec dd 20 3f 1d 06 07 3f 4a 99 0c bf 5a 9d e9 3e
       0.62838626 0.52743703 -0.549214 0.45627862
000220 a8 e5 43 3f 7e 54 37 3f 7c cc 41 bf ab 36 f9 be
       0.765223 0.716133 -0.75702643 -0.4867452
000230 23 42 15 bf f0 4f 08 3f 63 f5 1b bf f4 6b fb be
       -0.5830404 0.53246975 -0.60921305 -0.491058
000240 61 6e ef 3e bd b3 24 3f 0a 7a 40 3f 40 82 16 bf
       0.467639 0.6433676 0.75186217 -0.58792496
000250 cd 35 1d bf 34 57 14 bf 23 e2 35 bf be 01 19 bf
       -0.6141022 -0.5794556 -0.7104818 -0.59768283
000260 f1 b0 d6 be d4 67 0d 3f 2a 96 fb 3e 18 58 f0 3e
       -0.4193187 0.55236554 0.49138004 0.4694221
000270 7c c0 23 bf 27 73 21 bf f9 81 3f bf b2 e7 ea be
       -0.6396558 -0.63066334 -0.748077 -0.45879894
000280 86 75 23 bf 2f 4c 11 bf 8d e8 34 bf 86 a4 d1 be
       -0.638512 -0.5675687 -0.70667344 -0.40945834
000290 b3 a4 f1 be b5 3f 3c bf c9 73 d9 be 3b a2 fb be
       -0.47195968 -0.7353471 -0.4247115 -0.4914721
0002a0 dd 13 24 bf e2 e4 1b bf 87 00 07 bf 7d ef 0a bf
       -0.6409281 -0.6089612 -0.5273518 -0.5427168
0002b0 28 b2 ec be ea 5b d7 be bf 76 fd be d5 32 0b bf
       -0.46229672 -0.42062312 -0.4950466 -0.5437444
0002c0 4a 01 30 bf 6c 4f 33 3f d0 14 e1 be 69 75 48 bf
       -0.68751967 0.70043063 -0.4396119 -0.78304154
0002d0 3e 82 0b bf 2c f4 fb be 46 5a 2d bf 43 4c 2d bf
       -0.5449561 -0.49209726 -0.6771587 -0.6769449
0002e0 ab bc 3a bf b4 bf ed be 1d 45 0a 3f 3f a8 0c bf
       -0.72944134 -0.4643532 0.5401171 -0.54944223
0002f0 da 8b fa be 5c 54 f1 be e9 6b 40 bf 67 14 05 bf
       -0.48934823 -0.47134674 -0.7516466 -0.51984257
000300 34 92 10 3f 58 10 cd 3e f6 ec 44 3f fa da 18 3f
       0.5647309 0.40051532 0.76924074 0.5970913
000310 d7 d8 15 bf a2 43 f3 3e c5 e5 34 bf bd 93 24 bf
       -0.58533996 0.47512537 -0.706631 -0.6428793
000320 8a 93 2f bf b2 4e 3f 3f d7 13 f8 3e 92 f3 20 3f
       -0.685845 0.74729455 0.48452637 0.6287166
000330 a7 21 26 3f f4 9a 01 bf 9d b7 12 3f 9f e7 13 3f
       0.648951 -0.50627065 0.5731142 0.577753
000340 16 94 de be 51 7e e4 be 59 3d 29 3f 1e 1e 37 3f
       -0.43472356 -0.44627622 0.66109234 0.7153033
000350 9a 99 2b 3f 30 a3 31 3f cb 5e 05 3f 8b 7a e2 3e
       0.6703125 0.6938963 0.5209777 0.44234118
000360 3a 36 09 bf ab 79 28 bf f3 c0 3c bf 31 f7 44 bf
       -0.5359837 -0.6581065 -0.7373192 -0.76939684
000370 7b d0 f5 be 11 2a e8 be bb 1b 1c bf 4b 02 d4 be
       -0.4801062 -0.45344594 -0.60979813 -0.41408
000380 4f 6d 49 bf 74 8b 05 bf df 05 19 bf f2 a3 33 bf
       -0.78682417 -0.52165914 -0.59774584 -0.70172036
000390 c6 6b 46 bf 03 d5 19 bf ae c2 42 bf f5 04 49 bf
       -0.775082 -0.60090655 -0.7607831 -0.7852319
0003a0 2e 5b 07 bf 87 13 3c bf 11 fc 34 bf 91 75 e2 be
       -0.52873504 -0.73467296 -0.7069712 -0.4423032
0003b0 c3 7b 21 bf f9 79 00 3f 81 05 e1 be 25 21 3a bf
       -0.6307947 0.50186116 -0.43949512 -0.72706825
0003c0 f3 9c 15 3f 5f 6f 2a 3f a3 82 d2 be 1d 22 2f 3f
       0.5844261 0.6657619 -0.41115293 0.6841143
0003d0 41 d0 d5 3e e2 ad ce 3e 20 67 12 bf a2 e5 2b bf
       0.41760448 0.40367037 -0.57188606 -0.67147267
0003e0 83 97 10 bf 0c 84 1b bf 25 48 e5 be 3f 9d 09 3f
       -0.5648119 -0.6074836 -0.44781604 0.53755563
0003f0 6e 65 2b 3f b7 e4 44 3f 22 4f ea 3e 65 8e 2b 3f
       0.66951644 0.7691149 0.457635 0.6701415

convolutional1.bias f4 [25]
000000 ed d7 0f bf 10 f9 2f bf f9 72 e6 be 18 35 10 3f
       -0.5618885 -0.68739414 -0.45009592 0.56331015
000010 15 42 1b bf c1 96 dc be b1 b1 08 bf 74 0b 26 3f
       -0.6064771 -0.43083766 -0.53396136 0.64861226
000020 41 86 e0 be a1 6b 12 bf e4 c7 46 bf 11 fb fb 3e
       -0.43852428 -0.5719548 -0.7764876 0.49214986
000030 99 5e 48 3f 05 82 02 bf 81 f5 1b 3f f2 e0 0a bf
       0.78269345 -0.50979644 0.60921484 -0.5424949
000040 5a 87 01 3f ac b9 2e bf 68 d3 0c bf 4c 4c 0b 3f
       0.50597155 -0.6825206 -0.5501008 0.54413295
000050 b2 8a 35 3f 30 22 13 bf bd 43 13 bf d8 a3 3d bf
       0.7091476 -0.5747404 -0.57525235 -0.7407813
000060 69 e5 3b bf
       -0.7339693

convolutional2.weight f4 [50, 25, 3, 3]
000000 d7 6e 29 bf 96 4f 12 bf c6 69 2a bf 01 e7 18 3f
       -0.66184753 -0.5715269 -0.6656765 0.59727484
000010 b4 90 28 3f 38 34 21 3f 1a 35 20 3f eb c1 1c bf
       0.658458 0.62970304 0.62581027 -0.61233395
000020 23 bd 1f bf 52 95 05 3f 20 e8 1f bf e4 c9 07 3f
       -0.62397975 0.5218097 -0.6246357 0.53042436
000030 ad 16 ee be 98 6e 13 bf e4 3c 24 bf 56 00 25 bf
       -0.46501675 -0.5759063 -0.6415541 -0.6445364
000040 be 66 1b bf fc 09 1d bf 68 45 1f bf 3a bb 1c bf
       -0.6070365 -0.6134336 -0.6221528 -0.61223185
000050 ff 6e 1a bf 79 10 1d bf 53 9d 1d bf 49 49 0e bf
       -0.60325617 -0.6135326 -0.6156818 -0.55580574
000060 27 ed 16 bf 6d 55 23 bf 96 f9 0e bf 6a ef 1c 3f
       -0.58955616 -0.63802224 -0.5584959 0.61302817
000070 10 89 13 bf db 1e 28 bf a9 7b 1b 3f ec d2 26 bf
       -0.57631016 -0.6567208 0.60735565 -0.6516559
000080 36 17 29 bf 1b 52 1b 3f 3f ac 1e bf 7d 51 1b bf
       -0.6605104 0.6067216 -0.61981577 -0.60671216
000090 2f d8 0b 3f ab a5 12 bf e5 e5 1c bf 16 91 22 bf
       0.54626745 -0.5728404 -0.6128829 -0.63502634
0000a0 64 d5 07 3f e4 63 1b bf 41 cc 1b bf da 23 25 bf
       0.53059983 -0.60699296 -0.6085854 -0.6450783
0000b0 ba 06 22 bf 8c 4f 26 bf a7 51 10 bf 1b 1c 29 bf
       -0.63291514 -0.6496513 -0.5637459 -0.6605851
0000c0 2a ae 1d bf f5 01 25 bf 9a d3 09 bf 98 65 1c bf
       -0.6159388 -0.6445611 -0.53838503 -0.6109252
0000d0 63 29 20 bf ed 0c 0e bf d7 a0 19 bf 73 73 1a bf
       -0.6256315 -0.55488473 -0.6001105 -0.6033241
0000e0 fb ce 23 3f a3 1c 22 bf 8f 9e 0c bf e9 da 22 3f
       0.639877 -0.63324946 -0.5492944 0.6361528
0000f0 a5 a2 29 bf a1 73 09 bf aa 26 19 3f a8 40 0f 3f
       -0.662638 -0.5369206 0.5982462 0.5595803
000100 4d 13 07 3f 01 cd 14 3f 76 67 22 3f 86 4e 1f 3f
       0.52763826 0.5812531 0.6343912 0.6222919
000110 6c 8d 1d 3f fb 90 08 bf 14 3a 27 bf de 2c 22 bf
       0.6154392 -0.5334622 -0.65322995 -0.6334971
000120 d4 68 08 3f 5c 7a 29 bf cc 2a 14 bf f4 35 22 3f
       0.53284955 -0.6620233 -0.578778 0.63363576
000130 f6 a9 19 bf 82 b4 1d bf 72 d1 10 bf 67 11 20 bf
       -0.60024965 -0.6160356 -0.5656959 -0.62526554
000140 3d 42 15 bf f6 96 27 3f 9f d8 26 bf c2 b9 10 bf
       -0.58304197 0.65464723 -0.6517429 -0.56533444
000150 d9 00 13 3f ad 29 0b bf 7b b1 26 bf 13 35 20 bf
       0.5742317 -0.5436047 -0.65114564 -0.62580985
000160 47 be 09 bf 2b 2c 14 bf c0 6f 07 bf 8e fe 1f bf
       -0.53805965 -0.57879895 -0.5290489 -0.62497795
000170 fd f7 17 3f 01 86 19 3f 74 62 0d 3f 3d 7f 14 3f
       0.59362775 0.599701 0.5522835 0.5800665
000180 ba 79 27 bf bd 6d 18 bf 09 fe 07 bf 7a eb 18 3f
       -0.65420115 -0.5954245 -0.53122 0.5973431
000190 70 cc 1c 3f 2d c0 21 bf db 4c 24 3f d4 c2 16 3f
       0.61249447 -0.6318386 0.6417977 0.58891034
0001a0 02 b6 29 bf 3d 65 14 3f 8d 67 12 3f 62 cf 12 bf
       -0.66293347 0.5796698 0.57189256 -0.5734769
0001b0 3f cc 18 bf f4 2e 0c bf cb da 09 bf 79 ce 27 bf
       -0.59686655 -0.54759145 -0.53849477 -0.6554943
0001c0 b0 84 16 bf 89 7f 22 bf a1 c7 27 bf 91 da 0f bf
       -0.58796215 -0.63475853 -0.65538985 -0.5619288
0001d0 bf ae 08 bf 18 e6 21 3f 81 08 0a 3f 5d 48 15 3f
       -0.5339164 0.6324172 0.53919226 0.5831354
0001e0 80 b9 29 3f 11 ec 0d 3f f7 e0 0b 3f 67 66 1b bf
       0.66298676 0.55438334 0.54640144 -0.6070313
0001f0 e0 01 28 bf aa 86 1c 3f 5d d1 1c 3f 89 7f 08 3f
       -0.6562786 0.6114298 0.61256963 0.53319603
000200 87 3f 18 bf 64 ad 1d 3f eb 7b 18 bf c7 75 14 bf
       -0.59471935 0.615927 -0.59564084 -0.57992214
000210 03 59 27 bf fc a9 09 bf 91 0d 12 bf 76 81 0c bf
       -0.65370196 -0.53775 -0.5705195 -0.5488504
000220 b6 3b 1c bf 68 0b 18 bf 12 9e 1a bf 34 07 22 bf
       -0.6102861 -0.59392405 -0.60397446 -0.6329224
000230 e5 19 11 bf f6 88 0b bf f0 c8 14 bf 80 59 26 bf
       -0.56680137 -0.5450586 -0.58119106 -0.64980316
000240 da a9 24 bf b1 85 07 3f 37 e4 0f bf e8 d7 23 bf
       -0.6432167 0.5293837 -0.56207603 -0.6400132
000250 71 f6 20 bf d8 6b 1a bf 12 e6 1a bf d1 60 13 3f
       -0.6287604 -0.60320807 -0.6050731 0.57569605
000260 27 56 17 bf 86 ef 09 3f 63 72 1c 3f ea 2f 21 3f
       -0.59115833 0.5388111 0.6111204 0.62963736
000270 01 5e fb be 11 55 0e 3f 83 f4 0f 3f 44 d2 26 bf
       -0.49095157 0.5559855 0.5623247 -0.6516459
000280 15 53 17 bf e1 64 09 bf 7f 62 0c 3f c4 69 1a bf
       -0.5911115 -0.53669554 0.54837793 -0.60317636
000290 40 e2 0b bf 4f 7f 28 3f 4c 8b 28 bf 60 d2 27 bf
       -0.54642105 0.6581926 -0.6583755 -0.6555538
0002a0 cf 41 22 bf 36 de 1a bf ba c0 27 bf a0 2f 1a bf
       -0.63381666 -0.60495317 -0.6552845 -0.6022892
0002b0 04 f0 21 bf 75 8e 12 bf 71 32 06 3f e4 5c 0c bf
       -0.6325686 -0.5724862 0.5242072 -0.5482924
0002c0 d2 bd 18 3f 99 86 13 bf 59 f1 22 bf 9a 36 07 3f
       0.5966464 -0.57627255 -0.6364952 0.5281769
0002d0 ee 4d 29 bf bb 64 0c bf db 59 14 bf 90 eb 24 bf
       -0.66134536 -0.548412 -0.5794961 -0.6442194
0002e0 1e 83 1c bf 4c a7 18 bf a6 46 21 bf ac df 27 bf
       -0.6113757 -0.59630275 -0.62998426 -0.6557567
0002f0 15 a7 10 bf cf 27 1b 3f 14 50 27 3f 5c ca 10 3f
       -0.56504947 0.6060762 0.65356565 0.56558776
000300 1f eb 15 3f 11 fd 20 3f cf 2a 21 bf fe bf 15 bf
       0.5856189 0.6288615 -0.62955946 -0.5849608
000310 73 c6 07 3f 17 8e 21 bf 16 bd 05 bf 9a d7 1f bf
       0.53037184 -0.63107437 -0.5224165 -0.62438357
000320 8e 5d 17 3f fa 90 0f 3f 87 f1 12 3f cb 81 15 3f
       0.5912713 0.5608059 0.5739979 0.58401173
000330 57 1a 1f bf b5 d4 22 bf bd 84 1f bf a1 15 0b bf
       -0.62149566 -0.63605815 -0.6231192 -0.5432988
000340 a8 63 0e bf 4f 36 11 bf c1 74 15 bf 14 15 27 bf
       -0.55620813 -0.56723493 -0.5838128 -0.6526654
000350 6d e0 29 bf cc ff 16 bf f0 9b 11 bf 4d 5e 14 bf
       -0.6635807 -0.58984065 -0.56878567 -0.5795639
000360 91 af 02 3f c1 b4 06 bf 7c d7 0e bf f3 57 1c 3f
       0.51049143 -0.5261956 -0.55797553 0.610717
000370 56 26 43 3e ad 1f 0d bf b3 1b 26 bf 25 9e 14 bf
       0.19057593 -0.5512646 -0.64886016 -0.5805381
000380 75 7d 0c bf 7b dc 18 bf 22 eb 18 3f a1 05 1c 3f
       -0.5487893 -0.59711426 0.59733784 0.6094609
000390 ed f7 26 bf 3c 40 16 3f ef d5 25 3f 7b 97 09 3f
       -0.65222055 0.58691764 0.6477956 0.53746766
0003a0 19 6d 1a 3f ef 67 22 3f 8a 8b 14 3f f6 68 10 3f
       0.6032272 0.6343984 0.5802542 0.5641016
0003b0 59 30 1f 3f d8 c5 20 3f d4 d3 13 3f 00 04 0e 3f
       0.6218315 0.62801886 0.577451 0.55474854
0003c0 54 fa 11 3f 22 17 24 3f 99 ab 25 3f 74 ca 1b 3f
       0.57022595 0.640978 0.6471496 0.60855794
0003d0 2e e8 0f 3f 12 d4 10 3f f0 1d 15 3f 0d 30 16 3f
       0.56213653 0.56573594 0.58248806 0.5866707
0003e0 ba b9 27 3f bd 79 17 3f 25 b8 0f 3f bc 7f 20 3f
       0.6551777 0.5917013 0.5614036 0.6269491
0003f0 df 90 1b 3f 9f 91 26 3f 85 24 1e 3f 9c 73 0c 3f
       0.6076793 0.6506595 0.61774474 0.54863906

convolutional2.bias f4 [50]
000000 31 f5 09 bf 22 98 19 3f 1f 99 0a 3f 05 3b 0b bf
       -0.5388976 0.5999776 0.54139894 -0.5438693
000010 df 80 1d bf d2 bd 13 bf 6b d2 1d bf a2 c1 0a 3f
       -0.61524767 -0.5771152 -0.616492 0.5420171
000020 b6 f2 26 bf 83 48 11 3f e8 9c 25 bf b7 0d 1e bf
       -0.652141 0.5675127 -0.64692545 -0.6173968
000030 52 a0 10 3f e9 27 25 3f be 20 1a bf 3d b9 0e bf
       0.5649463 0.64514023 -0.6020621 -0.557514
000040 a8 3e 18 3f 92 25 11 bf 73 f6 1e bf 7d c6 23 3f
       0.59470606 -0.5669795 -0.620948 0.63974744
000050 1a 9e 15 3f 6f 93 17 3f fc 71 09 bf 57 35 10 bf
       0.5844437 0.5920934 -0.5368955 -0.5633139
000060 09 01 1d 3f 0b 9b 26 3f 4a 91 24 3f e1 94 11 3f
       0.61329705 0.65080327 0.64284194 0.56867796
000070 62 fd 0d 3f 7f 6e 22 bf d0 eb 1e 3f d7 e2 21 bf
       0.55464756 -0.63449854 0.6207857 -0.63236755
000080 2c 48 13 3f 8b 53 0b bf e9 b6 1e bf be 5f 12 3f
       0.57532 -0.5442435 -0.6199785 0.5717734
000090 2b 1e 18 bf 67 aa 12 3f 5c 01 10 3f fd 63 25 bf
       -0.5942103 0.57291263 0.56252074 -0.64605695
0000a0 ed 09 0f bf ac 11 1e bf 59 bf 23 3f ec 19 1b bf
       -0.5587452 -0.61745715 0.6396385 -0.6058643
0000b0 2b 6f 27 3f 1e af 29 bf 2b 4e 17 3f d6 4d 25 bf
       0.65404004 -0.6628283 0.5910365 -0.64571893
0000c0 b0 49 1c bf df 38 15 3f
       -0.6104994 0.58289903

convolutional3.weight f4 [100, 50, 3, 3]
000000 4c 06 1e bf 6e fe 0d bf 60 a2 1a 3f d1 c1 12 bf
       -0.6172836 -0.55466354 0.60404015 -0.5732699
000010 da 1a 0d 3f 01 da 1f 3f af 10 18 bf 51 d0 16 3f
       0.551191 0.6244202 -0.5940046 0.58911616
000020 0c 44 19 bf ec 3a 16 bf f3 c3 0f bf d9 48 19 bf
       -0.59869456 -0.5868366 -0.5615837 -0.5987678
000030 90 9a 14 bf 87 49 0e bf c0 e9 13 bf 54 42 12 bf
       -0.58048344 -0.55580944 -0.5777855 -0.5713246
000040 51 af 15 bf ea d0 1f bf ee 6b 13 bf b3 07 1e bf
       -0.58470637 -0.6242815 -0.5758656 -0.617305
000050 42 c4 18 bf fb a6 1a bf cc 41 20 bf 0a a2 0f bf
       -0.59674466 -0.6041104 -0.626004 -0.56106627
000060 77 d9 22 bf 3a fe 10 bf 0a 96 12 bf 45 17 21 bf
       -0.63613075 -0.5663792 -0.5726019 -0.6292613
000070 48 97 15 bf 63 a1 18 bf 62 54 12 bf 7b 7e 1c bf
       -0.5843396 -0.59621257 -0.5716001 -0.61130494
000080 8c 28 1a bf 7a ae 1f bf 24 53 20 bf 42 45 15 bf
       -0.6021812 -0.62375605 -0.6262686 -0.58308804
000090 53 22 17 bf cb 53 1d bf 7e e7 1f bf 41 20 1e bf
       -0.5903675 -0.6145598 -0.62462604 -0.61767966
0000a0 57 ee 12 bf 8f 39 12 bf ee 8e 14 3f 15 cb 11 bf
       -0.5739493 -0.5711908 0.58030593 -0.56950504
0000b0 93 fe 20 bf 3e 7b 24 bf 6f e2 16 3f 2d 91 1d bf
       -0.6288845 -0.6425055 0.5893926 -0.61549646
0000c0 59 e1 14 bf c7 28 13 3f f5 f4 1e 3f 66 7f 1d bf
       -0.58156353 0.57484096 0.62092525 -0.6152252
0000d0 e4 55 16 3f bd 6c 0c bf cb da 11 bf 6c b1 20 bf
       0.5872481 -0.5485342 -0.56974477 -0.62770724
0000e0 05 cc 11 bf 6b 10 1b bf e4 e1 14 bf fc 2f 22 bf
       -0.56951934 -0.60571927 -0.5815718 -0.6335447
0000f0 16 fc 15 bf d0 bb 1a bf e6 a2 24 bf 17 46 19 bf
       -0.5858778 -0.6044283 -0.64311063 -0.59872574
000100 47 9f 05 3f 36 2e 1d bf 51 46 21 bf 27 35 1c bf
       0.5219616 -0.6139864 -0.6299792 -0.61018604
000110 77 42 1f bf f7 ee 1f bf d8 97 0e bf 54 25 1f bf
       -0.6221079 -0.62474006 -0.55700445 -0.62166333
000120 da 2d 13 bf 6c 45 19 bf ce d1 10 3f 62 fc 1f 3f
       -0.5749184 -0.59871554 0.56570137 0.6249448
000130 b8 a4 13 3f 1a d1 14 bf 0e a8 07 bf 2a d4 18 bf
       0.57673216 -0.58131564 -0.52990806 -0.59698737
000140 fd 85 78 be a1 fa 0e bf f3 f9 18 bf 6e 39 e0 bb
       -0.24269862 -0.5585118 -0.5975639 -0.0068427837
000150 a5 f4 12 bf ef 81 0a bf 0c 82 13 bf c5 49 1e bf
       -0.5740455 -0.5410451 -0.5762031 -0.61831313
000160 8e 12 1b bf b0 13 18 bf 70 23 13 bf 19 2e 11 bf
       -0.6057519 -0.5940504 -0.5747595 -0.56710964
000170 6d f9 21 bf e1 14 12 bf 58 22 0a bf 2c 56 13 bf
       -0.6327122 -0.5706311 -0.53958654 -0.5755336
000180 d4 98 18 bf b6 7d 20 bf ad dc 11 bf f3 ac 10 bf
       -0.596082 -0.6269182 -0.5697735 -0.565139
000190 10 ea 22 bf 2f 40 15 bf 19 b8 1a bf ab 07 22 3f
       -0.636384 -0.5830106 -0.6043716 0.6329295
0001a0 fc f1 1f bf f5 c2 0e bf 50 2b 1c bf c9 6b 1c bf
       -0.62478614 -0.5576623 -0.6100359 -0.6110197
0001b0 b7 61 1b bf 4d a8 0d bf d7 64 1b bf 6f 13 0e bf
       -0.60695976 -0.5533493 -0.60700744 -0.55498403
0001c0 19 d3 18 bf e9 0c 18 bf 6b 00 12 bf b2 4c 23 bf
       -0.5969711 -0.593947 -0.5703189 -0.637889
0001d0 f6 f1 17 bf 8e 5d 17 bf 06 2d 18 bf 31 1b 1e bf
       -0.5935358 -0.5912713 -0.594437 -0.6176024
0001e0 68 13 11 bf 3a 72 21 bf 9b 7d 1b bf 54 80 15 bf
       -0.56670237 -0.6306492 -0.60738534 -0.5839894
0001f0 10 79 18 bf f3 a3 0f 3f 28 cb 11 bf 55 e2 1e bf
       -0.59559727 0.5610954 -0.56950617 -0.62064105
000200 ee cb 12 bf 1b 27 1e bf 10 eb 0d bf 55 c9 0e bf
       -0.5734242 -0.6177842 -0.554368 -0.5577596
000210 14 16 1c bf d9 e3 19 3f a7 ea 16 bf dc 58 fd be
       -0.6097119 0.6011329 -0.589518 -0.49481857
000220 19 9e 22 bf 88 5c 15 bf 58 a8 17 bf c0 65 21 bf
       -0.6352249 -0.58344316 -0.5924125 -0.63045883
000230 c6 db 1c bf ca f1 12 bf 82 c5 0f bf 5d a2 11 bf
       -0.6127285 -0.5740019 -0.5616075 -0.5688837
000240 b8 1e 14 bf ad 2c 13 bf 58 b3 15 3f 57 5b 17 bf
       -0.57859373 -0.57490045 0.5847678 -0.5912375
000250 c8 b0 21 3f 30 77 18 3f f8 3f 15 bf 21 35 09 bf
       0.6316037 0.59556866 -0.58300734 -0.53596693
000260 2d 9c 0b bf 84 10 22 bf 60 b5 0e bf 6b 53 25 bf
       -0.5453518 -0.6330645 -0.55745506 -0.6458041
000270 87 36 1e bf c2 48 1d bf af 33 1a bf 1b 62 1e bf
       -0.6180195 -0.61439145 -0.6023511 -0.6186845
000280 f8 77 1e bf 4f 04 16 bf 90 5f 1a bf 75 8d 0a bf
       -0.6190181 -0.58600324 -0.60302067 -0.54122096
000290 f6 c8 19 bf 2c c3 0e bf 6a eb 15 3f 4b ad 16 bf
       -0.6007227 -0.5576656 0.5856234 -0.58858174
0002a0 da 27 1d bf 0d 74 10 3f 6d f3 19 bf 00 f1 18 bf
       -0.61388934 0.5642708 -0.60137063 -0.59742737
0002b0 23 28 fd 3e f5 09 11 bf 43 9c 13 bf 0d 50 11 bf
       0.49444684 -0.5665582 -0.5766031 -0.5676277
0002c0 d3 ed 18 bf 23 13 12 bf 9d 05 16 bf 89 5e 12 bf
       -0.5973789 -0.5706045 -0.58602315 -0.571755
0002d0 82 3d 14 bf 7a 9c 23 3f b3 54 1b bf 61 7d 15 3f
       -0.57906353 0.6391064 -0.60676116 0.5839444
0002e0 32 3b 12 3f ba 94 24 bf e0 05 11 3f 2b 0e 21 bf
       0.57121575 -0.6428944 0.5664959 -0.62912244
0002f0 0b f5 13 bf 5c 50 1d bf e9 9a 22 bf e2 8d 20 bf
       -0.5779578 -0.61450744 -0.63517624 -0.62716496
000300 a0 c0 1e bf 13 5e 1c 3f 9c cd 13 bf df 09 15 bf
       -0.6201267 0.61081046 -0.5773561 -0.5821819
000310 27 d4 22 bf c8 b1 0e bf 6f 87 0c bf aa 67 0d bf
       -0.6360497 -0.5574002 -0.54894155 -0.55236304
000320 f9 f7 10 bf b0 76 1e bf 5d b9 1c 3f 8a 1a 19 3f
       -0.56628376 -0.6189985 0.6122034 0.5980612
000330 40 7a 18 3f 41 af f3 3e 99 6d 0a bf 49 14 14 bf
       0.5956154 0.47594646 -0.5407348 -0.5784345
000340 27 66 0e 3f 45 67 11 3f 18 f0 12 bf aa e5 ba be
       0.5562462 0.567982 -0.57397604 -0.36503345
000350 cd 2f 0f 3f 06 d0 05 3f f5 ec b7 3e 15 98 f1 3e
       0.55932313 0.52270544 0.3592297 0.47186342
000360 bc 89 11 bf 1c 31 0f bf a6 8b 24 bf 26 bb 23 bf
       -0.5685079 -0.5593431 -0.64275587 -0.6395744
000370 ef 13 25 bf 96 fb 22 bf 83 12 10 bf 97 1c 1e bf
       -0.6448354 -0.6366514 -0.56278247 -0.61762375
000380 a1 73 11 bf 3a 05 1d bf 2b ac c3 be 39 4b 0f 3f
       -0.5681706 -0.613361 -0.3821729 0.55974156
000390 bb c0 1c bf 60 04 15 3f b8 58 1a bf a4 69 02 bf
       -0.61231583 0.582098 -0.60291624 -0.50942445
0003a0 b5 d8 18 3f cc f4 14 bf dc 18 ad 3e 2b 97 10 3f
       0.5970567 -0.5818603 0.3380803 0.56480664
0003b0 51 ba 0d bf af 80 ee 3e 50 be 12 3f 6c 4a 0a bf
       -0.5536242 0.46582553 0.57321644 -0.5401981
0003c0 ea 8b 0d bf b5 95 50 be 43 e1 1c bf 22 49 15 bf
       -0.55291617 -0.20369609 -0.6128122 -0.58314717
0003d0 18 00 10 3f e6 62 16 3f 7d 3e 1b 3f bf d4 11 3f
       0.56250143 0.5874466 0.60642225 0.5696525
0003e0 08 b3 0b bf ec e4 16 bf fc 04 1c bf 4e c6 19 bf
       -0.54570055 -0.5894306 -0.60945106 -0.60068214
0003f0 f5 d3 d9 3e c7 7a 21 3f 5a bf 22 3f 2f 76 0b 3f
       0.42544523 0.6307797 0.6357323 0.5447721

convolutional3.bias f4 [100]
000000 92 66 20 bf 99 28 20 bf b0 f2 1a bf be 47 0f bf
       -0.6265651 -0.6256195 -0.6052656 -0.55968845
000010 9c 21 14 3f ad 45 16 3f f1 6d 1d 3f df 14 19 3f
       0.57863784 0.58700067 0.6149588 0.5979747
000020 34 54 1d 3f a5 52 22 bf 8b 47 13 bf 91 09 16 3f
       0.6145661 -0.63407356 -0.5753104 0.5860835
000030 50 70 11 3f ad a6 24 bf b6 5b 12 bf 8b dd 17 3f
       0.56812 -0.6431683 -0.5717119 0.5932242
000040 e9 e1 20 bf 67 f4 1f 3f 9a da 15 bf e6 4b 21 3f
       -0.6284471 0.62482303 -0.58536685 0.63006437
000050 41 b6 0e bf eb 71 0f bf 01 0d 16 bf b4 e2 14 bf
       -0.5574685 -0.560332 -0.5861359 -0.5815842
000060 67 31 10 3f aa e2 19 3f 23 fe 19 bf 20 00 1c bf
       0.5632538 0.60111487 -0.60153407 -0.6093769
000070 fa 03 25 3f 53 cf 22 bf f9 01 1a bf 29 4e 17 bf
       0.6445919 -0.635976 -0.6015926 -0.5910364
000080 c7 1a 18 bf 6c d4 22 bf f5 76 17 3f c2 7f 10 bf
       -0.5941586 -0.6360538 0.5916589 -0.5644494
000090 7f 3a 1a 3f 36 a7 1b 3f e5 db 24 bf a6 9e 21 bf
       0.6024551 0.6080202 -0.6439803 -0.63132703
0000a0 99 cf 20 3f 07 9a 24 3f 4a 80 22 3f 1a 87 17 bf
       0.6281677 0.6429753 0.63477004 -0.59190524
0000b0 c7 0f 10 3f dd c3 1c 3f 45 dd 17 bf 78 29 1b 3f
       0.56274074 0.61236364 -0.59322006 0.6061015
0000c0 a4 af 16 bf ad 7d 1b bf b8 1a 14 bf 95 19 24 bf
       -0.58861756 -0.6073864 -0.5785327 -0.64101535
0000d0 1c be 24 bf de 34 15 bf f5 8a 12 bf 7f fa 1e 3f
       -0.64352584 -0.58283794 -0.5724328 0.62100977
0000e0 89 0a 22 bf 21 66 0c 3f 41 c8 18 3f eb fb 1a bf
       -0.63297325 0.54843336 0.59680563 -0.60540646
0000f0 47 71 1a 3f 99 f4 16 bf 26 e5 22 bf db 37 1e 3f
       0.603291 -0.58966976 -0.636309 0.6180398
000100 07 b1 1c 3f f0 fd 0f 3f e3 00 23 3f e7 a7 1a bf
       0.6120762 0.5624685 0.6367323 -0.6041245
000110 a7 c3 12 3f 9f 0d 24 3f a7 6b 24 3f 44 e9 17 3f
       0.5732979 0.64083284 0.64226764 0.5934031
000120 07 f0 0e bf e8 cd 15 bf 35 f3 17 bf 22 86 13 bf
       -0.55835 -0.58517313 -0.5935548 -0.57626545
000130 63 d2 21 bf 2d e9 23 3f 36 e3 1c 3f 58 14 28 bd
       -0.6321165 0.64027673 0.61284196 -0.041035026
000140 77 b1 11 3f cb 7d 18 bf 80 e2 17 bf 51 91 22 3f
       0.56911415 -0.59566945 -0.59329987 0.63502985
000150 4b 9b 1c 3f fc 64 12 3f 86 19 10 bf ba 9e 1d bf
       0.6117446 0.5718534 -0.56288946 -0.6157032
000160 c8 4f 1f bf 44 ef 0d 3f c6 4f 11 bf 03 08 25 3f
       -0.6223111 0.55443215 -0.5676235 0.6446535
000170 24 85 1f bf 06 94 18 bf 69 e3 23 bf bb 6b 1c bf
       -0.6231253 -0.59600866 -0.64018875 -0.61101884
000180 dc 5f 15 bf 1b cf 0f bf 92 62 14 bf 57 f6 1b 3f
       -0.58349395 -0.5617539 -0.57962906 0.6092276

linear1.weight f4 [100, 1600]
000000 68 78 16 bf 2f b1 17 bf c9 e6 16 bf 71 2b 1a bf
       -0.58777475 -0.59254736 -0.589459 -0.60222536
000010 c5 07 19 3f ba f3 1d 3f e4 24 1d bf 98 00 0d 3f
       0.5977748 0.6170002 -0.61384416 0.5507903
000020 fd 99 09 bf f6 6f 12 3f c2 b7 1c 3f 01 62 f5 be
       -0.5375059 0.5720209 0.6121789 -0.47926334
000030 4d 68 1d bf b1 00 16 bf 19 b3 17 bf a1 b6 18 bf
       -0.61487275 -0.58594805 -0.59257656 -0.5965367
000040 c6 90 17 3f e2 c0 17 3f 9f 56 13 3f 2c ed 12 3f
       0.5920528 0.5927869 0.5755405 0.57393146
000050 6d 32 1a bf 53 5f 13 3f 33 13 16 bf 5c 48 13 bf
       -0.60233194 0.5756733 -0.58623046 -0.57532287
000060 e3 47 19 3f 31 18 17 3f 9e 5e 19 bf 60 fa 19 bf
       0.59875315 0.5902129 -0.5991 -0.60147667
000070 65 37 1c bf 53 b3 17 bf 00 e9 18 3f fc 93 16 3f
       -0.61022025 -0.59258 0.5973053 0.58819556
000080 b7 56 13 bf 4f 23 19 bf f0 2a 14 bf d8 e8 13 bf
       -0.5755419 -0.598195 -0.5787802 -0.57777166
000090 62 09 15 bf 79 69 1d bf db 2e 1b 3f 32 5f 12 bf
       -0.5821744 -0.61489064 0.6061837 -0.57176507
0000a0 af 84 1c 3f 07 80 13 bf c4 3a 1e bf 7e 5a 1e bf
       0.6113996 -0.5761723 -0.6180842 -0.6185683
0000b0 ce 2f 14 3f a4 5f 1f 3f e8 db 1d 3f 49 b0 18 bf
       0.57885444 0.6225531 0.61663675 -0.5964399
0000c0 16 50 18 bf eb 6e 16 bf 9c 0f 15 bf 82 b3 13 bf
       -0.594972 -0.58763 -0.58226943 -0.5769578
0000d0 32 82 16 bf a4 13 1e bf 35 a1 18 bf 10 db 13 bf
       -0.5879241 -0.6174872 -0.5962098 -0.5775614
0000e0 f1 58 17 bf 8e 45 1d bf d9 23 15 3f 94 35 18 bf
       -0.5912009 -0.6143426 0.58257824 -0.59456754
0000f0 07 9a 12 bf 84 df 13 bf ce 54 1a bf 49 18 18 bf
       -0.5726628 -0.5776293 -0.6028565 -0.59412056
000100 cf 6c 1c bf a4 13 1c bf d3 62 19 3f cd 32 18 3f
       -0.6110353 -0.6096747 0.5991642 0.59452516
000110 34 46 19 3f 0f 84 1c 3f 01 9a 15 bf 05 bf 1c 3f
       0.59872746 0.61139005 -0.58438116 0.6122897
000120 b2 ed 1d 3f 5d 51 14 3f 70 ec 1d 3f 78 6b 19 3f
       0.6169082 0.5793665 0.616889 0.5992961
000130 17 31 18 bf 09 df 14 bf 82 9f 0f 3f 41 ed 1a bf
       -0.59449905 -0.58152825 0.56102765 -0.6051827
000140 cc a1 1e bf 60 70 04 3f 9b b8 13 bf 56 92 16 bf
       -0.6196563 0.5173397 -0.5770356 -0.5881704
000150 0e 7e 18 3f 6b 13 13 bf d4 fb 16 bf 98 98 0f bf
       0.59567344 -0.57451504 -0.5897801 -0.56092215
000160 4d 54 1b 3f b3 8e 1b 3f 15 1f 1f bf 16 51 15 3f
       0.6067551 0.60764617 -0.621568 0.5832685
000170 d8 63 19 bf 11 9f 14 3f cc db 17 3f fd bb 16 bf
       -0.59917974 0.58055216 0.5931976 -0.588806
000180 90 f6 0d 3f e1 01 12 bf ab c1 02 3f b0 3c 19 bf
       0.5545435 -0.57034117 0.51076764 -0.59858227
000190 6f 5f 1c 3f e8 ad 10 bf f8 fe 17 3f ae 93 0e 3f
       0.6108312 -0.5651536 0.59373426 0.5569409
0001a0 30 c4 1b bf 61 2c 1c bf 8c 8f 17 bf 4c ec e6 be
       -0.60846233 -0.61005217 -0.5920341 -0.45102155
0001b0 c2 69 18 bf f2 62 11 bf 9c a7 1b bf d0 78 1a bf
       -0.59536374 -0.56791604 -0.60802627 -0.60340595
0001c0 65 b3 1e 3f 62 25 14 bf b1 2e 19 bf b7 ae 16 3f
       0.61992484 -0.5786954 -0.5983687 0.58860344
0001d0 ff 36 1d 3f cd dd 1e bf 55 ba 18 bf a9 7a 19 bf
       0.6141204 -0.6205719 -0.5965932 -0.5995279
0001e0 a7 05 18 bf c3 46 1c bf e9 8d 16 bf ec 11 1d 3f
       -0.59383625 -0.61045474 -0.5881029 0.6135547
0001f0 49 22 16 bf eb d0 16 bf 3f 04 1a bf 19 4f 1c bf
       -0.58646065 -0.58912534 -0.6016273 -0.61058193
000200 39 6f 0f 3f 3f 72 d0 be 6f e8 0e bf 6a 2d 0d bf
       0.5602909 -0.40712163 -0.55823416 -0.5514742
000210 b9 87 0e bf 01 b3 e8 be 80 9a 14 3f 0d f6 10 3f
       -0.55675846 -0.4544907 0.5804825 0.56625444
000220 a7 1e 12 bf 47 97 18 3f 2f a5 12 3f 68 14 1a bf
       -0.5707802 0.5960583 0.572833 -0.6018739
000230 31 25 14 bf 2c 83 1c bf 31 7c 1e bf 6f e5 15 bf
       -0.5786925 -0.6113765 -0.6190825 -0.5855321
000240 9c c8 11 3f 92 b8 08 3f 06 55 13 3f be eb 14 bf
       0.5694673 0.5340663 0.5755161 -0.58172214
000250 84 64 16 3f 3a 9b 14 3f ba a7 15 3f 9d 18 1b 3f
       0.58747125 0.58049357 0.58459055 0.6058443
000260 40 fd 14 bf a7 a8 16 bf bc 54 1b bf d2 61 13 bf
       -0.5819893 -0.58851093 -0.6067617 -0.57571137
000270 9c a4 18 3f 34 94 14 3f b7 83 15 bf 09 c6 14 bf
       0.59626174 0.5803864 -0.58404106 -0.5811468
000280 cd 78 18 bf 4a fe 19 bf f6 33 13 bf 35 3b 1e bf
       -0.5955933 -0.6015364 -0.5750116 -0.6180909
000290 01 1b 1b 3f 5f 2c 01 bf a7 a7 1b bf a3 1e 19 bf
       0.6058808 -0.5045833 -0.6080269 -0.5981237
0002a0 a5 cb 1e bf 71 42 13 bf 68 fa 0e bf ed 03 15 3f
       -0.62029487 -0.57523257 -0.5585084 0.58209115
0002b0 ce d5 13 bf 17 5f 1f bf bf c4 18 bf 01 28 1c bf
       -0.57748115 -0.6225447 -0.5967521 -0.6099854
0002c0 1c b0 18 bf 17 ef 19 bf 97 2f 1b bf be 9c 13 bf
       -0.5964372 -0.6013045 -0.6061949 -0.57661045
0002d0 8e 3c 18 bf 18 c0 1b bf 10 b6 10 bf 81 5b 1d 3f
       -0.594674 -0.60839987 -0.56527805 0.6146775
0002e0 af 95 19 bf 3f be fa bd 4a fc 19 3f 62 58 17 3f
       -0.59994024 -0.12243318 0.6015059 0.59119236
0002f0 fa 8e 1b 3f bd e4 18 3f 64 a7 15 3f 49 a0 16 3f
       0.6076504 0.59724027 0.5845854 0.58838326
000300 6f 68 1f bf fb 2b 14 bf 5e 8e 1a bf d5 5d 1e bf
       -0.6226873 -0.5787961 -0.60373485 -0.61861926
000310 25 07 18 bf 5c b9 15 bf 35 cf 0d 3f f1 42 18 bf
       -0.593859 -0.5848596 0.553943 -0.59477144
000320 1d 8e 12 3f 6e 44 1b bf ea 23 19 3f ff 30 1b bf
       0.572481 -0.6065129 0.59820426 -0.6062164
000330 c7 e2 0f bf 8f a9 13 3f 98 13 17 3f 4d 74 1c bf
       -0.5620541 0.576806 0.5901427 -0.6111496
000340 fb c9 1f bf 68 31 14 3f e0 e8 16 bf 0d 2d 1a bf
       -0.6241757 0.5788789 -0.5894909 -0.6022499
000350 fb 06 1d 3f 95 22 1d 3f bc 59 16 3f 32 72 14 bf
       0.61338776 0.61380893 0.58730674 -0.5798675
000360 cf 21 18 3f a4 35 16 3f 68 ff 1e 3f 29 26 1d 3f
       0.5942659 0.586756 0.6210847 0.6138635
000370 3c 9c 13 bf dd de 1e bf 85 93 14 bf 5a 30 15 bf
       -0.5766027 -0.6205881 -0.58037597 -0.58276904
000380 8b c7 18 3f 04 6d 1c bf 8a d7 15 3f c0 9e 1b bf
       0.5967948 -0.61103845 0.5853201 -0.6078911
000390 81 3f 1f 3f 58 b2 1f bf fd b9 14 bf 2d 1c 14 3f
       0.62206274 -0.62381506 -0.58096296 0.5785549
0003a0 32 78 1e bf b2 09 1e bf 5f aa 1e 3f d7 52 1b 3f
       -0.61902153 -0.61733544 0.61978716 0.6067328
0003b0 04 ba 16 3f 92 6b 1a 3f 48 df 15 bf b6 0b 0f bf
       0.5887759 0.6032039 -0.58543825 -0.55877244
0003c0 e1 68 12 bf 4c 8e 19 bf 8f 57 15 bf 3e 5e 15 3f
       -0.5719128 -0.5998275 -0.5833673 0.5834693
0003d0 0c af 16 bf 3c fb 19 bf 82 21 17 3f 6b d7 13 3f
       -0.5886085 -0.6014898 0.59035504 0.57750577
0003e0 6a 15 16 bf 43 0c 18 bf f8 fe 1a 3f ad 57 00 3f
       -0.58626425 -0.5939371 0.605453 0.5013378
0003f0 ef 48 1b 3f 18 f8 18 3f 89 10 15 3f ee a7 1a 3f
       0.6065816 0.5975356 0.58228356 0.6041249

linear1.bias f4 [100]
000000 7d ed 1b bf 2b e0 1e 3f 6d b0 1d 3f 5d 73 1b bf
       -0.60909253 0.62060803 0.6159733 -0.60722905
000010 46 68 13 bf d0 61 1d bf a1 85 19 bf a5 70 91 bc
       -0.57580984 -0.61477375 -0.59969527 -0.017753908
000020 e1 85 1f bf 5e 63 18 3f cb 2d 16 bf d7 cb 34 bc
       -0.6231366 0.5952662 -0.58663625 -0.011034927
000030 67 34 17 3f 09 98 18 bf 10 48 1f bf ee e3 1b 3f
       0.59064335 -0.5960699 -0.62219334 0.6089467
000040 ec 70 1a bf 07 4e 2c bc bf 2a 1d 3f 0a 72 1b bc
       -0.60328555 -0.01051665 0.6139335 -0.009487638
000050 a4 f8 1b 3f 6b 12 1d bf 45 43 13 bf 17 7b 1d 3f
       0.6092627 -0.6135623 -0.5752452 0.61515945
000060 1c 7d 15 3f 47 cf 1f 3f f6 68 08 3c 1a 44 1b bf
       0.58394027 0.62425655 0.008325806 -0.6065079
000070 1f 48 1e 3f 93 08 1c bf 24 3a 1d bf 2b 0a 17 3f
       0.618288 -0.60950583 -0.6141684 0.5899989
000080 66 8b 1c bf 91 a7 19 3f b3 8f c7 bc 94 76 b4 3b
       -0.61150205 0.6002131 -0.024360513 0.0055072997
000090 d2 7d 1d 3f dd fc 92 bc da 44 14 bf 5a d9 1c bc
       0.6152011 -0.01794284 -0.5791756 -0.009573305
0000a0 b7 aa 1d 3f d6 38 18 bf 08 af 19 bf 79 ed 13 bf
       0.61588615 -0.59461725 -0.600327 -0.5778423
0000b0 c6 6b 14 bf b0 d8 1a bf 13 96 13 3f 93 05 17 bf
       -0.5797695 -0.6048689 0.5765087 -0.5899288
0000c0 24 3f 16 3f 02 77 1d 3f 10 89 13 bf ce 5b 16 bf
       0.58690095 0.61509717 -0.57631016 -0.5873383
0000d0 fe 87 16 bf 58 c1 5c bb 11 96 19 3f 87 bd 13 bf
       -0.5880126 -0.0033684578 0.5999461 -0.5771107
0000e0 32 05 20 3f a2 1f 18 bf 71 f0 19 bf d5 a5 17 3f
       0.6250793 -0.5942327 -0.6013251 0.59237415
0000f0 4c 6a 1c bf 63 ac 1d bf fb 47 c1 bc 5a d4 1b 3f
       -0.61099696 -0.61591166 -0.023593893 0.608709
000100 a3 56 18 3f e1 7c 1f 3f dc 78 d0 3b 44 dd 18 3f
       0.595072 0.62299925 0.006362064 0.59712625
000110 60 5b 90 3a 39 4f 19 bf c3 aa 93 bc 6b 32 1c bf
       0.001101356 -0.5988651 -0.018025761 -0.6101443
000120 d1 16 1d 3f 80 55 13 3f dc 61 16 3f cc 61 13 bf
       0.6136294 0.5755234 0.5874307 -0.575711
000130 f5 90 b3 bc 5c 9e 1a 3f 90 d9 14 3f 8a 7e 1a 3f
       -0.021919707 0.6039789 0.58144474 0.60349333
000140 17 9c 1a bf 32 ab 1b 3f be f0 18 3f 14 3e e8 3b
       -0.60394424 0.608081 0.59742343 0.0070874784
000150 5c 2c 1d bf 3d 17 1a 3f 21 fa 1c bf 68 41 c3 bc
       -0.6139581 0.6019171 -0.61319166 -0.023834899
000160 60 d1 19 bc 4c 01 19 bf ed d9 1c 3f 04 71 19 3f
       -0.009388298 -0.59767604 0.6127003 0.59938073
000170 08 ee 1c 3f 58 52 2a bb 4a dd 1a bf 22 06 1f bf
       0.61300707 -0.0025989022 -0.6049391 -0.6211873
000180 a4 45 f7 3b 86 2d 16 3f 88 21 1c 3f e4 53 13 bf
       0.0075461436 0.58663213 0.60988665 -0.5754988

linear2.weight f4 [10, 100]
000000 76 12 12 bf 0e d0 1f bf 7a 28 2b bf 39 8f 14 bf
       -0.5705942 -0.6242684 -0.6685864 -0.5803104
000010 94 29 0f bf f8 01 16 bf 9e c0 28 bf da e3 7e bd
       -0.5592282 -0.58596754 -0.6591891 -0.062229015
000020 25 5f 1b bf c4 b1 2a bf bc 9f 13 bf 80 9a be 3b
       -0.60692054 -0.666775 -0.5766561 0.0058167577
000030 dd 51 0d bf 25 de 18 3f a9 a5 14 bf 6c 4e 1d bf
       -0.5520304 0.59713966 -0.5806528 -0.6144779
000040 50 2b 31 bf 50 ed 43 bd 24 80 01 bf a3 0a 94 bd
       -0.69206715 -0.04783374 -0.5058615 -0.07228591
000050 21 83 25 bf 5d 68 25 bf 87 83 2a bf 93 20 0e bf
       -0.6465321 -0.6461237 -0.66606945 -0.55518454
000060 d8 5e 26 3f 0a f4 05 bf e1 0c b7 3d 04 37 07 bf
       0.6498847 -0.523255 0.08938003 -0.5281832
000070 f6 d4 22 bf f2 9c 07 bf 11 e0 01 bf 42 b7 1c bf
       -0.636062 -0.52973855 -0.50732523 -0.6121713
000080 0f d3 09 bf 62 0f 21 bf 80 3e e0 bc 9a c2 b4 bd
       -0.53837675 -0.629141 -0.027373552 -0.0882618
000090 39 ec 10 3f 96 c1 a1 bd c4 32 0a 3f 7b 4b c6 3d
       0.5661045 -0.07898252 0.5398371 0.096823655
0000a0 07 ab 10 bf ac 8a 16 bf 1a f1 18 bf 1f 07 1b bf
       -0.56510967 -0.58805346 -0.5974289 -0.6055774
0000b0 94 88 14 3f d5 76 1d bf a3 72 0b bf 23 94 08 bf
       0.580209 -0.6150945 -0.54471797 -0.5335104
0000c0 40 07 25 3f 2e 7c 29 bf f6 88 0e bf ef 62 0c bf
       0.6446419 -0.6620511 -0.55677736 -0.5483846
0000d0 95 8b 23 bf 5a af 93 bd 33 ed 2f 3f ce be 13 bf
       -0.6388486 -0.0721118 0.6872131 -0.5771302
0000e0 30 9f 1c bf e4 77 2c bf 99 53 16 bf 0b b1 2f bf
       -0.611804 -0.6737044 -0.5872131 -0.6862952
0000f0 8f 83 1f bf 9e b1 07 bf 00 0a da 3a 1d 25 0c 3f
       -0.6231012 -0.530054 0.001663506 0.5474413
000100 65 e9 0c bf 5a 6a 31 bf 00 58 e6 3a 9a 23 16 bf
       -0.5504363 -0.69302905 0.0017573833 -0.58648074
000110 80 86 bc bc d7 19 28 3f e6 d7 5e 3d 79 2c 08 bf
       -0.023013353 0.6566443 0.054405116 -0.5319286
000120 77 58 23 bf 87 a9 19 bf 82 b9 1d bf 72 f6 0d bf
       -0.6380686 -0.60024303 -0.6161119 -0.5545417
000130 5d b6 34 bd ae 67 11 bf 26 72 13 3f 74 6f 21 bf
       -0.044119228 -0.5679883 0.5759605 -0.6306069
000140 f8 36 0f bf af 6f 1c bf 83 d7 12 3f d2 e5 07 3d
       -0.5594325 -0.61107916 0.57360095 0.033178158
000150 c5 6b 00 3f 32 c9 21 bf ab 23 0d bf 80 25 4b ba
       0.50164443 -0.63197625 -0.5513255 -0.00077494234
000160 1b d3 8f bd 4a 6a 06 bf a5 54 2b bf be 1b 02 bf
       -0.07022687 -0.52505934 -0.6692603 -0.5082358
000170 45 fe 2c 3f 96 2d 13 bd b8 27 f3 be 33 4a 03 bf
       0.67575485 -0.035932146 -0.4749124 -0.51285094
000180 cc ee 95 bc 19 dc 0f 3f af dc 25 bf 05 9a 06 bf
       -0.018302344 0.5619522 -0.6478986 -0.52578765
000190 8f 89 2c 3f 13 21 19 3f ef ff 32 3f 04 90 0c 3f
       0.673974 0.5981609 0.69921774 0.5490725
0001a0 0f a8 18 3f 4f 42 04 3f c4 96 11 3f ec ad cc bc
       0.5963144 0.5166368 0.56870675 -0.024985276
0001b0 27 59 01 bf 24 94 23 3f 01 9a 32 3f 74 c0 86 bc
       -0.5052666 0.6389792 0.6976624 -0.01644919
0001c0 89 7c 15 bf 7a 6b 2c 3f 1e 76 11 3f e6 18 05 3f
       -0.5839315 0.67351496 0.5682086 0.51991117
0001d0 91 da 0a bf 60 88 7e bd 4e 7e 19 bf 40 19 d6 bc
       -0.54239756 -0.062141776 -0.5995835 -0.026135087
0001e0 43 64 07 3f 53 00 09 3f a6 7b 09 bf 1f 73 2c 3f
       0.5288736 0.5351612 -0.537043 0.6736316
0001f0 47 72 ef 3e a3 44 24 3f a0 2a 18 3b 09 d6 10 3f
       0.46766874 0.6416723 0.0023218766 0.5657659
000200 9e 1f 26 3f 08 bc 0b 3f 5f 7b 0c 3f f2 c9 22 bf
       0.64891994 0.5458379 0.5487575 -0.63589394
000210 e7 42 18 3f 2d a9 08 3f f4 05 cb bc 03 7d 8c 3d
       0.59477085 0.5338314 -0.024783112 0.068597816
000220 54 0a 0e bf 34 2d d1 3c e2 ba 07 3f b3 d8 a5 3d
       -0.5548451 0.02553425 0.53019536 0.08097973
000230 80 47 1e bf 30 44 0e 3f 51 0e 11 3f 09 31 32 3f
       -0.6182785 0.55572796 0.5666247 0.6960607
000240 82 45 03 3f fe d3 11 3f 4a 7a 31 3f e6 5b 30 3f
       0.51277936 0.569641 0.69327223 0.68890226
000250 9f f5 22 3f 20 37 2c bf 51 70 12 3f 7e 46 c8 be
       0.6365604 -0.67271614 0.5720263 -0.3911628
000260 67 a1 1c 3f ae a3 4a 3d 59 7f 2d bf dc 0e 17 3f
       0.6118378 0.049472503 -0.6777244 0.5900705
000270 56 79 02 bf 0f 77 0b bf 40 f4 09 bf 54 40 17 3f
       -0.50966394 -0.54478544 -0.5388832 0.5908253
000280 c0 7d 0f 3f 76 d3 13 3f a6 90 2f 3d be a4 26 bf
       0.56051254 0.5774454 0.042862557 -0.65095127
000290 72 f3 1e bf 5b 33 09 3f 32 23 54 3d 24 ca 02 3f
       -0.6209022 0.5359399 0.051791377 0.5108969
0002a0 3a 75 0c bd fd d2 2d 3f ee aa 5b 3d d4 ec 27 bf
       -0.034291483 0.6790007 0.053629808 -0.65595746
0002b0 57 be 04 bf 65 42 2f bf b8 04 26 bf e0 88 08 3f
       -0.51852936 -0.68460685 -0.6485095 0.53333855
0002c0 cc 69 8b 3c 2e b4 2a 3f a6 57 1d 3f 55 67 2b bf
       0.017018221 0.6668118 0.61461866 -0.6695455
0002d0 2b 25 27 bf d0 91 0d 3f 68 ec 2a bf 2b bb cb 3d
       -0.6529109 0.5530062 -0.6676698 0.09947809
0002e0 c8 f5 26 3f a6 3c 2d 3f d7 c5 0e 3f 2b f3 a0 bd
       0.6521878 0.6767067 0.5577063 -0.078588806
0002f0 68 33 73 bc 7f 3c 2f 3f 81 a4 16 3f e2 b1 19 3f
       -0.014843799 0.68451685 0.58844763 0.6003705
000300 3d 2e 2b bf 18 cb 43 3c 28 0a 2b bf 01 25 04 3f
       -0.6686743 0.011950277 -0.6681237 0.51618963
000310 60 46 64 3b c4 c2 10 3f b8 b9 14 3f 37 f4 15 3f
       0.0034831986 0.5654719 0.58095884 0.5857577
000320 65 50 29 bf 6b 64 24 bf e5 f3 1b 3f 2f 2e 04 bf
       -0.661383 -0.64215726 0.6091903 -0.5163297
000330 33 01 01 bf 47 f5 27 bf cc 83 1a bf 7f 30 ae bd
       -0.50392455 -0.6560864 -0.60357356 -0.08505344
000340 86 0b 1d bf d9 78 05 3f bc 99 20 bf f0 a2 95 bd
       -0.6134571 0.52137524 -0.6273458 -0.073064685
000350 c4 65 1b 3f a5 d8 1c bf 06 e6 25 bf 44 db 2c bf
       0.6070216 -0.61268073 -0.6480411 -0.6752207
000360 19 cb 17 3f 4c e8 eb 3c 51 57 01 3f b9 ab 9b 3d
       0.5929428 0.028797291 0.5052386 0.07601113
000370 37 9c 1e bf dd a5 07 bf cc bb 23 3f 82 b9 28 bf
       -0.61957115 -0.5298746 0.6395843 -0.6590806
000380 23 eb b8 be d0 dc 13 bf 48 cb ab bd 43 0d 14 bf
       -0.36116895 -0.5775881 -0.08388382 -0.57832736
000390 58 74 27 bf d4 1f 18 bf cc 0d 2e bf fd 91 27 bf
       -0.654119 -0.59423566 -0.679898 -0.65457135
0003a0 67 37 2d bf bb 5c 0e bf c7 03 1c bd 99 0d b7 3d
       -0.6766266 -0.55610245 -0.03808954 0.089381404
0003b0 7f 86 10 3f 05 a8 9e bd 18 48 2e bf c2 53 66 3d
       0.56455225 -0.07746891 -0.68078756 0.05623222
0003c0 5e e2 1f bf c8 5b 13 bf cc fd 0b bf 42 79 26 bf
       -0.62454784 -0.5756192 -0.5468414 -0.65028775
0003d0 5f 0e 06 bf 90 53 1a bf bf 68 00 bf f5 cd 32 bf
       -0.5236568 -0.60283756 -0.5015983 -0.69845515
0003e0 f1 80 2e bf 7e ac 15 3f 71 69 15 bf 53 fb cb be
       -0.681655 0.5846633 -0.58364016 -0.39840183
0003f0 d3 35 1c 3f 7f 7c c6 3d f6 45 2f 3f 89 1b 30 3f
       0.6101963 0.096917145 0.68466127 0.68792015

linear2.bias f4 [10]
000000 42 38 14 bf 45 8b 2e 3f f3 fe 1d 3f ed 90 0e bf
       -0.5789834 0.6818126 0.61717147 -0.5568989
000010 f3 bd 23 3f ee c8 18 bf b4 1a 06 3f 9b ad 1a bf
       0.63961715 -0.59681594 0.52384496 -0.6042115
000020 ce a7 27 bf 3d 8a 1a 3f
       -0.65490425 0.60367185
