Tugas3_MarshalArijonaSinaga_2006560983/model_final_pretrain_3.pt (torch_old, 874789 bytes, 10 tensors)

convolutional1.weight f4 [25, 3, 3, 3]
0.293873 0.09030297 -0.0067301085 0.15864499 -0.1302559 0.1416004 -0.016416147 0.18006396
-0.19585694 0.15738736 0.015577091 -0.24342391 0.20410386 -0.13971023 -0.22368325 0.13449703
-0.1346887 -0.073365584 -0.021707673 -0.085217975 -0.22532833 -0.067653775 0.06474092 0.07369697
-0.052099835 -0.100356594 0.07209052 -0.063241825 -0.031629812 0.21918413 -0.15644227 -0.030829633
0.122601904 0.0383188 -0.18915318 -0.05649538 0.077585645 -0.0072861407 0.17071715 -0.09360204
0.12119887 0.17696983 0.095034905 -0.13179432 0.20607671 -0.13634364 0.035503026 -0.16136973
-0.11167478 -0.06804277 -0.095228225 -0.03567062 0.12607373 -0.12732957 0.24902342 0.2339623
0.113324 0.029074574 -0.16755655 0.029519727 -0.18914394 0.10198696 -0.054692905 0.12963934
-0.118532516 -0.078347355 -0.16464573 0.00068940705 0.08430205 -0.22129695 -0.023470264 -0.24236408
0.23005041 -0.024414979 0.18880925 0.06174269 -0.059440356 0.10990779 -0.11608255 -0.15859945
0.03292955 -0.1136018 0.19285718 0.26831043 0.03436571 0.24123551 -0.14597334 0.06526462
0.05602921 -0.118649624 0.012798132 0.26764768 0.21960732 -0.14823788 -0.058129594 -0.04713822
-0.17035715 -0.10799339 -0.07519924 -0.11681285 0.10988951 -0.16052814 -0.039714847 0.15935674
-0.09457073 -0.1731744 -0.11570873 -0.07556032 -0.15239874 -0.031044584 -0.19122526 -0.069092445
0.10076426 0.10379587 0.18164039 0.18555321 0.29364458 0.12067951 -0.24185763 -0.22483765
-0.14421497 -0.15839118 -0.07999651 0.0056565553 -0.15099475 0.09267112 -0.0390268 -0.014389413
0.092902474 0.013825942 0.022161445 0.015500786 0.13766958 -0.15993184 -0.104091786 0.005137703
-0.06423675 0.07488528 0.19603081 0.15051593 0.01272813 0.027941471 -0.08245484 -0.037708323
0.032574832 -0.22688805 -0.15480657 -0.020339519 -0.09068434 -0.12065361 0.12840371 -0.23004822
-0.21636173 0.13707326 -0.118678935 -0.19232683 0.018104544 -0.07697282 -0.16230275 0.07413452
-0.060752004 -0.020711053 0.09413858 -0.09148086 -0.04586314 -0.0085362885 -0.0715599 -0.17369485
0.0478259 -0.08206645 0.008530556 0.17447665 -0.1856254 -0.24453107 -0.12774035 -0.052889153
-0.108818546 0.14732674 0.16400166 0.045046408 -0.027927352 -0.17205346 -0.011992898 0.15473318
-0.14084479 -0.13295457 0.119693406 0.058219757 0.09673467 -0.08569251 -0.16066192 -0.073914014
-0.23418374 -0.12768753 -0.27131543 0.15153314 -0.00023293315 -0.25679034 0.107447036 0.05884164
0.076699115 -0.15927711 -0.059999485 -0.06367602 0.02837707 -0.01663378 -0.10786412 0.032827847
-0.057884954 -0.042493824 -0.10628023 -0.23714274 -0.22951311 -0.041077375 -0.020378413 -0.028542928
-0.058212746 -0.28132582 -0.1675058 -0.20266381 -0.21230535 -0.056603014 -0.12498924 -0.043511987
0.11031785 -0.091053344 -0.24461491 0.014654859 -0.16431414 -0.27564278 -0.23596904 0.1614901
0.18411554 0.18389 0.03751737 -0.22725098 0.06796817 -0.020661164 0.025186086 -0.17838012
0.1470449 0.17152107 0.01858057 -0.09777614 -0.17007229 -0.21428972 -0.20246671 -0.11353066
0.08038337 0.17883322 0.09321006 0.15115924 -0.22803482 0.021429718 -0.18039747 -0.038325045
00000000: 8676 963e c3f0 b83d 3e88 dcbb d573 223e
00000010: cd61 05be b2ff 103e 287b 86bc b062 383e
00000020: b98e 48be 272a 213e 0e37 7f3c 1e44 79be
00000030: 9a00 513e 3310 0fbe 390d 65be 97b9 093e
00000040: d6eb 09be b240 96bd 4ad4 b1bc c386 aebd
00000050: 78bc 66be 108e 8abd e396 843d 70ee 963d
00000060: a366 55bd c287 cdbd 32a4 933d ee84 81bd
00000070: 438e 01bd ce71 603e 6732 20be 6d8e fcbc
00000080: b516 fb3d 2df4 1c3d 5fb1 41be b367 67bd
00000090: 39e5 9e3d 94c0 eebb 7ad0 2e3e 6db2 bfbd
000000a0: 1d37 f83d 9437 353e a9a1 c23d 17f5 06be
000000b0: c605 533e ab9d 0bbe 9f6b 113d 1b3e 25be
000000c0: bfb5 e4bd 025a 8bbd 0407 c3bd 5b1b 12bd
000000d0: 7919 013e af62 02be ffff 7e3e d093 6f3e
000000e0: 6a16 e83d cd2d ee3c f293 2bbe 5bd3 f13c
000000f0: f3ae 41be 8ade d03d ab05 60bd 2dc0 043e
00000100: 2dc1 f2bd 9474 a0bd e498 28be 53b9 343a
00000110: 8ea6 ac3d ab9b 62be b644 c0bc 4a2e 78be
00000120: 5692 6b3e ec01 c8bc 3657 413e e7e5 7c3d
00000130: bb77 73bd 5617 e13d b0bc edbd e567 22be
00000140: 23e1 063d 0fa8 e8bd 5a7c 453e fc5f 893e
00000150: 0fc3 0c3d 7106 773e 097a 15be 75a9 853d
00000160: e37e 653d 93fe f2bd 42af 513c 1e09 893e
00000170: bee0 603e accb 17be 4c19 6ebd 0214 41bd
00000180: 1b72 2ebe a32b ddbd 0f02 9abd 933b efbd
00000190: c00d e13d 7d61 24be 09ac 22bd 6a2e 233e
000001a0: 4dae c1bd a154 31be b3f8 ecbd 5ebf 9abd
000001b0: 6a0e 1cbe 3651 febc 8ed0 43be 5780 8dbd
000001c0: 7e5d ce3d ee92 d43d f0ff 393e a901 3e3e
000001d0: 9558 963e d226 f73d 87a9 77be d73b 66be
000001e0: 17ad 13be 4c31 22be 36d5 a3bd a05a b93b
000001f0: 5e9e 1abe 5bca bd3d 91da 1fbd 93c1 6bbc
00000200: a743 be3d 3486 623c eb8b b53c 02f7 7d3c
00000210: 41f9 0c3e 2cc5 23be 132e d5bd 2d5a a83b
00000220: 8f8e 83bd 745d 993d 4dbc 483e d920 1a3e
00000230: a689 503c 83e5 e43c 15de a8bd 0b74 1abd
00000240: 306d 053d 5755 68be 9d85 1ebe 109f a6bc
00000250: b6b8 b9bd 3d19 f7bd 437c 033e c391 6bbe
00000260: ee8d 5dbe ef5c 0c3e f10d f3bd 53f1 44be
00000270: fb4f 943c eda3 9dbd b132 26be d7d3 973d
00000280: 18d7 78bd 3aaa a9bc bacb c03d 515a bbbd
00000290: fdda 3bbd cadb 0bbc ff8d 92bd 10dd 31be
000002a0: 17e5 433d 7412 a8bd bfc3 0b3c 02aa 323e
000002b0: 9614 3ebe 5a66 7abe 5ece 02be 4ca2 58bd
000002c0: 42dc debd d2dc 163e 0df0 273e 9582 383d
000002d0: e7c7 e4bc c82e 30be dc7d 44bc 6072 1e3e
000002e0: 9e39 10be 3e25 08be d121 f53d d777 6e3d
000002f0: d41c c63d 8e7f afbd 8f84 24be 3b60 97bd
00000300: ddcd 6fbe 85c0 02be dbe9 8abe 812b 1b3e
00000310: 843f 74b9 067a 83be 310d dc3d ee03 713d
00000320: 6d14 9d3d 8a19 23be 05c2 75bd 9368 82bd
00000330: 0777 e83c 9143 88bc dde7 dcbd 7e76 063d
00000340: c618 6dbd 010e 2ebd 73a9 d9bd 8cd5 72be
00000350: 7c05 6bbe c040 28bd a1f0 a6bc dcd2 e9bc
00000360: 7d70 6ebd f009 90be a486 2bbe 1a87 4fbe
00000370: 9366 59be 90d8 67bd 5cfa ffbd a039 32bd
00000380: 53ee e13d 2d7a babd 557c 7abe ef1a 703c
00000390: f741 28be 0d21 8dbe dea1 71be a95d 253e
000003a0: c988 3c3e a94d 3c3e d0ab 193d 7bb4 68be
000003b0: e532 8b3d 9a41 a9bc 0d53 ce3c 47a9 36be
000003c0: f092 163e 38a3 2f3e 4836 983c db3e c8bd
000003d0: 6e27 2ebe c46e 5bbe 6f53 4fbe c382 e8bd
000003e0: 09a0 a43d 0e20 373e eae4 be3d 7dc9 1a3e
000003f0: f681 69be 608d af3c 1dba 38be b9fa 1cbd

convolutional1.bias f4 [25]
0.10420524 0.016975595 0.0762933 -0.009519488 -0.07742501 0.08990018 0.21973228 0.118432336
0.28752086 0.088151336 0.24351104 0.10729669 -0.03283692 -0.046828255 0.071051076 -0.18410231
-0.16060513 0.208975 0.13559398 0.2261483 0.23698932 -0.014075808 -0.0724628 0.043408506
0.04609779
00000000: 8f69 d53d 6710 8b3c a93f 9c3d a0f7 1bbc
00000010: 0191 9ebd 961d b83d 8001 613e a78c f23d
00000020: ef35 933e b088 b43d f55a 793e 5ebe db3d
00000030: 0280 06bd fcce 3fbd 3a83 913d 5185 3cbe
00000040: ac75 24be 8bfd 553e 26d9 0a3e 6c93 673e
00000050: 54ad 723e 389e 66bc 6067 94bd 1ecd 313d
00000060: 09d1 3c3d

convolutional2.weight f4 [50, 25, 3, 3]
0.05638573 0.018022388 -0.038492993 0.103032075 0.04899373 0.025019184 0.0131734945 0.005399907
0.02220405 0.02764381 -0.020690156 -0.08879506 -0.01841499 0.03449512 0.07828151 -0.06101908
-0.12766202 -0.01760435 0.05216224 0.08672891 0.16140641 0.1075411 0.15839532 0.16921914
0.10382931 -0.011689019 0.07680256 0.12281419 0.10257202 0.011628249 0.1601494 0.162365
0.112117946 0.052285735 0.045188643 0.04097164 0.080160886 0.053349804 -0.04022675 0.056595344
0.037459824 0.07799948 0.11724417 0.13029659 0.15268701 -0.033722192 -0.04881384 0.018219884
0.105642416 0.0695954 -0.0038072052 0.11175859 0.015992304 0.07082389 -0.06833261 -0.030285763
-0.07282636 0.009032938 0.014323463 0.046581466 0.03025275 0.1434305 0.034131117 0.01137436
-0.10981011 -0.11641933 0.013678424 0.09713721 0.013949432 0.06791455 0.02292532 0.091760896
-0.08090142 -0.08681164 0.0041231476 0.07444087 -0.021425266 0.057602737 0.055175703 0.15352637
0.02448339 -0.08810807 -0.006108911 -0.04399703 0.040775925 -0.032334913 0.07658669 0.0629732
0.034865715 0.10919559 0.020488754 -0.07403488 -0.008027279 -0.012572167 -0.038325153 0.00033893232
0.048795994 0.12895045 0.13504905 0.09728876 0.10162618 0.014307068 -0.02903672 -0.0025967911
0.037489094 -0.077346794 0.016393572 0.033247896 -0.001872964 0.03177245 -0.027860602 0.010440275
0.08792406 0.032466523 0.07605204 0.044611506 0.050524466 -0.01980254 -0.005899152 -0.014073758
0.004685257 0.038484037 -0.02040228 0.045627646 0.121138565 0.10804194 0.11929777 0.11517055
0.056422736 0.048269704 -0.055842083 -0.0340522 0.08156126 0.05165303 -0.0005230604 0.025667608
0.02674609 -0.09327608 0.07073491 -0.008438163 -0.02877773 0.078638025 0.050923754 0.010579832
-0.053099375 0.020848893 -0.014016019 0.11768827 0.078967825 0.058074627 0.1418372 0.14880478
0.13281742 0.0898943 0.010947692 0.014774169 -0.063465975 -0.03206816 -0.10281559 -0.033080243
-0.050095852 0.0027521113 0.0019665442 -0.044276066 -0.012435414 0.1118036 0.10810268 0.10351667
0.07724972 0.0725584 0.15070671 -0.0046337913 -0.047824293 -0.09450142 0.07991266 0.077293396
0.045272037 0.064455286 0.021722348 0.077351116 0.04520257 0.04868571 0.091354206 -0.089693464
-0.110807486 -0.12670127 -0.045259725 0.0020207197 0.05503597 0.15984116 0.16238973 0.109039165
0.16129811 0.21330795 0.19509771 0.15616828 0.10745247 0.07944859 -0.01715821 -0.025840387
0.038094196 0.03897891 0.09000462 0.09862139 0.04386736 0.09613618 0.0028759437 0.016498014
0.04055897 0.018863099 0.0148888985 -0.09826614 -0.075932615 0.026866848 0.04394197 0.0030580298
0.049255546 0.050158013 0.05316096 -0.08744347 -0.1236843 -0.054375358 0.040068462 0.061566215
0.045347217 0.15787342 0.11543598 0.008652695 0.074874535 0.07231521 0.08243102 0.10668116
0.050173275 0.066757634 -0.02915341 0.10086932 0.09141271 -0.031108571 0.09696555 0.09694575
0.06901528 0.026989294 0.07516173 -0.0062864213 0.030652223 0.06589141 0.01659413 0.027998839
0.063239984 -0.05826123 -0.03717643 0.04547763 -0.029181087 0.057092648 0.06884456 0.052862737
00000000: b9f4 663d b0a3 933c d4aa 1dbd 7b02 d33d
00000010: a6ad 483d 08f5 cc3c a4d5 573c b4f1 b03b
00000020: 45e5 b53c 4575 e23c 677e a9bc 2fda b5bd
00000030: 08db 96bc c14a 0d3d 0e52 a03d 25ef 79bd
00000040: d5b9 02be ff36 90bc 13a8 553d ed9e b13d
00000050: b947 253e 823e dc3d 6232 223e c847 2d3e
00000060: 76a4 d43d 4d83 3fbc a94a 9d3d 0286 fb3d
00000070: 4711 d23d 6984 3e3c 34fe 233e 0343 263e
00000080: 189e e53d 9129 563d ba17 393d e1d1 273d
00000090: 642b a43d 5385 5a3d cec4 24bd 85d0 673d
000000a0: 796f 193d 31be 9f3d b61d f03d 786c 053e
000000b0: fc59 1c3e 4820 0abd 05f1 47bd de41 953c
000000c0: 0d5b d83d 0888 8e3d 4e82 79bb b0e1 e43d
000000d0: 4b02 833c 1e0c 913d f8f1 8bbd d919 f8bc
000000e0: fd25 95bd e3fe 133c f5ac 6a3c 35cc 3e3d
000000f0: 9dd4 f73c 72df 123e 12cd 0b3d 865b 3a3c
00000100: 1fe4 e0bd 426d eebd 781b 603c e0ef c63d
00000110: 298c 643c c916 8b3d e1cd bb3c 23ed bb3d
00000120: a5af a5bd 4dca b1bd 781b 873b 7474 983d
00000130: 0a84 afbc d9f0 6b3d ebff 613d 0436 1d3e
00000140: 6491 c83c 0172 b4bd 422d c8bb 3b36 34bd
00000150: a804 273d 9d71 04bd 7cd9 9c3d 18f8 803d
00000160: 5acf 0e3d f0a1 df3d 08d8 a73c 999f 97bd
00000170: d984 03bc 7efb 4dbc d6fa 1cbd bab2 b139
00000180: 4fde 473d 960b 043e 4c4a 0a3e 543f c73d
00000190: 6321 d03d 3168 6a3c 6ade edbc ed2e 2abb
000001a0: 2a8e 193d ff67 9ebd d04b 863c f22e 083d
000001b0: 3e7e f5ba d423 023d eb3b e4bc b00d 2b3c
000001c0: 8811 b43d 9efb 043d 2cc1 9b3d 8eba 363d
000001d0: bef2 4e3d f038 a2bc ac4d c1bb 9f95 66bc
000001e0: c986 993b 70a1 1d3d af22 a7bc 0ee4 3a3d
000001f0: 7f17 f83d 1845 dd3d 6452 f43d 8ade eb3d
00000200: 871b 673d 74b6 453d abba 64bd 527a 0bbd
00000210: 9709 a73d 2192 533d fd1d 09ba e044 d23c
00000220: 9e1a db3c 8807 bfbd 77dd 903d 3940 0abc
00000230: 46bf ebbc f90c a13d 6d95 503d 0857 2d3c
00000240: bb7e 59bd 4ccb aa3c 72a3 65bc 8c06 f13d
00000250: e2b9 a13d a9df 6d3d c53d 113e 4860 183e
00000260: 4a01 083e 811a b83d f35d 333c 5b0f 723c
00000270: 73fa 81bd e759 03bd fb90 d2bd 267f 07bd
00000280: 4f31 4dbd c45c 343b 23e1 003b d25a 35bd
00000290: e8bd 4bbc 49f9 e43d f064 dd3d 8c00 d43d
000002a0: 1a35 9e3d 8099 943d dc52 1a3e 0fd7 97bb
000002b0: 68e3 43bd f689 c1bd 40a9 a33d 004c 9e3d
000002c0: 2c6f 393d 2201 843d 11f3 b13c 436a 9e3d
000002d0: 5426 393d ab6a 473d ea17 bb3d 35b1 b7bd
000002e0: 09ef e2bd fabd 01be 4362 39bd 0d6e 043b
000002f0: 666d 613d 67ad 233e 7e49 263e ed4f df3d
00000300: 552b 253e 666d 5a3e b2c7 473e 94ea 1f3e
00000310: 0a10 dc3d f1b5 a23d 608f 8cbc 38af d3bc
00000320: a908 1c3d 59a8 1f3d 5854 b83d 03fa c93d
00000330: 43ae 333d 0ce3 c43d 547a 3c3b d826 873c
00000340: 2a21 263d c986 9a3c 91f0 733c c23f c9bd
00000350: 8f82 9bbd dd17 dc3c 7ffc 333d 3a69 483b
00000360: 2fc0 493d 7d72 4d3d 4fbf 593d 9015 b3bd
00000370: 324e fdbd b2b8 5ebd d41e 243d db2c 7c3d
00000380: 01be 393d 92a9 213e b369 ec3d 09c4 0d3c
00000390: d257 993d ff19 943d 98d1 a83d a77b da3d
000003a0: 7e82 4d3d 3ab8 883d 22d3 eebc 9394 ce3d
000003b0: 9636 bb3d 67d7 febc e095 c63d 7e8b c63d
000003c0: e257 8d3d a718 dd3c 65ee 993d 53fe cdbb
000003d0: 5f1a fb3c 13f2 863d 6af0 873c d25d e53c
000003e0: f783 813d 54a3 6ebd 5046 18bd c046 3a3d
000003f0: 2d0d efbc fbd9 693d 60fe 8c3d 9986 583d

convolutional2.bias f4 [50]
-0.09071399 0.029081197 0.044219267 0.08741823 0.07056496 -0.054581683 -0.06350674 0.06712536
-0.01567402 0.047200643 0.028170438 -0.035317857 0.06043989 -0.03742806 0.004485045 0.056988318
-0.010609004 0.09213768 0.04441689 -0.10688184 0.043763768 -0.043284543 0.10783138 0.016454406
0.09059337 0.11451613 -0.07715447 0.0023113424 0.056523703 -0.08338279 -0.00775041 -0.023522098
-0.014252661 -0.06253903 0.05960675 -0.05086118 -0.07220341 -0.015306131 -0.034740213 -0.113933325
-0.087216765 0.09004264 -0.019809471 0.052587733 -0.05069719 -0.005204645 0.09226469 -0.022255916
-0.009473816 -0.018176423
00000000: 42c8 b9bd b13b ee3c 431f 353d 5408 b33d
00000010: 5d84 903d 0b91 5fbd d20f 82bd 0579 893d
00000020: cd66 80bc 7655 413d b1c5 e63c 75a9 10bd
00000030: d18f 773d 2a4e 19bd 49f7 923b 956c 693d
00000040: 63d1 2dbc aeb2 bc3d 7cee 353d dee4 dabd
00000050: a341 333d 224b 31bd b3d6 dc3d 64cb 863c
00000060: 0489 b93d 6f87 ea3d 2a03 9ebd e479 173b
00000070: 6685 673d 99c4 aabd 27f7 fdbb 6ab1 c0bc
00000080: fe83 69bc 7714 80bd 3526 743d d053 50bd
00000090: 62df 93bd 91c6 7abc c14b 0ebd e055 e9bd
000000a0: b49e b2bd 4768 b83d 7947 a2bc 3c66 573d
000000b0: dba7 4fbd ba8b aabb 45f5 bc3d 0a52 b6bc
000000c0: 1038 1bbc b9e6 94bc

convolutional3.weight f4 [100, 50, 3, 3]
0.006874927 -0.011868301 0.011112801 -0.0012725806 0.055062953 0.0348412 0.0008546193 0.02261712
0.033561416 -0.08042469 -0.0454466 0.0041061114 -0.063197784 0.03302478 -0.028236587 -0.005313949
0.05676783 0.041415915 -0.048754346 -0.06388831 -0.0001245072 -0.058956265 0.008154488 0.011941952
-0.0074915737 -0.028191606 0.005956602 -0.029739784 0.0026205245 -0.0151239205 -0.005510015 -0.044790573
-0.03952974 -0.040781092 0.014492325 -0.01906755 -0.01896356 -0.029887194 -0.01427491 -0.039969906
-0.015998593 0.053006403 -0.017315252 -0.014919154 -0.025987022 0.120255515 0.10937184 0.09874947
0.093052335 0.13669428 0.06897971 0.00983899 -0.01912296 0.07642577 0.027362976 0.017647676
0.042665828 0.018906128 0.0016523584 0.050290354 0.00488442 0.004266274 0.044897426 0.02037772
-0.02579347 -0.022027958 -0.020431992 0.00030662233 0.024877973 -0.0056062886 -0.03576579 -0.003106169
0.1314869 0.07127792 0.06247316 0.03026692 0.04652013 0.08276145 -0.018357992 0.015133598
-0.0034583535 -0.058899052 -0.05347408 -0.034505866 -0.030560387 0.036378905 -0.0121861 0.017551523
0.021764781 0.052486066 0.07494527 0.04252956 0.04853657 0.05708343 0.098716944 0.04614153
-0.016096964 0.03924094 0.04961807 0.11076728 0.006674155 0.0051578656 0.06539133 -0.027890325
0.0047878395 0.03784517 0.045383558 0.07567506 0.045329295 0.0020870513 0.041655626 -0.020963905
-0.020247895 -0.015439931 -0.018979138 0.05666582 -0.008058362 0.033349477 -0.048594657 0.024295885
-0.008930523 0.06404328 0.04087453 0.03605338 -0.013108524 0.004185748 0.06791373 0.029087013
0.025041573 0.07263161 0.056392334 0.042596776 0.03347725 0.016736463 0.102853544 0.024040436
-0.021728978 0.030730497 0.0052834623 0.045645185 0.033952113 0.031771243 -0.029940767 -0.049673293
0.005504052 -0.0076502208 0.05869529 -0.025435153 0.0007297707 -0.029547863 0.004796784 -0.051774174
0.02754633 -0.023120489 -0.07122208 0.04717755 0.018978026 0.06394296 0.09713106 0.03487356
-0.012258056 0.020626707 -0.016259205 0.00029683276 0.023627449 -0.049943645 -0.0026452378 -0.0235523
-0.07884839 0.023856534 0.040614706 -0.042683408 -0.022454193 0.036973804 0.05358651 0.033946224
0.0232454 0.07878652 0.034424197 0.103802964 -0.03765814 -0.04452369 -0.010434087 -0.071249016
-0.060385164 -0.06187139 -0.066591665 -0.025757013 -0.016969252 -0.006269291 -0.033799607 -0.0006024579
-0.023760112 0.039294578 0.056277182 -0.05129983 -0.018316548 0.035140224 -0.038479034 -0.014946411
0.06982881 -0.030537989 0.004968317 -0.006696915 -0.031592086 0.027952917 0.009350527 0.057428546
0.042560354 -0.0141145475 0.011316051 0.08753302 0.098802954 0.05104297 0.022777751 0.054366454
0.0911073 0.05701302 0.05149929 0.051698256 0.0051736548 -0.014035629 0.005802389 -0.03226912
0.05702482 0.11102783 0.12878995 0.1271257 0.1543697 0.15953942 0.1984495 0.051556494
0.16161591 0.121005125 0.020018876 0.04070628 -0.032396033 -0.014320158 0.03698377 0.03309178
0.018332874 0.00013778194 0.025511649 -0.048842154 -0.049173076 0.019987375 -0.0669442 0.010656336
-0.033773784 -0.040138196 -0.020035548 -0.011206244 0.0013054422 -0.032640357 0.092570044 0.027021158
00000000: 1147 e13b 4373 42bc 7712 363c b8cc a6ba
00000010: b189 613d a5b5 0e3d 8808 603a 8a47 b93c
00000020: b277 093d b3b5 a4bd 3726 3abd 8f8c 863b
00000030: d76d 81bd fe44 073d 6a50 e7bc a320 aebb
00000040: 6285 683d bca3 293d a3b2 47bd e0d7 82bd
00000050: 268e 02b9 207c 71bd 679a 053c 2da8 433c
00000060: e07b f5bb 15f2 e6bc 992f c33b d9a0 f3bc
00000070: 1bbd 2b3b 52ca 77bc 5b8d b4bb 5276 37bd
00000080: f0e9 21bd 130a 27bd 3771 6d3c 8d33 9cbc
00000090: 7859 9bbc fdd5 f4bc 50e1 69bc 7cb7 23bd
000000a0: 7b0f 83bc 3e1d 593d b7d8 8dbc 786f 74bc
000000b0: bce2 d4bc 8648 f63d 58fe df3d 2a3d ca3d
000000c0: 3992 be3d 96f9 0b3e 3c45 8d3d b733 213c
000000d0: c1a7 9cbc 1d85 9c3d 5228 e03c dc91 903c
000000e0: 5dc2 2e3d 06e1 9a3c f393 d83a 42fd 4d3d
000000f0: 7c0d a03b 1acc 8b3b 5de6 373d 2def a63c
00000100: d44c d3bc fa73 b4bc fe60 a7bc 27c2 a039
00000110: e4cc cb3c f5b4 b7bb 267f 12bd de90 4bbb
00000120: 80a4 063e 28fa 913d dbe3 7f3d 55f2 f73c
00000130: e48b 3e3d d67e a93d 8063 96bc e9f2 773c
00000140: 8ba5 62bb 2240 71bd a307 5bbd 0656 0dbd
00000150: c759 fabc 0c02 153d 35a8 47bc 36c8 8f3c
00000160: 0e4c b23c a1fb 563d e87c 993d 7a33 2e3d
00000170: 48ce 463d 51d0 693d 1c2c ca3d e7fe 3c3d
00000180: c8dd 83bc 1cbb 203d 513c 4b3d f5d9 e23d
00000190: dfb2 da3b 5003 a93b e4eb 853d 407a e4bc
000001a0: 4fe3 9c3b 8903 1b3d 1ce4 393d 87fb 9a3d
000001b0: 36ab 393d e9c6 083b 179f 2a3d 7fbc abbc
000001c0: eade a5bc c4f7 7cbc 237a 9bbc 6b1a 683d
000001d0: 3807 04bc 7699 083d 310b 47bd 2a08 c73c
000001e0: 5451 12bc 2029 833d 0d6c 273d b6ac 133d
000001f0: 22c5 56bc 9928 893b 5b16 8b3d e347 ee3c
00000200: fc23 cd3c e2bf 943d a6fb 663d f579 2e3d
00000210: 711f 093d e81a 893c e1a4 d23d 73f0 c43c
00000220: f800 b2bc 86be fb3c e520 ad3b 72f6 3a3d
00000230: 5f11 0b3d 9022 023d 5746 f5bc 3976 4bbd
00000240: 565b b43b b4ae fabb 796a 703d 625d d0bc
00000250: 154e 3f3a 5c0e f2bc 572e 9d3b 2811 54bd
00000260: d7a8 e13c 2e67 bdbc e2dc 91bd 3f3d 413d
00000270: ce77 9b3c 87f4 823d a6ec c63d 94d7 0e3d
00000280: 03d6 48bc 57f9 a83c 0632 85bc 38a0 9b39
00000290: 5a8e c13c b591 4cbd ba5b 2dbb c1f0 c0bc
000002a0: 447b a1bd c76e c33c 9b5b 263d ccd4 2ebd
000002b0: dbf1 b7bc d871 173d 877d 5b3d 320b 0b3d
000002c0: 236d be3c d45a a13d 6300 0d3d a696 d43d
000002d0: 6c3f 1abd 795e 36bd bcf3 2abc 01eb 91bd
000002e0: 6f56 77bd db6c 7dbd 3661 88bd 5f00 d3bc
000002f0: 1a03 8bbc a06e cdbb 7571 0abd 44ee 1dba
00000300: 91a4 c2bc 5af3 203d e782 663d c51f 52bd
00000310: 960c 96bc 32ef 0f3d 319c 1dbd cbe1 74bc
00000320: 6802 8f3d ce2a fabc 44cd a23b cb71 dbbb
00000330: b466 01bd 84fd e43c f432 193c 323a 6b3d
00000340: c453 2e3d b440 67bc f566 393c 8344 b33d
00000350: 3459 ca3d 6f12 513d 6898 ba3c 5caf 5e3d
00000360: 7796 ba3d 7c86 693d ebf0 523d 8dc1 533d
00000370: c387 a93b b2f5 65bc f721 be3b a02c 04bd
00000380: dc92 693d 8f62 e33d 83e1 033e 3d2d 023e
00000390: 1713 1e3e 4d5e 233e 5936 4b3e e72c 533d
000003a0: a47e 253e 89d1 f73d a0fe a33c a1bb 263d
000003b0: b4b1 04bd 199f 6abc 4b7c 173d 3f8b 073d
000003c0: d32e 963c 8f79 1039 cefd d03c b60e 48bd
000003d0: b569 49bd 90bc a33c 0a1a 89bd ea97 2e3c
000003e0: 6156 0abd f367 24bd 9721 a4bc 659a 37bc
000003f0: 5f1b ab3a e5b1 05bd 5d95 bd3d 7a5b dd3c

convolutional3.bias f4 [100]
0.04527322 -0.055456035 -0.013125203 -0.019170908 0.032214534 -0.09331295 0.050007176 0.007650877
0.051901247 -0.02439463 -0.0395891 -0.001831688 0.007027456 0.05589036 0.009187252 0.10808346
0.028864602 0.030802816 -0.10451145 0.02832264 0.01714644 0.012123146 0.08004167 0.10444046
0.004495616 -0.04883027 0.08183415 -0.0040729605 -0.032611053 0.029150348 0.074821286 0.0124844555
0.06597767 -0.08626964 -0.10361571 0.08965554 0.022710834 -0.07517581 -0.07325732 -0.023634382
-0.03843921 -0.0653625 0.05037976 0.020854319 0.020061433 0.0014316536 -0.0319342 0.023040771
0.0024757572 0.080001354 0.0028965457 0.012727051 0.018194247 0.019884083 -0.08617463 -0.015557113
0.060117207 -0.068771005 -0.01655307 0.046503775 -0.021358874 0.06539916 0.032413516 -0.023707885
0.013016427 0.024879279 -0.011107849 -0.08601722 0.033671927 0.075282544 0.002870403 -0.020368801
-0.010877934 -0.045646448 0.05239972 -0.040052835 0.037056863 0.06285708 0.13834155 0.033589385
0.032701578 0.004832336 -0.013500016 0.076192155 0.018705724 -0.0040992494 0.024619788 0.01664789
0.00098993 0.044097487 0.018485505 -0.04899413 0.026820939 -0.04506613 0.03287838 -0.041627605
-0.02658309 0.05961533 0.03571882 -0.037138622
00000000: 6970 393d de25 63bd 170b 57bc 4f0c 9dbc
00000010: 63f3 033d dc1a bfbd 53d4 4c3d 35b4 fa3b
00000020: 6796 543d 3fd7 c7bc 2e28 22bd 4015 f0ba
00000030: 9346 e63b 4aed 643d 2186 163c dc5a dd3d
00000040: 7575 ec3c 3056 fc3c 190a d6bd e204 e83c
00000050: b176 8c3c 29a0 463c e3ec a33d e1e4 d53d
00000060: f64f 933b 4002 48bd aa98 a73d 7876 85bb
00000070: 2b93 05bd b6cc ee3c e73b 993d 9a8b 4c3c
00000080: 4d1f 873d 23ae b0bd 7934 d4bd 539d b73d
00000090: 120c ba3c c6f5 99bd ef07 96bd e49c c1bc
000000a0: 6f72 1dbd c6dc 85bd 025b 4e3d add6 aa3c
000000b0: e057 a43c 53a6 bb3a 70cd 02bd 00c0 bc3c
000000c0: 5040 223b c0d7 a33d f9d3 3d3b 1f85 503c
000000d0: 1a0c 953c f2e3 a23c 537c b0bd 43e3 7ebc
000000e0: 763d 763d d0d7 8cbd 4e9a 87bc be7a 3e3d
000000f0: cef8 aebc ffef 853d 09c4 043d 0a37 c2bc
00000100: da42 553c a1cf cb3c b2fd 35bc cc29 b0bd
00000110: 93eb 093d bc2d 9a3d 5f1d 3c3b 79dc a6bc
00000120: 5d39 32bc c5f7 3abd 17a1 563d 710e 24bd
00000130: f0c8 173d 36bb 803d 68a9 0d3e 0695 093d
00000140: 17f2 053d 9358 9e3b 2c2f 5dbc a20a 9c3d
00000150: bf3c 993c ff52 86bb 70af c93c 2861 883c
00000160: 8ac0 813a 919f 343d ea6e 973c 12ae 48bd
00000170: 96b7 db3c 4397 38bd 7bab 063d b581 2abd
00000180: c8c4 d9bc 342f 743d e64d 123d ab1e 18bd

linear1.weight f4 [100, 1600]
-0.01395872 -0.0032446748 -0.011732181 -0.0071491296 -0.030216277 -0.018363792 0.01686889 -0.01424452
-0.033012096 -0.0040406156 0.0034559548 -0.0050294483 -0.020535998 -0.01063013 -0.0019743512 0.014227276
-0.010253315 -0.03695025 -0.049433555 0.011692082 -0.048741646 0.0071272557 0.03922357 0.015889378
-0.011962786 0.004774359 -0.011307465 0.006639578 0.020757917 0.020489233 -0.00862302 -0.020691501
-0.049005084 -0.023189113 -0.0013807847 -0.055178158 -0.041762367 -0.010202956 -0.0179427 -0.017027253
-0.015307955 0.020108795 0.018826617 -0.01577124 0.011347701 0.02256593 0.036832403 -0.012592391
-0.023137152 -0.029082358 0.002404223 -0.01695082 -0.05023306 0.01872776 -0.00728856 0.032426197
-0.02923517 0.006908768 0.015579899 0.015708257 -0.011193794 0.009417079 0.008119439 -0.010486221
-0.017076517 -0.010775697 -0.009810722 0.041483723 -0.037017517 -0.039617643 0.01671449 0.010234548
0.035204522 -0.0019479927 0.018112846 0.018686997 -0.0005494115 -0.023441728 -0.024280837 0.015560257
0.016024323 -0.005474464 -0.038880154 0.014967913 -0.04426918 0.0115678795 0.027614282 0.014572505
0.024503376 0.008054938 -0.0019083617 0.041611888 0.032909222 0.020945534 0.024285704 0.024355542
-0.018171674 -0.012679323 -0.023302844 -0.03299803 -0.008254095 -0.032389216 -0.029172001 -0.03471586
-0.03549765 -0.008504297 0.05329697 0.023199027 0.016998596 -0.006961297 0.015985679 0.02718004
0.0053669894 -0.023755789 -0.0017601707 0.024610177 -0.017158369 0.01315956 0.0048213247 -0.0064822054
-0.023361778 -0.014992864 -0.0062720496 0.02093172 -0.02871749 -0.015302952 -0.044221424 -0.024914315
-0.0173241 0.0014228447 -0.012700325 0.034995575 -0.01769715 6.503042e-05 -0.01489355 0.030049544
-0.014516379 0.0025480548 -0.0015498854 0.001085128 0.020551173 -0.011708757 -0.020958059 -0.0044230465
0.029125042 -0.032413017 -0.01654379 0.022459196 0.014416091 -0.025082933 0.027671963 0.032677267
0.029219251 0.0093232095 -0.021708114 -0.019859098 0.007758889 0.03460577 -0.025102356 0.011222164
-0.05272035 0.017921504 -0.017331302 -0.033000864 -0.037773818 0.0032024554 -0.038420253 0.03517882
-0.034240484 0.001709616 0.013837645 0.007317499 0.026257329 0.009334681 -0.016141245 -0.024058703
-0.020527992 -0.011038277 -0.007385265 0.008731192 0.00563798 0.017914595 -0.00062438846 -0.013452104
-0.020907272 -0.022749973 0.0022701658 0.023124775 0.0052371216 0.0022559967 -0.001641158 -0.018693635
-0.0085225655 -0.0214799 0.005204957 0.05283269 -0.02402028 -0.027791392 -0.0135646295 0.0064194617
-0.008382488 0.01012895 0.020960754 -0.0013192071 -0.010999201 -0.0015073639 0.0023480456 0.015495255
-0.035667848 -0.029494919 0.013523704 0.03940547 -0.01700295 -0.014939395 -0.0021038956 0.0035753518
-0.0045697764 0.023632096 0.024380475 0.0019484838 0.0050765867 -0.009810044 -0.0010299283 0.009448872
-0.012888509 -0.026278874 0.003074585 -0.002319526 0.0014361981 -0.0061512883 0.009147856 0.040258676
0.015581568 0.028517762 0.03463046 0.03087898 0.018775897 -0.0137680285 0.0023884694 0.053959433
0.0072352546 0.0008374689 -0.0033152963 0.030174207 -0.017699873 -0.0060546156 0.021414345 0.020631632
-0.017859131 -0.022270441 0.012444281 0.028749114 0.02893225 0.0045787087 0.026342776 0.03716407
00000000: 1db3 64bc 9ca4 54bb 5538 40bc 3f43 eabb
00000010: 2088 f7bc aa6f 96bc a030 8a3c d961 69bc
00000020: b137 07bd 2467 84bb 4d7d 623b 12ce a4bb
00000030: 1c3b a8bc ff29 2ebc 1e64 01bb 8519 693c
00000040: 85fd 27bc 2559 17bd d77a 4abd 2590 3f3c
00000050: 52a5 47bd c18b e93b e5a8 203d 712a 823c
00000060: 90ff 43bc 3a72 9c3b f242 39bc d190 d93b
00000070: 820c aa3c 09d9 a73c 9147 0dbc 3981 a9bc
00000080: 8eb9 48bd 18f7 bdbc 72fb b4ba 7e02 62bd
00000090: 040f 2bbd 4d2a 27bc 92fc 92bc bd7c 8bbc
000000a0: 38ce 7abc 33bb a43c 473a 9a3c b032 81bc
000000b0: b5eb 393c 2fdc b83c 93dd 163d 5150 4ebc
000000c0: 208a bdbc 203e eebc 2b90 1d3b 72dc 8abc
000000d0: 2ec1 4dbd f66a 993c dfd4 eebb 55d1 043d
000000e0: 987e efbc f262 e23b d542 7f3c 9aae 803c
000000f0: 2d66 37bc 184a 1a3c 6507 053c 66ce 2bbc
00000100: 0de4 8bbc 8d8c 30bc 27bd 20bc d6ea 293d
00000110: ae9f 17bd 1c46 22bd d3ec 883c ceae 273c
00000120: 9e32 103d ca53 ffba 6461 943c 7915 993c
00000130: 6206 10ba de08 c0bc 9be8 c6bc 73f0 7e3c
00000140: 7145 833c 2263 b3bb cc40 1fbd fa3b 753c
00000150: 9a53 35bd 3487 3d3c 5937 e23c 84c1 6e3c
00000160: 4ebb c83c dcf8 033c fe21 faba 3a71 2a3d
00000170: d2cb 063d f895 ab3c d0f2 c63c 4685 c73c
00000180: c3dc 94bc efbc 4fbc 9be5 bebc f128 07bd
00000190: 2f3c 07bc 8eaa 04bd 1ffa eebc 3832 0ebd
000001a0: fc65 11bd 9b55 0bbc ec4d 5a3d e30b be3c
000001b0: a440 8b3c 971b e4bb 66f4 823c ada8 de3c
000001c0: 92dd af3b 809b c2bc 87b5 e6ba 489b c93c
000001d0: b58f 8cbc 329b 573c 34fc 9d3b ae68 d4bb
000001e0: 3361 bfbc a1a4 75bc c485 cdbb 0079 ab3c
000001f0: f140 ebbc 3cb9 7abc 8621 35bd 1b19 ccbc
00000200: 45eb 8dbc bf7e ba3a 0615 50bc 8557 0f3d
00000210: 9df9 90bc f160 8838 1404 74bc 762a f63c
00000220: 1bd6 6dbc 44fd 263b 8625 cbba db3a 8e3a
00000230: ef5a a83c 16d6 3fbc 3cb0 abbc 34ef 90bb
00000240: a497 ee3c 83c3 04bd d886 87bc 59fc b73c
00000250: 7831 6c3c b97a cdbc 50b0 e23c 99d8 053d
00000260: 365d ef3c 60c0 183c 37d5 b1bc 8caf a2bc
00000270: 473e fe3b c8be 0d3d 75a3 cdbc 2bdd 373c
00000280: 4bf1 57bd 1ed0 923c 60fa 8dbc ea2b 07bd
00000290: b8b8 1abd 49e0 513b 8e5e 1dbd ab17 103d
000002a0: c03f 0cbd 3215 e03a 4ab7 623c a1c7 ef3b
000002b0: 9c19 d73c 7df0 183c a53a 84bc c216 c5bc
000002c0: 522a a8bc e4d9 34bc 1800 f2bb 460d 0f3c
000002d0: cebe b83b a1c1 923c 00ae 23ba 3766 5cbc
000002e0: ba45 abbc 275e babc 10c7 143b 2b70 bd3c
000002f0: 299c ab3b 58d9 133b 201c d7ba 6523 99bc
00000300: 3ba2 0bbc 9ef6 afbc 588e aa3b 1767 583d
00000310: 2ec6 c4bc c6aa e3bc 2e3e 5ebc 595a d23b
00000320: b456 09bc e5f3 253c e3b5 ab3c 3fe9 acba
00000330: fe35 34bc bd92 c5ba abe1 193b cfdf 7d3c
00000340: 7318 12bd 549f f1bc 8792 5d3c a167 213d
00000350: c549 8bbc 5dc4 74bc 83e1 09bb 7350 6a3b
00000360: 10be 95bb 1998 c13c 90b9 c73c 4464 ff3a
00000370: 7f59 a63b 4fba 20bc a9fe 86ba 71cf 1a3c
00000380: 532a 53bc cb46 d7bc fa7e 493b 3003 18bb
00000390: d03e bc3a bf90 c9bb e4e0 153c 48e6 243d
000003a0: d549 7f3c 159e e93c abd8 0d3d eaf5 fc3c
000003b0: e9cf 993c 4c93 61bc de87 1c3b 9104 5d3d
000003c0: b715 ed3b 9689 5b3a 7145 59bb e62f f73c
000003d0: 53ff 90bc cc65 c6bb 236d af3c ab03 a93c
000003e0: 504d 92bc 8070 b6bc 19e3 4b3c 4383 eb3c
000003f0: 5303 ed3c fe08 963b cecc d73c 5a39 183d

linear1.bias f4 [100]
0.0224345 -0.02223772 0.009876976 0.04576209 -0.019532029 -0.0044587273 -0.0010413817 -0.01577961
0.009649535 0.0118892295 0.04987819 0.023835989 -0.030471314 0.02984507 0.019471312 0.038059074
-0.022028638 0.021459859 -0.047605827 -0.0052752504 -0.069305986 0.093074664 -0.009564838 0.03243377
0.018013727 0.016011113 -0.0015363429 -0.012132099 0.05387878 0.019623393 0.014282792 0.023654312
-0.083131954 0.03126009 -0.05625856 -0.026308032 0.016543096 0.057488732 -0.048163567 0.021333477
0.111105256 -0.040852156 0.0014852647 -0.010897701 0.084009975 0.011432274 0.02583002 7.724485e-05
0.05677465 0.015565769 -0.022840384 0.022863977 0.017788775 -0.0641793 -0.019532267 -0.014642877
0.08052813 -0.06920612 0.071183875 0.052866217 4.4038257e-05 -0.0035617128 0.055772554 0.02870223
0.0668007 0.033446595 -0.018494628 -0.041368585 -0.011885495 0.010383216 -0.0017098177 -0.028709577
-0.0002880322 -0.02184708 -0.055950522 -0.012016492 0.027963188 0.08899185 -0.02945292 0.0165365
-0.021778073 -0.028479822 -0.012696044 -0.0271628 0.041921802 0.009552728 0.009877193 0.0025780685
-0.006101431 -0.041137274 0.014596966 -0.0170543 -0.00065641565 -0.009384999 0.016631717 0.013876266
-0.04331047 -0.025071882 -0.0097174365 -0.016983354
00000000: 8ec8 b73c e12b b6bc 0ad3 213c 0771 3b3d
00000010: a201 a0bc 841a 92bb f97e 88ba 3e44 81bc
00000020: 1519 1e3c 0bcb 423c 134d 4c3d b143 c33c
00000030: fa9e f9bc a67d f43c 4d82 9f3c d5e3 1b3d
00000040: 6775 b4bc 96cc af3c 54fe 42bd 02dc acbb
00000050: 4cf0 8dbd ee9d be3d d7b5 1cbc 46d9 043d
00000060: 8691 933c bd29 833c 1d5f c9ba b6c5 46bc
00000070: ffaf 5c3d 3dc1 a03c 5f02 6a3c b0c6 c13c
00000080: 1641 aabd 950a 003d 606f 66bd f183 d7bc
00000090: 6385 873c 4e79 6b3d 2947 45bd 8bc3 ae3c
000000a0: 278b e33d 9754 27bd 37ad c23a 458c 32bc
000000b0: 6c0d ac3d 6f4e 3b3c 7a99 d33c 83fe a138
000000c0: 898c 683d 9107 7f3c c21b bbbc 3c4d bb3c
000000d0: c4b9 913c 7070 83bd 2202 a0bc ade8 6fbc
000000e0: efeb a43d f0bb 8dbd dac8 913d 3f8a 583d
000000f0: b8b5 3838 a06b 69bb c371 643d f020 eb3c
00000100: cece 883d 4cff 083d 0c82 97bc 1b72 29bd
00000110: 61bb 42bc 5d1e 2a3c f61b e0ba 5930 ebbc
00000120: 0703 97b9 a6f8 b2bc 602c 65bd d2e0 44bc
00000130: 0e13 e53c 5c41 b63d 4047 f1bc 8e77 873c
00000140: ee67 b2bc 844e e9bc 1103 50bc 8584 debc
00000150: 32b6 2b3d 0c83 1c3c f3d3 213c d0f4 283b
00000160: 83ee c7bb 8f7f 28bd 1d28 6f3c 76b5 8bbc
00000170: 4f13 2cba 8ac3 19bc 3d3f 883c 4759 633c
00000180: 5266 31bd 8c63 cdbc e235 1fbc ad20 8bbc

new_linear2.weight f4 [10, 100]
0.09411307 0.07931134 -0.10005828 -0.018191086 0.09653617 -0.025036812 0.008195187 0.058257036
0.032095592 -0.05463375 -0.017567972 0.042952877 -0.08142791 -0.109645285 -0.061511766 -0.014894723
0.08999852 0.022196192 -0.11076256 -0.068646334 0.039822865 0.055241253 0.043145962 0.08788515
0.052630816 0.017117701 -0.059161346 -0.055116177 -0.05228844 0.010369187 -0.061243456 -0.02471279
-0.11585073 0.0010410523 0.028958203 -0.018525995 -0.02508341 -0.019048898 -0.022317154 0.039538134
-0.04773311 -0.055820797 0.06134165 0.014621794 0.08225881 -0.036220625 -0.019682935 0.009663836
0.009137133 -0.03317213 -0.08709492 -0.11225978 -0.08435257 -0.044797085 -0.061537873 0.02735855
-0.07114906 -0.03086484 -0.10261305 -0.09358419 -0.041617204 -0.004902101 0.02428173 -0.0064274226
-0.06421444 -0.007546655 -0.016056694 0.055774495 -0.08523609 -0.058924437 -0.08278537 0.06350424
0.019416556 -0.079668336 -0.07252439 -0.08779722 0.05682184 0.059553202 -0.014316247 -0.094514765
-0.0026581453 -0.041912854 -0.017154418 -0.053309817 0.011637285 0.053563647 -0.010599114 -0.09938585
0.037491303 -0.06975795 0.07326072 0.08317771 -0.042398706 -0.067524806 -0.017925479 -0.04573171
-0.07758359 -0.053969324 -0.0515969 -0.09800866 -0.04717579 -0.16003379 0.02586924 -0.01147753
-0.04380832 0.066147454 0.017694484 0.039066248 -0.0120447315 -0.016673839 0.039822783 -0.095235445
-0.095944904 0.12762286 0.14715187 -0.022308674 0.014916323 -0.08912614 0.07606595 -0.04820408
-0.105259925 -0.09166408 -0.116064094 -0.11812627 -0.0137424925 -0.00953798 0.018861035 0.065278776
-0.10256288 -0.021940889 -0.23737034 -0.13574897 0.09541257 -0.0011716544 -0.06256253 -0.041394148
-0.06484201 -0.025886312 0.10433739 0.067043364 0.09670797 -0.11320439 -0.01197426 0.03912405
0.07926864 0.043846287 0.05776766 0.0992281 -0.050818056 -0.033076003 -0.06401935 -0.19029047
0.012010071 0.08565612 0.023316696 0.18791895 -0.06516597 -0.04454256 0.018870074 0.06395869
0.062731065 -0.07960789 0.092138536 0.045878824 0.14131993 0.06552623 0.09807169 -0.021761887
0.03859799 0.0063309893 0.07026255 0.118133835 -0.07285373 0.07579811 0.12074886 -0.035499677
-0.040248003 -0.09295134 0.15178551 -0.07859967 0.088724196 0.05944555 0.08390785 -0.07923135
-0.010700678 0.11920924 0.023663282 -0.0020358935 -0.031932008 0.107074335 -0.08448233 0.07607063
0.008602586 0.097330146 0.0067210346 -0.0896423 -3.1760013e-05 -0.06991383 -0.16516726 -0.05338704
0.00713967 -0.03882853 -0.07099801 0.098493606 -0.09199387 0.058169745 -0.050657243 -0.0066667646
-0.05402981 0.12714776 0.005627637 0.054072104 -0.070651196 -0.067522466 0.07265154 0.10393591
-0.027164757 0.07769369 -0.06674977 -0.075512774 0.016066652 -0.052191358 -0.08943966 0.0059877927
0.088589594 0.03563229 0.069798306 -0.05050677 -0.017672835 -0.06694662 -0.033291075 0.028162148
0.03389529 0.012054554 -0.104537055 0.13040708 -0.12702478 0.14539105 0.08496301 -0.07258629
-0.04334834 -0.0213903 0.07818893 -0.08307494 -0.06032835 0.014606215 -0.02837578 -0.114707656
0.024564713 -0.01807145 -0.010485389 0.015045001 -0.0938359 -0.053482197 0.08106456 -0.2073484
00000000: 5abe c03d fc6d a23d 5beb ccbd 7905 95bc
00000010: c1b4 c53d 001a cdbc 1b45 063c ee9e 6e3d
00000020: ab76 033d a4c7 5fbd b5ea 8fbc 5bef 2f3d
00000030: adc3 a6bd b58d e0bd c3f3 7bbd ff08 74bc
00000040: 2551 b83d cad4 b53c 7bd7 e2bd 7396 8cbd
00000050: 4d1d 233d a744 623d d2b9 303d 21fd b33d
00000060: 6993 573d 6c3a 8c3c 2b53 72bd 80c1 61bd
00000070: 672c 56bd 86e3 293c 6bda 7abd 7a72 cabc
00000080: 2643 edbd eb73 883a c139 ed3c d4c3 97bc
00000090: b97b cdbc 6f0c 9cbc 77d2 b6bc bdf2 213d
000000a0: cb83 43bd 59a4 64bd 6241 7b3d 4090 6f3c
000000b0: 4f77 a83d 145c 14bd 1b3e a1bc 1155 1e3c
000000c0: eab3 153c 80df 07bd d25e b2bd 75e8 e5bd
000000d0: 0ac1 acbd 267d 37bd 230f 7cbd 0a1f e03c
000000e0: 99b6 91bd 43d8 fcbc ca26 d2bd 11a9 bfbd
000000f0: cd76 2abd cea1 a0bb 7bea c63c 219d d2bb
00000100: dc82 83bd ee49 f7bb 5489 83bc cc73 643d
00000110: 4290 aebd c05a 71bd 608b a9bd 830e 823d
00000120: 780f 9f3c 2729 a3bd ab87 94bd 07cf b3bd
00000130: 05be 683d 0fee 733d b18e 6abc f590 c1bd
00000140: 4734 2ebb d0ac 2bbd 6c87 8cbc 655b 5abd
00000150: 50aa 3e3c 8e65 5b3d e8a7 2dbc cf8a cbbd
00000160: 7b90 193d 42dd 8ebd b709 963d 1359 aa3d
00000170: 44aa 2dbd 724a 8abd 74d8 92bc 2c51 3bbd
00000180: 25e4 9ebd f00e 5dbd 4557 53bd c4b8 c8bd
00000190: 673b 41bd e6df 23be baeb d33c 400c 3cbc
000001a0: 5a70 33bd 5178 873d 06f4 903c ee03 203d
000001b0: 4457 45bc 9397 88bc 371d 233d cd0a c3bd
000001c0: c37e c4bd 91af 023e fbae 163e aec0 b6bc
000001d0: 9863 743c c487 b6bd 77c8 9b3d a471 45bd
000001e0: 8492 d7bd 61ba bbbd 03b3 edbd 30ec f1bd
000001f0: 3128 61bc 3045 1cbc 7582 9a3c e1b0 853d
00000200: 7d0c d2bd 61bd b3bc 3611 73be c701 0bbe
00000210: aa67 c33d 3392 99ba c920 80bd e98c 29bd
00000220: e3cb 84bd 880f d4bc d7ae d53d 084e 893d
00000230: d40e c63d b4d7 e7bd b02f 44bc 8a40 203d
00000240: 9957 a23d 2a98 333d c89d 6c3d 1a38 cb3d
00000250: 9826 50bd b47a 07bd 941c 83bd 81db 42be
00000260: e4c5 443c 7a6c af3d a802 bf3c d36d 403e
00000270: bc75 85bd 4272 36bd 6a95 9a3c c6fc 823d
00000280: 2579 803d 7609 a3bd 21b3 bc3d 6feb 3b3d
00000290: 2cb6 103e 9e32 863d cfd9 c83d fc45 b2bc
000002a0: ed18 1e3d 3074 cf3b d0e5 8f3d 27f0 f13d
000002b0: 5634 95bd 0a3c 9b3d 2e4b f73d 1c68 11bd
000002c0: 17db 24bd 465d bebd a96d 1b3e ddf8 a0bd
000002d0: 08b5 b53d 2d7d 733d e1d7 ab3d 0c44 a2bd
000002e0: e651 2fbc f923 f43d 80d9 c13c a06c 05bb
000002f0: 23cb 02bd ca49 db3d 1205 adbd ebca 9b3d
00000300: dcf1 0c3c 0755 c73d 203c dc3b 6296 b7bd
00000310: 0e36 05b8 fb2e 8fbd 9b21 29be 5eac 5abd
00000320: e5f3 e93b aa0a 1fbd 6867 91bd 04b7 c93d
00000330: 4867 bcbd 6643 6e3d f87d 4fbd e074 dabb
00000340: 5d4e 5dbd 0633 023e 0a68 b83b b67a 5d3d
00000350: 93b1 90bd 3849 8abd 55ca 943d 5adc d43d
00000360: a088 debc df1d 9f3d 1ab4 88bd 71a6 9abd
00000370: 369e 833c 9bc6 55bd 242c b7bd 3f35 c43b
00000380: 766e b53d 2af3 113d 6af2 8e3d 30e0 4ebd
00000390: 9fc6 90bc 4f1b 89bd 395c 08bd 4eb4 e63c
000003a0: cad5 0a3d 7780 453c 8617 d6bd 6f89 053e
000003b0: c912 02be 64e1 143e 1601 ae3d 1fa8 94bd
000003c0: 078e 31bd b63a afbc 8521 a03d 3223 aabd
000003d0: dc1a 77bd e84e 6f3c 5374 e8bc d9eb eabd
000003e0: f03b c93c 940a 94bc e9ca 2bbc 4f7f 763c
000003f0: 092d c0bd 2610 5bbd 2d05 a63d 2453 54be

new_linear2.bias f4 [10]
-0.034963217 0.059912577 -0.020695196 -0.15373224 -0.008467253 -0.0031487888 -0.12484953 -0.11084465
0.10576585 -0.037451997
00000000: 9735 0fbd e466 753d f988 a9bc fc6b 1dbe
00000010: 3cba 0abc e95b 4ebb 1cb1 ffbd 8502 e3bd
00000020: c49b d83d 4467 19bd
