Tugas3_MarshalArijonaSinaga_2006560983/model_final_4.pt (torch_old, 874777 bytes, 10 tensors)

convolutional1.weight f4 [25, 3, 3, 3]
0.293873 0.09030297 -0.0067301085 0.15864499 -0.1302559 0.1416004 -0.016416147 0.18006396
-0.19585694 0.15738736 0.015577091 -0.24342391 0.20410386 -0.13971023 -0.22368325 0.13449703
-0.1346887 -0.073365584 -0.021707673 -0.085217975 -0.22532833 -0.067653775 0.06474092 0.07369697
-0.052099835 -0.100356594 0.07209052 -0.063241825 -0.031629812 0.21918413 -0.15644227 -0.030829633
0.122601904 0.0383188 -0.18915318 -0.05649538 0.077585645 -0.0072861407 0.17071715 -0.09360204
0.12119887 0.17696983 0.095034905 -0.13179432 0.20607671 -0.13634364 0.035503026 -0.16136973
-0.11167478 -0.06804277 -0.095228225 -0.03567062 0.12607373 -0.12732957 0.24902342 0.2339623
0.113324 0.029074574 -0.16755655 0.029519727 -0.18914394 0.10198696 -0.054692905 0.12963934
-0.118532516 -0.078347355 -0.16464573 0.00068940705 0.08430205 -0.22129695 -0.023470264 -0.24236408
0.23005041 -0.024414979 0.18880925 0.06174269 -0.059440356 0.10990779 -0.11608255 -0.15859945
0.03292955 -0.1136018 0.19285718 0.26831043 0.03436571 0.24123551 -0.14597334 0.06526462
0.05602921 -0.118649624 0.012798132 0.26764768 0.21960732 -0.14823788 -0.058129594 -0.04713822
-0.17035715 -0.10799339 -0.07519924 -0.11681285 0.10988951 -0.16052814 -0.039714847 0.15935674
-0.09457073 -0.1731744 -0.11570873 -0.07556032 -0.15239874 -0.031044584 -0.19122526 -0.069092445
0.10076426 0.10379587 0.18164039 0.18555321 0.29364458 0.12067951 -0.24185763 -0.22483765
-0.14421497 -0.15839118 -0.07999651 0.0056565553 -0.15099475 0.09267112 -0.0390268 -0.014389413
0.092902474 0.013825942 0.022161445 0.015500786 0.13766958 -0.15993184 -0.104091786 0.005137703
-0.06423675 0.07488528 0.19603081 0.15051593 0.01272813 0.027941471 -0.08245484 -0.037708323
0.032574832 -0.22688805 -0.15480657 -0.020339519 -0.09068434 -0.12065361 0.12840371 -0.23004822
-0.21636173 0.13707326 -0.118678935 -0.19232683 0.018104544 -0.07697282 -0.16230275 0.07413452
-0.060752004 -0.020711053 0.09413858 -0.09148086 -0.04586314 -0.0085362885 -0.0715599 -0.17369485
0.0478259 -0.08206645 0.008530556 0.17447665 -0.1856254 -0.24453107 -0.12774035 -0.052889153
-0.108818546 0.14732674 0.16400166 0.045046408 -0.027927352 -0.17205346 -0.011992898 0.15473318
-0.14084479 -0.13295457 0.119693406 0.058219757 0.09673467 -0.08569251 -0.16066192 -0.073914014
-0.23418374 -0.12768753 -0.27131543 0.15153314 -0.00023293315 -0.25679034 0.107447036 0.05884164
0.076699115 -0.15927711 -0.059999485 -0.06367602 0.02837707 -0.01663378 -0.10786412 0.032827847
-0.057884954 -0.042493824 -0.10628023 -0.23714274 -0.22951311 -0.041077375 -0.020378413 -0.028542928
-0.058212746 -0.28132582 -0.1675058 -0.20266381 -0.21230535 -0.056603014 -0.12498924 -0.043511987
0.11031785 -0.091053344 -0.24461491 0.014654859 -0.16431414 -0.27564278 -0.23596904 0.1614901
0.18411554 0.18389 0.03751737 -0.22725098 0.06796817 -0.020661164 0.025186086 -0.17838012
0.1470449 0.17152107 0.01858057 -0.09777614 -0.17007229 -0.21428972 -0.20246671 -0.11353066
0.08038337 0.17883322 0.09321006 0.15115924 -0.22803482 0.021429718 -0.18039747 -0.038325045
00000000: 8676 963e c3f0 b83d 3e88 dcbb d573 223e
00000010: cd61 05be b2ff 103e 287b 86bc b062 383e
00000020: b98e 48be 272a 213e 0e37 7f3c 1e44 79be
00000030: 9a00 513e 3310 0fbe 390d 65be 97b9 093e
00000040: d6eb 09be b240 96bd 4ad4 b1bc c386 aebd
00000050: 78bc 66be 108e 8abd e396 843d 70ee 963d
00000060: a366 55bd c287 cdbd 32a4 933d ee84 81bd
00000070: 438e 01bd ce71 603e 6732 20be 6d8e fcbc
00000080: b516 fb3d 2df4 1c3d 5fb1 41be b367 67bd
00000090: 39e5 9e3d 94c0 eebb 7ad0 2e3e 6db2 bfbd
000000a0: 1d37 f83d 9437 353e a9a1 c23d 17f5 06be
000000b0: c605 533e ab9d 0bbe 9f6b 113d 1b3e 25be
000000c0: bfb5 e4bd 025a 8bbd 0407 c3bd 5b1b 12bd
000000d0: 7919 013e af62 02be ffff 7e3e d093 6f3e
000000e0: 6a16 e83d cd2d ee3c f293 2bbe 5bd3 f13c
000000f0: f3ae 41be 8ade d03d ab05 60bd 2dc0 043e
00000100: 2dc1 f2bd 9474 a0bd e498 28be 53b9 343a
00000110: 8ea6 ac3d ab9b 62be b644 c0bc 4a2e 78be
00000120: 5692 6b3e ec01 c8bc 3657 413e e7e5 7c3d
00000130: bb77 73bd 5617 e13d b0bc edbd e567 22be
00000140: 23e1 063d 0fa8 e8bd 5a7c 453e fc5f 893e
00000150: 0fc3 0c3d 7106 773e 097a 15be 75a9 853d
00000160: e37e 653d 93fe f2bd 42af 513c 1e09 893e
00000170: bee0 603e accb 17be 4c19 6ebd 0214 41bd
00000180: 1b72 2ebe a32b ddbd 0f02 9abd 933b efbd
00000190: c00d e13d 7d61 24be 09ac 22bd 6a2e 233e
000001a0: 4dae c1bd a154 31be b3f8 ecbd 5ebf 9abd
000001b0: 6a0e 1cbe 3651 febc 8ed0 43be 5780 8dbd
000001c0: 7e5d ce3d ee92 d43d f0ff 393e a901 3e3e
000001d0: 9558 963e d226 f73d 87a9 77be d73b 66be
000001e0: 17ad 13be 4c31 22be 36d5 a3bd a05a b93b
000001f0: 5e9e 1abe 5bca bd3d 91da 1fbd 93c1 6bbc
00000200: a743 be3d 3486 623c eb8b b53c 02f7 7d3c
00000210: 41f9 0c3e 2cc5 23be 132e d5bd 2d5a a83b
00000220: 8f8e 83bd 745d 993d 4dbc 483e d920 1a3e
00000230: a689 503c 83e5 e43c 15de a8bd 0b74 1abd
00000240: 306d 053d 5755 68be 9d85 1ebe 109f a6bc
00000250: b6b8 b9bd 3d19 f7bd 437c 033e c391 6bbe
00000260: ee8d 5dbe ef5c 0c3e f10d f3bd 53f1 44be
00000270: fb4f 943c eda3 9dbd b132 26be d7d3 973d
00000280: 18d7 78bd 3aaa a9bc bacb c03d 515a bbbd
00000290: fdda 3bbd cadb 0bbc ff8d 92bd 10dd 31be
000002a0: 17e5 433d 7412 a8bd bfc3 0b3c 02aa 323e
000002b0: 9614 3ebe 5a66 7abe 5ece 02be 4ca2 58bd
000002c0: 42dc debd d2dc 163e 0df0 273e 9582 383d
000002d0: e7c7 e4bc c82e 30be dc7d 44bc 6072 1e3e
000002e0: 9e39 10be 3e25 08be d121 f53d d777 6e3d
000002f0: d41c c63d 8e7f afbd 8f84 24be 3b60 97bd
00000300: ddcd 6fbe 85c0 02be dbe9 8abe 812b 1b3e
00000310: 843f 74b9 067a 83be 310d dc3d ee03 713d
00000320: 6d14 9d3d 8a19 23be 05c2 75bd 9368 82bd
00000330: 0777 e83c 9143 88bc dde7 dcbd 7e76 063d
00000340: c618 6dbd 010e 2ebd 73a9 d9bd 8cd5 72be
00000350: 7c05 6bbe c040 28bd a1f0 a6bc dcd2 e9bc
00000360: 7d70 6ebd f009 90be a486 2bbe 1a87 4fbe
00000370: 9366 59be 90d8 67bd 5cfa ffbd a039 32bd
00000380: 53ee e13d 2d7a babd 557c 7abe ef1a 703c
00000390: f741 28be 0d21 8dbe dea1 71be a95d 253e
000003a0: c988 3c3e a94d 3c3e d0ab 193d 7bb4 68be
000003b0: e532 8b3d 9a41 a9bc 0d53 ce3c 47a9 36be
000003c0: f092 163e 38a3 2f3e 4836 983c db3e c8bd
000003d0: 6e27 2ebe c46e 5bbe 6f53 4fbe c382 e8bd
000003e0: 09a0 a43d 0e20 373e eae4 be3d 7dc9 1a3e
000003f0: f681 69be 608d af3c 1dba 38be b9fa 1cbd

convolutional1.bias f4 [25]
0.10420524 0.016975595 0.0762933 -0.009519488 -0.07742501 0.08990018 0.21973228 0.118432336
0.28752086 0.088151336 0.24351104 0.10729669 -0.03283692 -0.046828255 0.071051076 -0.18410231
-0.16060513 0.208975 0.13559398 0.2261483 0.23698932 -0.014075808 -0.0724628 0.043408506
0.04609779
00000000: 8f69 d53d 6710 8b3c a93f 9c3d a0f7 1bbc
00000010: 0191 9ebd 961d b83d 8001 613e a78c f23d
00000020: ef35 933e b088 b43d f55a 793e 5ebe db3d
00000030: 0280 06bd fcce 3fbd 3a83 913d 5185 3cbe
00000040: ac75 24be 8bfd 553e 26d9 0a3e 6c93 673e
00000050: 54ad 723e 389e 66bc 6067 94bd 1ecd 313d
00000060: 09d1 3c3d

convolutional2.weight f4 [50, 25, 3, 3]
0.05638573 0.018022388 -0.038492993 0.103032075 0.04899373 0.025019184 0.0131734945 0.005399907
0.02220405 0.02764381 -0.020690156 -0.08879506 -0.01841499 0.03449512 0.07828151 -0.06101908
-0.12766202 -0.01760435 0.05216224 0.08672891 0.16140641 0.1075411 0.15839532 0.16921914
0.10382931 -0.011689019 0.07680256 0.12281419 0.10257202 0.011628249 0.1601494 0.162365
0.112117946 0.052285735 0.045188643 0.04097164 0.080160886 0.053349804 -0.04022675 0.056595344
0.037459824 0.07799948 0.11724417 0.13029659 0.15268701 -0.033722192 -0.04881384 0.018219884
0.105642416 0.0695954 -0.0038072052 0.11175859 0.015992304 0.07082389 -0.06833261 -0.030285763
-0.07282636 0.009032938 0.014323463 0.046581466 0.03025275 0.1434305 0.034131117 0.01137436
-0.10981011 -0.11641933 0.013678424 0.09713721 0.013949432 0.06791455 0.02292532 0.091760896
-0.08090142 -0.08681164 0.0041231476 0.07444087 -0.021425266 0.057602737 0.055175703 0.15352637
0.02448339 -0.08810807 -0.006108911 -0.04399703 0.040775925 -0.032334913 0.07658669 0.0629732
0.034865715 0.10919559 0.020488754 -0.07403488 -0.008027279 -0.012572167 -0.038325153 0.00033893232
0.048795994 0.12895045 0.13504905 0.09728876 0.10162618 0.014307068 -0.02903672 -0.0025967911
0.037489094 -0.077346794 0.016393572 0.033247896 -0.001872964 0.03177245 -0.027860602 0.010440275
0.08792406 0.032466523 0.07605204 0.044611506 0.050524466 -0.01980254 -0.005899152 -0.014073758
0.004685257 0.038484037 -0.02040228 0.045627646 0.121138565 0.10804194 0.11929777 0.11517055
0.056422736 0.048269704 -0.055842083 -0.0340522 0.08156126 0.05165303 -0.0005230604 0.025667608
0.02674609 -0.09327608 0.07073491 -0.008438163 -0.02877773 0.078638025 0.050923754 0.010579832
-0.053099375 0.020848893 -0.014016019 0.11768827 0.078967825 0.058074627 0.1418372 0.14880478
0.13281742 0.0898943 0.010947692 0.014774169 -0.063465975 -0.03206816 -0.10281559 -0.033080243
-0.050095852 0.0027521113 0.0019665442 -0.044276066 -0.012435414 0.1118036 0.10810268 0.10351667
0.07724972 0.0725584 0.15070671 -0.0046337913 -0.047824293 -0.09450142 0.07991266 0.077293396
0.045272037 0.064455286 0.021722348 0.077351116 0.04520257 0.04868571 0.091354206 -0.089693464
-0.110807486 -0.12670127 -0.045259725 0.0020207197 0.05503597 0.15984116 0.16238973 0.109039165
0.16129811 0.21330795 0.19509771 0.15616828 0.10745247 0.07944859 -0.01715821 -0.025840387
0.038094196 0.03897891 0.09000462 0.09862139 0.04386736 0.09613618 0.0028759437 0.016498014
0.04055897 0.018863099 0.0148888985 -0.09826614 -0.075932615 0.026866848 0.04394197 0.0030580298
0.049255546 0.050158013 0.05316096 -0.08744347 -0.1236843 -0.054375358 0.040068462 0.061566215
0.045347217 0.15787342 0.11543598 0.008652695 0.074874535 0.07231521 0.08243102 0.10668116
0.050173275 0.066757634 -0.02915341 0.10086932 0.09141271 -0.031108571 0.09696555 0.09694575
0.06901528 0.026989294 0.07516173 -0.0062864213 0.030652223 0.06589141 0.01659413 0.027998839
0.063239984 -0.05826123 -0.03717643 0.04547763 -0.029181087 0.057092648 0.06884456 0.052862737
00000000: b9f4 663d b0a3 933c d4aa 1dbd 7b02 d33d
00000010: a6ad 483d 08f5 cc3c a4d5 573c b4f1 b03b
00000020: 45e5 b53c 4575 e23c 677e a9bc 2fda b5bd
00000030: 08db 96bc c14a 0d3d 0e52 a03d 25ef 79bd
00000040: d5b9 02be ff36 90bc 13a8 553d ed9e b13d
00000050: b947 253e 823e dc3d 6232 223e c847 2d3e
00000060: 76a4 d43d 4d83 3fbc a94a 9d3d 0286 fb3d
00000070: 4711 d23d 6984 3e3c 34fe 233e 0343 263e
00000080: 189e e53d 9129 563d ba17 393d e1d1 273d
00000090: 642b a43d 5385 5a3d cec4 24bd 85d0 673d
000000a0: 796f 193d 31be 9f3d b61d f03d 786c 053e
000000b0: fc59 1c3e 4820 0abd 05f1 47bd de41 953c
000000c0: 0d5b d83d 0888 8e3d 4e82 79bb b0e1 e43d
000000d0: 4b02 833c 1e0c 913d f8f1 8bbd d919 f8bc
000000e0: fd25 95bd e3fe 133c f5ac 6a3c 35cc 3e3d
000000f0: 9dd4 f73c 72df 123e 12cd 0b3d 865b 3a3c
00000100: 1fe4 e0bd 426d eebd 781b 603c e0ef c63d
00000110: 298c 643c c916 8b3d e1cd bb3c 23ed bb3d
00000120: a5af a5bd 4dca b1bd 781b 873b 7474 983d
00000130: 0a84 afbc d9f0 6b3d ebff 613d 0436 1d3e
00000140: 6491 c83c 0172 b4bd 422d c8bb 3b36 34bd
00000150: a804 273d 9d71 04bd 7cd9 9c3d 18f8 803d
00000160: 5acf 0e3d f0a1 df3d 08d8 a73c 999f 97bd
00000170: d984 03bc 7efb 4dbc d6fa 1cbd bab2 b139
00000180: 4fde 473d 960b 043e 4c4a 0a3e 543f c73d
00000190: 6321 d03d 3168 6a3c 6ade edbc ed2e 2abb
000001a0: 2a8e 193d ff67 9ebd d04b 863c f22e 083d
000001b0: 3e7e f5ba d423 023d eb3b e4bc b00d 2b3c
000001c0: 8811 b43d 9efb 043d 2cc1 9b3d 8eba 363d
000001d0: bef2 4e3d f038 a2bc ac4d c1bb 9f95 66bc
000001e0: c986 993b 70a1 1d3d af22 a7bc 0ee4 3a3d
000001f0: 7f17 f83d 1845 dd3d 6452 f43d 8ade eb3d
00000200: 871b 673d 74b6 453d abba 64bd 527a 0bbd
00000210: 9709 a73d 2192 533d fd1d 09ba e044 d23c
00000220: 9e1a db3c 8807 bfbd 77dd 903d 3940 0abc
00000230: 46bf ebbc f90c a13d 6d95 503d 0857 2d3c
00000240: bb7e 59bd 4ccb aa3c 72a3 65bc 8c06 f13d
00000250: e2b9 a13d a9df 6d3d c53d 113e 4860 183e
00000260: 4a01 083e 811a b83d f35d 333c 5b0f 723c
00000270: 73fa 81bd e759 03bd fb90 d2bd 267f 07bd
00000280: 4f31 4dbd c45c 343b 23e1 003b d25a 35bd
00000290: e8bd 4bbc 49f9 e43d f064 dd3d 8c00 d43d
000002a0: 1a35 9e3d 8099 943d dc52 1a3e 0fd7 97bb
000002b0: 68e3 43bd f689 c1bd 40a9 a33d 004c 9e3d
000002c0: 2c6f 393d 2201 843d 11f3 b13c 436a 9e3d
000002d0: 5426 393d ab6a 473d ea17 bb3d 35b1 b7bd
000002e0: 09ef e2bd fabd 01be 4362 39bd 0d6e 043b
000002f0: 666d 613d 67ad 233e 7e49 263e ed4f df3d
00000300: 552b 253e 666d 5a3e b2c7 473e 94ea 1f3e
00000310: 0a10 dc3d f1b5 a23d 608f 8cbc 38af d3bc
00000320: a908 1c3d 59a8 1f3d 5854 b83d 03fa c93d
00000330: 43ae 333d 0ce3 c43d 547a 3c3b d826 873c
00000340: 2a21 263d c986 9a3c 91f0 733c c23f c9bd
00000350: 8f82 9bbd dd17 dc3c 7ffc 333d 3a69 483b
00000360: 2fc0 493d 7d72 4d3d 4fbf 593d 9015 b3bd
00000370: 324e fdbd b2b8 5ebd d41e 243d db2c 7c3d
00000380: 01be 393d 92a9 213e b369 ec3d 09c4 0d3c
00000390: d257 993d ff19 943d 98d1 a83d a77b da3d
000003a0: 7e82 4d3d 3ab8 883d 22d3 eebc 9394 ce3d
000003b0: 9636 bb3d 67d7 febc e095 c63d 7e8b c63d
000003c0: e257 8d3d a718 dd3c 65ee 993d 53fe cdbb
000003d0: 5f1a fb3c 13f2 863d 6af0 873c d25d e53c
000003e0: f783 813d 54a3 6ebd 5046 18bd c046 3a3d
000003f0: 2d0d efbc fbd9 693d 60fe 8c3d 9986 583d

convolutional2.bias f4 [50]
-0.09071399 0.029081197 0.044219267 0.08741823 0.07056496 -0.054581683 -0.06350674 0.06712536
-0.01567402 0.047200643 0.028170438 -0.035317857 0.06043989 -0.03742806 0.004485045 0.056988318
-0.010609004 0.09213768 0.04441689 -0.10688184 0.043763768 -0.043284543 0.10783138 0.016454406
0.09059337 0.11451613 -0.07715447 0.0023113424 0.056523703 -0.08338279 -0.00775041 -0.023522098
-0.014252661 -0.06253903 0.05960675 -0.05086118 -0.07220341 -0.015306131 -0.034740213 -0.113933325
-0.087216765 0.09004264 -0.019809471 0.052587733 -0.05069719 -0.005204645 0.09226469 -0.022255916
-0.009473816 -0.018176423
00000000: 42c8 b9bd b13b ee3c 431f 353d 5408 b33d
00000010: 5d84 903d 0b91 5fbd d20f 82bd 0579 893d
00000020: cd66 80bc 7655 413d b1c5 e63c 75a9 10bd
00000030: d18f 773d 2a4e 19bd 49f7 923b 956c 693d
00000040: 63d1 2dbc aeb2 bc3d 7cee 353d dee4 dabd
00000050: a341 333d 224b 31bd b3d6 dc3d 64cb 863c
00000060: 0489 b93d 6f87 ea3d 2a03 9ebd e479 173b
00000070: 6685 673d 99c4 aabd 27f7 fdbb 6ab1 c0bc
00000080: fe83 69bc 7714 80bd 3526 743d d053 50bd
00000090: 62df 93bd 91c6 7abc c14b 0ebd e055 e9bd
000000a0: b49e b2bd 4768 b83d 7947 a2bc 3c66 573d
000000b0: dba7 4fbd ba8b aabb 45f5 bc3d 0a52 b6bc
000000c0: 1038 1bbc b9e6 94bc

convolutional3.weight f4 [100, 50, 3, 3]
0.017371677 -0.018892804 0.0035994651 -0.011347814 0.021826623 0.025481455 0.011900702 0.025706543
0.019698042 -0.045311775 -0.0287686 -0.01996399 -0.051773936 0.024565587 -0.035429604 -0.018155606
0.027928283 0.03905989 -0.021714792 -0.058155376 -0.02750786 -0.053010877 -0.017997945 -0.0061079906
-0.014437931 -0.06157579 -0.008177993 -0.035365224 -0.0050769993 -0.019492205 -0.00950847 -0.042038746
-0.052760936 -0.018265372 0.03259647 -0.0062343148 -0.00064769137 -0.036065564 -0.030423468 -0.045561545
-0.048864868 0.04631183 -0.041254804 -0.03078794 -0.029937563 0.08341604 0.050270613 0.038608268
0.028167844 0.09499893 0.045047414 0.0064505558 -0.038941585 0.010545252 0.03728833 -0.004643392
0.045885764 -0.017300915 -0.03286898 0.037205704 0.03294816 0.00437962 0.025661584 0.050865006
-0.020958418 -0.04758758 -0.010408535 -0.01742406 0.017050257 -0.003467868 -0.054366942 -0.016728127
0.07045545 0.012436521 0.019883562 -0.0134011 0.0007894758 0.035195597 0.015586412 0.013873593
-0.02632633 -0.04333622 -0.06719094 -0.04756051 -0.04492332 0.0061070537 -0.021602867 0.0060146633
0.010282712 0.025812922 0.066847995 0.008421459 0.014528149 0.023680845 0.048624847 0.0046621663
-0.020651925 0.013332395 0.008320196 0.03302896 -0.02820675 0.011070608 0.018986411 -0.013696945
0.0043132887 0.055095293 0.05749155 0.08019178 0.061072603 -0.0038241325 0.011502689 -0.019418918
-0.050237287 -0.036575075 -0.028058417 0.03294455 -0.029232083 0.04630202 -0.049889218 0.019455487
-0.025200825 0.019873485 0.029438691 0.024038607 -0.02464865 -0.00684395 0.06464052 -0.0069389963
-0.018485742 0.040671498 -0.0033471803 -0.007859684 0.010918213 -0.007086232 0.06292669 0.048799325
-0.017594798 0.016729621 0.016610432 0.030116128 0.031561818 0.027053589 -0.042174824 -0.049655993
0.02436462 -0.005932215 0.04017951 -0.020085877 -0.021088215 -0.04508838 0.0032455428 -0.06411447
0.016592046 0.009168132 -0.04281634 0.013410153 0.04510896 0.04265978 0.04163444 0.050285693
-0.049412724 -0.030267082 0.027789317 0.028183734 0.0025479922 -0.0101235425 -0.012011192 -0.05586085
-0.024233058 0.014309068 0.023305604 -0.017164472 -0.017757893 0.03857042 0.031525962 -0.022099428
-0.010275602 0.05974151 0.011863121 0.07078325 -0.07206511 -0.052170355 -0.026361456 -0.07927242
-0.048565235 -0.06604829 -0.051306166 -0.012237914 -0.0013704265 0.0024808173 -0.04822083 -0.02336832
-0.02964935 0.011514579 0.034325067 -0.035404064 -0.020966828 0.01747828 -0.0151577685 -0.0062826127
0.03701817 -0.020669095 -0.02585104 -0.03637447 -0.043015968 -0.0037431545 -0.015847176 0.08156119
0.044063117 -0.022285642 0.0084754815 0.043167233 0.056729525 0.04537467 -0.0121227335 0.009665704
0.001944069 0.008640363 0.03512032 0.0044400375 0.017692082 0.0025321797 0.007898287 0.0009904638
0.07216073 -0.0038564687 0.04529348 0.05117315 0.06623592 0.08210444 0.09451898 -0.013529093
0.052496444 0.017534254 0.033525955 0.037438255 -0.040886648 -0.02284875 -0.006489837 0.013225852
0.013524898 -0.009132661 0.0096884 -0.023839401 -0.044633277 -0.014306848 -0.051891044 -0.013388057
-0.054847196 -0.037852462 -0.04729251 -0.025498744 0.01907308 -0.031605266 0.064430155 0.016450552
00000000: 0c4f 8e3c 15c5 9abc 01e5 6b3b 2fec 39bc
00000010: bfcd b23c 7cbe d03c 29fb 423c 8796 d23c
00000020: ca5d a13c d798 39bd 21ac ebbc 868b a3bc
00000030: e810 54bd c53d c93c a21e 11bd 11bb 94bc
00000040: dbc9 e43c 43fd 1f3d 38e3 b1bc 5534 6ebd
00000050: 2a58 e1bc ef21 59bd 6d70 93bc 8a25 c8bb
00000060: 128d 6cbc e536 7cbd fdfc 05bc 20db 10bd
00000070: f55c a6bb 1eae 9fbc 6ac9 1bbc d230 2cbd
00000080: da1b 58bd 43a1 95bc e083 053d 3949 ccbb
00000090: d5c9 29ba 7cb9 13bd a33a f9bc be9e 3abd
000000a0: 8726 48bd 79b1 3d3d ccfa 28bd fd36 fcbc
000000b0: 9f3f f5bc 07d6 aa3d 8fe8 4d3d b423 1e3d
000000c0: 40c0 e63c cd8e c23d a383 383d 2f5f d33b
000000d0: 3681 1fbd fec5 2c3c a6bb 183d 9827 98bb
000000e0: b6f2 3b3d a6ba 8dbc a0a1 06bd 0265 183d
000000f0: a6f4 063d ea82 8f3b 3e38 d23c d357 503d
00000100: fdb0 abbc 32eb 42bd 8f88 2abc e7bc 8ebc
00000110: fbac 8b3c 2c45 63bb dfaf 5ebd 6d09 89bc
00000120: f24a 903d 8dc2 4b3c dae2 a23c 4a90 5bbc
00000130: d3f4 4e3a 4229 103d 265e 7f3c 114e 633c
00000140: 51aa d7bc 5281 31bd 679b 89bd cfce 42bd
00000150: 8401 38bd ae1d c83b 7ff8 b0bc a716 c53b
00000160: d278 283c 9f75 d33c 9ae7 883d 29fa 093c
00000170: 7907 6e3c 55fe c13c d92a 473d 16c5 983b
00000180: 3a2e a9bc 1e70 5a3c 6e51 083c 6049 073d
00000190: d811 e7bc 7f61 353c 6489 9b3c 2769 60bc
000001a0: 7d56 8d3b 9aab 613d 427c 6b3d 973b a43d
000001b0: 4427 7a3d 4c9e 7abb c675 3c3c 6c14 9fbc
000001c0: 9dc5 4dbd bfcf 15bd c4da e5bc ddf0 063d
000001d0: 1f78 efbc 30a7 3d3d a358 4cbd 1d61 9f3c
000001e0: f671 cebc b8cd a23c 6929 f13c 9dec c43c
000001f0: f7eb c9bc 3743 e0bb 4062 843d 8560 e3bb
00000200: 696f 97bc 2897 263d 5e5c 5bbb e7c5 00bc
00000210: 4ee2 323c 9f33 e8bb b5df 803d cde1 473d
00000220: f722 90bc 8f0c 893c 9a12 883c 19b6 f63c
00000230: f746 013d 7d9f dd3c 82bf 2cbd 1564 4bbd
00000240: 5098 c73c 0763 c2bb 4593 243d 238b a4bc
00000250: 31c1 acbc 98ae 38bd 2cb3 543b 724e 83bd
00000260: 0bec 873c ef35 163c 3060 2fbd 42b6 5b3c
00000270: 2cc4 383d 05bc 2e3d e088 2a3d 5ff8 4d3d
00000280: ff64 4abd acf2 f7bc 6ca6 e33c 93e1 e63c
00000290: 37fc 263b 37dd 25bc 97ca 44bc 59ce 64bd
000002a0: 6884 c6bc 9570 6a3c 65eb be3c 829c 8cbc
000002b0: 0079 91bc 04fc 1d3d 5e21 013d dc09 b5bc
000002c0: 005b 28bc 83b3 743d 895d 423c cff6 903d
000002d0: df96 93bd 95b0 55bd fbf3 d7bc 9459 a2bd
000002e0: 57ec 46bd 5344 87bd 6a26 52bd 8881 48bc
000002f0: e29f b3ba 3595 223b 3483 45bd eb6e bfbc
00000300: 32e3 f2bc a5a7 3c3c 7198 0c3d da03 11bd
00000310: a0c2 abbc 9c2e 8f3c 4a58 78bc 60de cdbb
00000320: 5da0 173d 3c52 a9bc 8fc5 d3bc 65fd 14bd
00000330: 8331 30bd b64f 75bb f0d1 81bc 8e09 a73d
00000340: 877b 343d 6190 b6bc bfdc 0a3c 20d0 303d
00000350: 385d 683d cada 393d 6e9e 46bc e75c 1e3c
00000360: 22d0 fe3a 4f90 0d3c 53da 0f3d bc7d 913b
00000370: fcee 903c edf2 253b d167 013c 73d2 813a
00000380: 01c9 933d cfbc 7cbb a885 393d f09a 513d
00000390: b3a6 873d 5f26 a83d 2b93 c13d 21a9 5dbc
000003a0: 8306 573d ffa3 8f3c 8352 093d db58 193d
000003b0: c278 27bd 4d2d bbbc b3a8 d4bb 3eb1 583c
000003c0: 8997 5d3c 28a1 15bc 18bc 1e3c d94a c3bc
000003d0: 62d1 36bd 4567 6abc b48b 54bd 9559 5bbc
000003e0: 74a7 60bd 2f0b 1bbd cab5 41bd bee2 d0bc
000003f0: 263f 9c3c 8674 01bd f5f3 833d 4fc3 863c

convolutional3.bias f4 [100]
0.009507927 -0.12383284 0.03208223 -0.025499135 -0.04928469 -0.06933233 0.059186272 0.008591197
0.051156506 0.05060396 -0.11135649 -0.001831688 -0.050935406 -0.005357995 0.044844158 0.023755815
0.047964767 0.022841366 -0.08699556 0.02639993 0.057794552 0.06618651 0.10671636 0.095936514
-0.04911064 -0.051344503 0.11344061 0.028136235 -0.074662596 0.008846142 0.042003907 -0.04612434
0.08279698 -0.06252377 -0.11746205 0.09164819 -0.016537922 -0.017268015 -0.122712746 -0.063724495
-0.12698832 -0.02565529 0.06281485 0.093583606 -0.04500342 0.049817592 -0.08877318 0.010424616
-0.018860344 0.0032334265 0.0054847663 0.060574476 -0.08504141 0.013784485 -0.0513547 0.0555962
-0.003038378 -0.14079659 -0.09399561 0.04342617 -0.07182895 -0.029576873 -0.02519088 -0.009341317
0.04153215 -0.05652672 0.029349927 -0.04404071 0.015406304 0.120714694 0.038307253 -0.08787821
-0.019125558 -0.02596144 0.050857536 -0.018496536 0.00041732378 -0.014048539 0.017350536 0.038806178
-0.074564256 -0.08483832 -0.06378366 0.056547288 -0.044899303 -0.02879419 0.018961623 0.04713443
0.06409491 0.012601323 0.028304316 -0.05833916 0.068652265 -0.05462613 -0.05838751 -0.07479284
-0.06749863 0.029428067 0.018611727 -0.084244534
00000000: 23c7 1b3c 129c fdbd a868 033d 90e3 d0bc
00000010: bede 49bd 1cfe 8dbd 4e6d 723d 18c2 0c3c
00000020: 7c89 513d 1946 4f3d df0e e4bd 4015 f0ba
00000030: a5a1 50bd 1f92 afbb 82ae 373d 8e9b c23c
00000040: b476 443d d11d bb3c ba2a b2bd aa44 d83c
00000050: fbb9 6c3d cb8c 873d 1b8e da3d 5d7a c43d
00000060: 3d28 49bd 9d4e 52bd 8d53 e83d f67d e63c
00000070: b4e8 98bd 69ef 103c 4a0c 2c3d e0ec 3cbd
00000080: 7791 a93d 760c 80bd f18f f0bd 0cb2 bb3d
00000090: 897a 87bc a775 8dbc d250 fbbd fd81 82bd
000000a0: 3a09 02be 0b2b d2bc 12a5 803d c3a8 bf3d
000000b0: 8255 38bd 880d 4c3d b7ce b5bd 02cc 2a3c
000000c0: 0281 9abc e5e7 533b 8eb9 b33b f11c 783d
000000d0: 312a aebd 52d8 613c 4e59 52bd d7b8 633d
000000e0: 861f 47bb fb2c 10be c580 c0bd a4df 313d
000000f0: 0e1b 93bd 334b f2bc 1b5d cebc 530c 19bc
00000100: 9e1d 2a3d 9088 67bd 426f f03c 0864 34bd
00000110: b96a 7c3c 4439 f73d 11e8 1c3d 7ef9 b3bd
00000120: 34ad 9cbc 16ad d4bc fe4f 503d 0c86 97bc
00000130: 40cc da39 d82b 66bc b622 8e3c 3af3 1e3d
00000140: 25b5 98bd b7bf adbd 02a1 82bd 219e 673d
00000150: 55e8 37bd cbe1 ebbc 6855 9b3c 0810 413d
00000160: 3144 833d c875 4e3c 74de e73c 0bf5 6ebd
00000170: 8f99 8c3d a6bf 5fbd be27 6fbd fd2c 99bd
00000180: b93c 8abd 2113 f13c 9f77 983c 6688 acbd

linear1.weight f4 [100, 1600]
-0.01395872 -0.0032446748 -0.011732181 -0.0071491296 -0.030216277 -0.018363792 0.01686889 -0.01424452
-0.033012096 -0.0040406156 0.0034559548 -0.0050294483 -0.020535998 -0.01063013 -0.0019743512 0.014227276
-0.010253315 -0.03695025 -0.049433555 0.011692082 -0.048741646 0.0071272557 0.03922357 0.015889378
-0.011962786 0.004774359 -0.011307465 0.006639578 0.020757917 0.020489233 -0.00862302 -0.020691501
-0.049005084 -0.023189113 -0.0013807847 -0.055178158 -0.041762367 -0.010202956 -0.0179427 -0.017027253
-0.015307955 0.020108795 0.018826617 -0.01577124 0.011347701 0.02256593 0.036832403 -0.012592391
-0.023137152 -0.029082358 0.002404223 -0.01695082 -0.05023306 0.01872776 -0.00728856 0.032426197
-0.02923517 0.006908768 0.015579899 0.015708257 -0.011193794 0.009417079 0.008119439 -0.010486221
-0.017076517 -0.010775697 -0.009810722 0.041483723 -0.037017517 -0.039617643 0.01671449 0.010234548
0.035204522 -0.0019479927 0.018112846 0.018686997 -0.0005494115 -0.023441728 -0.024280837 0.015560257
0.016024323 -0.005474464 -0.038880154 0.014967913 -0.04426918 0.0115678795 0.027614282 0.014572505
0.024503376 0.008054938 -0.0019083617 0.041611888 0.032909222 0.020945534 0.024285704 0.024355542
-0.018171674 -0.012679323 -0.023302844 -0.03299803 -0.008254095 -0.032389216 -0.029172001 -0.03471586
-0.03549765 -0.008504297 0.05329697 0.023199027 0.016998596 -0.006961297 0.015985679 0.02718004
0.0053669894 -0.023755789 -0.0017601707 0.024610177 -0.017158369 0.01315956 0.0048213247 -0.0064822054
-0.023361778 -0.014992864 -0.0062720496 0.02093172 -0.02871749 -0.015302952 -0.044221424 -0.024914315
-0.0173241 0.0014228447 -0.012700325 0.034995575 -0.01769715 6.503042e-05 -0.01489355 0.030049544
-0.014516379 0.0025480548 -0.0015498854 0.001085128 0.020551173 -0.011708757 -0.020958059 -0.0044230465
0.029125042 -0.032413017 -0.01654379 0.022459196 0.014416091 -0.025082933 0.027671963 0.032677267
0.029219251 0.0093232095 -0.021708114 -0.019859098 0.007758889 0.03460577 -0.025102356 0.011222164
-0.05272035 0.017921504 -0.017331302 -0.033000864 -0.037773818 0.0032024554 -0.038420253 0.03517882
-0.034240484 0.001709616 0.013837645 0.007317499 0.026257329 0.009334681 -0.016141245 -0.024058703
-0.020527992 -0.011038277 -0.007385265 0.008731192 0.00563798 0.017914595 -0.00062438846 -0.013452104
-0.020907272 -0.022749973 0.0022701658 0.023124775 0.0052371216 0.0022559967 -0.001641158 -0.018693635
-0.0085225655 -0.0214799 0.005204957 0.05283269 -0.02402028 -0.027791392 -0.0135646295 0.0064194617
-0.008382488 0.01012895 0.020960754 -0.0013192071 -0.010999201 -0.0015073639 0.0023480456 0.015495255
-0.035667848 -0.029494919 0.013523704 0.03940547 -0.01700295 -0.014939395 -0.0021038956 0.0035753518
-0.0045697764 0.023632096 0.024380475 0.0019484838 0.0050765867 -0.009810044 -0.0010299283 0.009448872
-0.012888509 -0.026278874 0.003074585 -0.002319526 0.0014361981 -0.0061512883 0.009147856 0.040258676
0.015581568 0.028517762 0.03463046 0.03087898 0.018775897 -0.0137680285 0.0023884694 0.053959433
0.0072352546 0.0008374689 -0.0033152963 0.030174207 -0.017699873 -0.0060546156 0.021414345 0.020631632
-0.017859131 -0.022270441 0.012444281 0.028749114 0.02893225 0.0045787087 0.026342776 0.03716407
00000000: 1db3 64bc 9ca4 54bb 5538 40bc 3f43 eabb
00000010: 2088 f7bc aa6f 96bc a030 8a3c d961 69bc
00000020: b137 07bd 2467 84bb 4d7d 623b 12ce a4bb
00000030: 1c3b a8bc ff29 2ebc 1e64 01bb 8519 693c
00000040: 85fd 27bc 2559 17bd d77a 4abd 2590 3f3c
00000050: 52a5 47bd c18b e93b e5a8 203d 712a 823c
00000060: 90ff 43bc 3a72 9c3b f242 39bc d190 d93b
00000070: 820c aa3c 09d9 a73c 9147 0dbc 3981 a9bc
00000080: 8eb9 48bd 18f7 bdbc 72fb b4ba 7e02 62bd
00000090: 040f 2bbd 4d2a 27bc 92fc 92bc bd7c 8bbc
000000a0: 38ce 7abc 33bb a43c 473a 9a3c b032 81bc
000000b0: b5eb 393c 2fdc b83c 93dd 163d 5150 4ebc
000000c0: 208a bdbc 203e eebc 2b90 1d3b 72dc 8abc
000000d0: 2ec1 4dbd f66a 993c dfd4 eebb 55d1 043d
000000e0: 987e efbc f262 e23b d542 7f3c 9aae 803c
000000f0: 2d66 37bc 184a 1a3c 6507 053c 66ce 2bbc
00000100: 0de4 8bbc 8d8c 30bc 27bd 20bc d6ea 293d
00000110: ae9f 17bd 1c46 22bd d3ec 883c ceae 273c
00000120: 9e32 103d ca53 ffba 6461 943c 7915 993c
00000130: 6206 10ba de08 c0bc 9be8 c6bc 73f0 7e3c
00000140: 7145 833c 2263 b3bb cc40 1fbd fa3b 753c
00000150: 9a53 35bd 3487 3d3c 5937 e23c 84c1 6e3c
00000160: 4ebb c83c dcf8 033c fe21 faba 3a71 2a3d
00000170: d2cb 063d f895 ab3c d0f2 c63c 4685 c73c
00000180: c3dc 94bc efbc 4fbc 9be5 bebc f128 07bd
00000190: 2f3c 07bc 8eaa 04bd 1ffa eebc 3832 0ebd
000001a0: fc65 11bd 9b55 0bbc ec4d 5a3d e30b be3c
000001b0: a440 8b3c 971b e4bb 66f4 823c ada8 de3c
000001c0: 92dd af3b 809b c2bc 87b5 e6ba 489b c93c
000001d0: b58f 8cbc 329b 573c 34fc 9d3b ae68 d4bb
000001e0: 3361 bfbc a1a4 75bc c485 cdbb 0079 ab3c
000001f0: f140 ebbc 3cb9 7abc 8621 35bd 1b19 ccbc
00000200: 45eb 8dbc bf7e ba3a 0615 50bc 8557 0f3d
00000210: 9df9 90bc f160 8838 1404 74bc 762a f63c
00000220: 1bd6 6dbc 44fd 263b 8625 cbba db3a 8e3a
00000230: ef5a a83c 16d6 3fbc 3cb0 abbc 34ef 90bb
00000240: a497 ee3c 83c3 04bd d886 87bc 59fc b73c
00000250: 7831 6c3c b97a cdbc 50b0 e23c 99d8 053d
00000260: 365d ef3c 60c0 183c 37d5 b1bc 8caf a2bc
00000270: 473e fe3b c8be 0d3d 75a3 cdbc 2bdd 373c
00000280: 4bf1 57bd 1ed0 923c 60fa 8dbc ea2b 07bd
00000290: b8b8 1abd 49e0 513b 8e5e 1dbd ab17 103d
000002a0: c03f 0cbd 3215 e03a 4ab7 623c a1c7 ef3b
000002b0: 9c19 d73c 7df0 183c a53a 84bc c216 c5bc
000002c0: 522a a8bc e4d9 34bc 1800 f2bb 460d 0f3c
000002d0: cebe b83b a1c1 923c 00ae 23ba 3766 5cbc
000002e0: ba45 abbc 275e babc 10c7 143b 2b70 bd3c
000002f0: 299c ab3b 58d9 133b 201c d7ba 6523 99bc
00000300: 3ba2 0bbc 9ef6 afbc 588e aa3b 1767 583d
00000310: 2ec6 c4bc c6aa e3bc 2e3e 5ebc 595a d23b
00000320: b456 09bc e5f3 253c e3b5 ab3c 3fe9 acba
00000330: fe35 34bc bd92 c5ba abe1 193b cfdf 7d3c
00000340: 7318 12bd 549f f1bc 8792 5d3c a167 213d
00000350: c549 8bbc 5dc4 74bc 83e1 09bb 7350 6a3b
00000360: 10be 95bb 1998 c13c 90b9 c73c 4464 ff3a
00000370: 7f59 a63b 4fba 20bc a9fe 86ba 71cf 1a3c
00000380: 532a 53bc cb46 d7bc fa7e 493b 3003 18bb
00000390: d03e bc3a bf90 c9bb e4e0 153c 48e6 243d
000003a0: d549 7f3c 159e e93c abd8 0d3d eaf5 fc3c
000003b0: e9cf 993c 4c93 61bc de87 1c3b 9104 5d3d
000003c0: b715 ed3b 9689 5b3a 7145 59bb e62f f73c
000003d0: 53ff 90bc cc65 c6bb 236d af3c ab03 a93c
000003e0: 504d 92bc 8070 b6bc 19e3 4b3c 4383 eb3c
000003f0: 5303 ed3c fe08 963b cecc d73c 5a39 183d

linear1.bias f4 [100]
0.0224345 -0.02223772 0.009876976 0.04576209 -0.019532029 -0.0044587273 -0.0010413817 -0.01577961
0.009649535 0.0118892295 0.04987819 0.023835989 -0.030471314 0.02984507 0.019471312 0.038059074
-0.022028638 0.021459859 -0.047605827 -0.0052752504 -0.069305986 0.093074664 -0.009564838 0.03243377
0.018013727 0.016011113 -0.0015363429 -0.012132099 0.05387878 0.019623393 0.014282792 0.023654312
-0.083131954 0.03126009 -0.05625856 -0.026308032 0.016543096 0.057488732 -0.048163567 0.021333477
0.111105256 -0.040852156 0.0014852647 -0.010897701 0.084009975 0.011432274 0.02583002 7.724485e-05
0.05677465 0.015565769 -0.022840384 0.022863977 0.017788775 -0.0641793 -0.019532267 -0.014642877
0.08052813 -0.06920612 0.071183875 0.052866217 4.4038257e-05 -0.0035617128 0.055772554 0.02870223
0.0668007 0.033446595 -0.018494628 -0.041368585 -0.011885495 0.010383216 -0.0017098177 -0.028709577
-0.0002880322 -0.02184708 -0.055950522 -0.012016492 0.027963188 0.08899185 -0.02945292 0.0165365
-0.021778073 -0.028479822 -0.012696044 -0.0271628 0.041921802 0.009552728 0.009877193 0.0025780685
-0.006101431 -0.041137274 0.014596966 -0.0170543 -0.00065641565 -0.009384999 0.016631717 0.013876266
-0.04331047 -0.025071882 -0.0097174365 -0.016983354
00000000: 8ec8 b73c e12b b6bc 0ad3 213c 0771 3b3d
00000010: a201 a0bc 841a 92bb f97e 88ba 3e44 81bc
00000020: 1519 1e3c 0bcb 423c 134d 4c3d b143 c33c
00000030: fa9e f9bc a67d f43c 4d82 9f3c d5e3 1b3d
00000040: 6775 b4bc 96cc af3c 54fe 42bd 02dc acbb
00000050: 4cf0 8dbd ee9d be3d d7b5 1cbc 46d9 043d
00000060: 8691 933c bd29 833c 1d5f c9ba b6c5 46bc
00000070: ffaf 5c3d 3dc1 a03c 5f02 6a3c b0c6 c13c
00000080: 1641 aabd 950a 003d 606f 66bd f183 d7bc
00000090: 6385 873c 4e79 6b3d 2947 45bd 8bc3 ae3c
000000a0: 278b e33d 9754 27bd 37ad c23a 458c 32bc
000000b0: 6c0d ac3d 6f4e 3b3c 7a99 d33c 83fe a138
000000c0: 898c 683d 9107 7f3c c21b bbbc 3c4d bb3c
000000d0: c4b9 913c 7070 83bd 2202 a0bc ade8 6fbc
000000e0: efeb a43d f0bb 8dbd dac8 913d 3f8a 583d
000000f0: b8b5 3838 a06b 69bb c371 643d f020 eb3c
00000100: cece 883d 4cff 083d 0c82 97bc 1b72 29bd
00000110: 61bb 42bc 5d1e 2a3c f61b e0ba 5930 ebbc
00000120: 0703 97b9 a6f8 b2bc 602c 65bd d2e0 44bc
00000130: 0e13 e53c 5c41 b63d 4047 f1bc 8e77 873c
00000140: ee67 b2bc 844e e9bc 1103 50bc 8584 debc
00000150: 32b6 2b3d 0c83 1c3c f3d3 213c d0f4 283b
00000160: 83ee c7bb 8f7f 28bd 1d28 6f3c 76b5 8bbc
00000170: 4f13 2cba 8ac3 19bc 3d3f 883c 4759 633c
00000180: 5266 31bd 8c63 cdbc e235 1fbc ad20 8bbc

linear2.weight f4 [10, 100]
-0.1350837 0.053801745 0.0030102904 -0.047968887 -0.09768238 -0.057377357 0.012415868 0.04690862
-0.006383409 0.015861094 -0.10235556 -0.0048714196 0.017938016 -0.028499927 -0.096785344 0.00055879646
0.010748679 -0.05486817 0.07685323 -0.05117737 -0.061822362 0.0766448 -0.029714169 0.10692743
-0.026301824 -0.040054463 -0.08811251 -0.090559125 0.027164033 -0.15278669 0.033562467 0.10292565
0.063636765 0.08491562 -0.10880027 0.046984166 0.06838858 0.040653434 -0.12604043 0.024407392
-0.05869316 -0.045414284 -0.053304315 0.04107518 -0.037552446 0.09666832 0.10103388 0.07500915
0.055798233 -0.014843396 0.09232756 0.018333599 -0.054145765 -0.120550156 -0.08040144 -0.07443001
0.09434039 0.10633343 0.027315997 -0.06470126 0.025791233 -0.14126305 -0.07145727 -0.0629698
0.044341534 0.09189657 -0.057434462 0.04578632 0.03128775 -0.090286575 -0.10627028 -0.01836727
0.061297916 -0.120389074 0.027639277 -0.045330103 -0.11026176 -0.019607203 0.10777479 -0.009636247
-0.095367044 -0.039103102 -0.06317214 -0.033815943 0.03054423 0.084005825 -0.059379026 -0.09808685
0.10316509 0.08004418 -0.031039162 0.089499645 0.021490837 -0.09907874 -0.081556834 0.050400216
0.083246194 0.0052359966 0.030459162 -0.05844647 0.09590071 -0.050645825 -0.07646133 -0.09222717
0.05050853 0.009496739 0.021996224 -0.060446024 -0.030633887 0.027978476 -0.13227728 0.0731194
0.10905243 0.031072067 -0.03681221 -0.038522523 -0.02138889 0.0001411784 0.11317539 0.06701512
0.053182032 -0.13915023 0.068264 -0.09560931 -0.07480881 -0.038533214 0.086379446 0.041247018
-0.07617743 -0.03362429 -0.00038314282 -0.07463679 -0.008108532 0.0039418414 0.1095114 -0.13926063
-0.04514388 -0.039826978 0.0046576886 0.013682133 -0.11227623 -0.007906659 0.041726682 -0.031485505
-0.05538295 -0.03865048 0.030473588 0.09210458 0.024889424 0.015442998 -0.08406635 0.07201572
0.08525996 0.03175142 0.015372191 -0.039132494 -0.11456074 0.09730698 -0.097480476 -0.08047601
-0.0023313188 0.031553376 0.0231821 0.000422129 -0.084224544 0.08822735 -0.014183107 0.031768207
-0.06193129 0.0531743 0.08293776 -0.09023113 0.034043312 0.044731412 -0.09045209 -0.014250838
0.07656072 -0.116263285 -0.040786456 -0.09752749 -0.043060716 0.061745904 0.040425155 0.010674155
-0.051928 0.067851424 0.049767092 -0.04312107 -0.073969565 0.02109347 -0.0702129 -0.031021768
-0.07994664 -0.09819279 -0.0696488 0.05738588 -0.03405672 -0.051405065 0.056151047 0.045925252
0.11169615 -0.07635184 -0.034721836 0.07139677 -0.06996323 0.029613854 0.05467692 0.07789382
-0.091005534 0.11911587 0.0069926637 0.070536844 -0.06220418 0.03490819 -0.13394094 0.11350563
-0.05523016 0.085733 -0.07240204 0.06677195 -0.13246264 0.15745324 -0.10722224 -0.1083225
-0.06762727 0.012248976 -0.023118833 0.08366322 -0.047084942 -0.048197895 -0.11789304 0.071653254
-0.01337185 0.13433945 -0.008762217 -0.08312799 0.091919295 0.09995882 0.070289254 0.04855807
0.12832017 -0.08166208 -0.072285526 0.025601825 0.057355776 -0.018743195 -0.021396242 -0.05010956
0.047978695 -0.030669248 -0.09172619 0.13696519 -0.064842865 -0.03597384 -0.027436197 0.09596295
00000000: 6253 0abe 385f 5c3d 4b48 453b 067b 44bd
00000010: b30d c8bd 8504 6bbd ed6b 4b3c 4123 403d
00000020: ea2b d1bb 20ef 813c cb9f d1bd 6ea0 9fbb
00000030: bff2 923c ae78 e9bc 6537 c6bd 327c 123a
00000040: 3a1b 303c 72bd 60bd 3a65 9d3d 5d9f 51bd
00000050: 7239 7dbd f3f7 9c3d 216b f3bc c5fc da3d
00000060: ec76 d7bc 2610 24bd 5574 b4bd 1077 b9bd
00000070: 1b87 de3c 1d74 1cbe cc78 093d afca d23d
00000080: fe53 823d 3ee8 ad3d add2 debd 7872 403d
00000090: 500f 8c3d 3784 263d be10 01be 03f2 c73c
000000a0: 3d68 70bd 5404 3abd a055 5abd 733e 283d
000000b0: 98d0 19bd 0afa c53d daea ce3d 669e 993d
000000c0: b08c 643d b731 73bc 3b16 bd3d 5830 963c
000000d0: f3c7 5dbd 00e3 f6bd 83a9 a4bd c36e 98bd
000000e0: 8935 c13d 57c5 d93d ccc5 df3c 1882 84bd
000000f0: 2348 d33c 43a7 10be 3058 92bd 4ff6 80bd
00000100: 789f 353d 4534 bc3d 6640 6bbd 708a 3b3d
00000110: 9527 003d 2be8 b8bd 3ca4 d9bd f576 96bc
00000120: 8613 7b3d 8c8e f6bd c46b e23c 0fac 39bd
00000130: ebd0 e1bd 499f a0bc 07b9 dc3d 59e1 1dbc
00000140: cc4f c3bd 932a 20bd 6560 81bd 9682 0abd
00000150: e537 fa3c 3f0b ac3d 6c37 73bd c2e1 c8bd
00000160: 3848 d33d 34ee a33d d745 febc 974b b73d
00000170: 8d0d b03c cbe9 cabd 4507 a7bd 7570 4e3d
00000180: fb7c aa3d b992 ab3b 7e85 f93c 9165 6fbd
00000190: 9767 c43d ff71 4fbd c297 9cbd 99e1 bcbd
000001a0: 08e2 4e3d 3698 1b3c 6d31 b43c 4096 77bd
000001b0: ebf3 fabc 1e33 e53c b273 07be a0bf 953d
000001c0: e156 df3d d98a fe3c 66c8 16bd cbc9 1dbd
000001d0: c137 afbc 4a09 1439 80c8 e73d 393f 893d
000001e0: 67d5 593d 667d 0ebe ffcd 8b3d d0ce c3bd
000001f0: 5d35 99bd 01d5 1dbd b5e7 b03d a2f2 283d
00000200: ea02 9cbd a0b9 09bd 8fe0 c8b9 2cdb 98bd
00000210: a6d9 04bc 902a 813b 8347 e03d 579a 0ebe
00000220: cae8 38bd 9d21 23bd 869f 983b 062b 603c
00000230: 14f1 e5bd ee8a 01bc 99e9 2a3d f2f6 00bd
00000240: 3bd9 62bd f74f 1ebd bfa3 f93c 53a1 bc3d
00000250: e8e4 cb3c a104 7d3c fa2a acbd fa7c 933d
00000260: c69c ae3d c70d 023d a4db 7b3c 6549 20bd
00000270: d29e eabd e248 c73d d8a3 c7bd 9bd0 a4bd
00000280: 0ac9 18bb 1d3e 013d 63e8 bd3c 3251 dd39
00000290: eb7d acbd 8ab0 b43d 4360 68bc 611f 023d
000002a0: aaab 7dbd 4bcd 593d 46db a93d 19cb b8bd
000002b0: 0071 0b3d 4938 373d f23e b9bd 597c 69bc
000002c0: decb 9c3d 721b eebd b30f 27bd 7ebc c7bd
000002d0: 6f60 30bd 46e9 7c3d d994 253d a7e2 2e3c
000002e0: 74b2 54bd b0f5 8a3d 94d8 4b3d b89f 30bd
000002f0: 5b7d 97bd 36cc ac3c c8cb 8fbd 5d21 febc
00000300: 10bb a3bd 4d19 c9bd 08a4 8ebd 750d 6b3d
00000310: 0f7f 0bbd 1e8e 52bd a4fe 653d 1e1c 3c3d
00000320: f3c0 e43d 5a5e 9cbd 7c38 0ebd 7838 923d
00000330: e248 8fbd c198 f23c e8f4 5f3d cc86 9f3d
00000340: 1c61 babd 05f3 f33d b722 e53b 9f75 903d
00000350: cfc9 7ebd e4fb 0e3d d027 09be a475 e83d
00000360: 0539 62bd c894 af3d 8547 94bd bbbf 883d
00000370: 49a4 07be 6c3b 213e 5597 dbbd 30d8 ddbd
00000380: 2b80 8abd eeaf 483c b563 bdbc 9f57 ab3d
00000390: 24dc 40bd 286b 45bd e871 f1bd f1be 923d
000003a0: 9b15 5bbc 4890 093e 678f 0fbc 023f aabd
000003b0: 2f40 bc3d 36b7 cc3d d0f3 8f3d d4e4 463d
000003c0: 5d66 033e 733e a7bd 6f0a 94bd ebba d13c
000003d0: e4ed 6a3d 548b 99bc 2c47 afbc af3f 4dbd
000003e0: 4f85 443d 133e fbbc f1da bbbd 9a40 0c3e
000003f0: 56cc 84bd 4e59 13bd e0c1 e0bc 3988 c43d

linear2.bias f4 [10]
-0.026727356 -0.11458781 0.017520443 0.040386733 -0.025765907 -0.05100945 0.07947177 0.06283835
0.13348073 -0.11097596
00000000: 54f3 dabc 04ad eabd 0887 8f3c 8f6c 253d
00000010: 0613 d3bc 49ef 50bd 18c2 a23d 65b1 803d
00000020: 2caf 083e 5d47 e3bd
