Tugas3_MarshalArijonaSinaga_2006560983/model_final_pretrain_1.pt (torch_old, 874777 bytes, 10 tensors)

convolutional1.weight f4 [25, 3, 3, 3]
0	0x3e97e7d2	0.29669052
1	0x3dbb33a9	0.09140713
2	0xbbbdde63	-0.005794333
3	0x3e21b96f	0.15793394
4	0xbe04920a	-0.12946334
5	0x3e130ca2	0.14360288
6	0xbc961fec	-0.018325768
7	0x3e3714ce	0.1787903
8	0xbe483fc4	-0.19555575
9	0x3e2303b8	0.15919387
10	0x3c8c0bc9	0.017095463
11	0xbe772872	-0.24136522
12	0x3e50bfbb	0.2038564
13	0xbe0c6018	-0.13708532
14	0xbe611617	-0.21981083
15	0x3e098718	0.1343044
16	0xbe0867de	-0.13320872
17	0xbd900c2d	-0.07033572
18	0xbc9b2a90	-0.018941194
19	0xbdaa85d3	-0.08326306
20	0xbe63de22	-0.22252706
21	0xbd86ded0	-0.06585467
22	0x3d8bfc52	0.06835236
23	0x3da06fb3	0.07833805
24	0xbd4dae09	-0.0502148
25	0xbdc844f8	-0.0977878
26	0x3d9b8d02	0.075952545
27	0xbd8570c3	-0.06515648
28	0xbcff0c82	-0.031133894
29	0x3e60ae00	0.21941376
30	0xbe245a51	-0.16050078
31	0xbd0d4419	-0.03448877
32	0x3df81560	0.12113452
33	0x3d165d64	0.036710158
34	0xbe45ca61	-0.19315483
35	0xbd7873af	-0.0606572
36	0x3d9bbc37	0.076042585
37	0xbbef7c1f	-0.0073084976
38	0x3e2ea91c	0.17056698
39	0xbdc6079d	-0.09669421
40	0x3df07b0c	0.11742219
41	0x3e32edfb	0.17473595
42	0x3dbeb4e0	0.09311843
43	0xbe0c3333	-0.13691406
44	0x3e4d66e8	0.20058787
45	0xbe09a7f5	-0.13442977
46	0x3d1faa57	0.038980808
47	0xbe222b03	-0.1583672
48	0xbde33b60	-0.11095309
49	0xbd8a89c7	-0.0676456
50	0xbdc0a7e3	-0.09407022
51	0xbd0df0e2	-0.034653552
52	0x3dfe9535	0.12430803
53	0xbe043ab8	-0.12913024
54	0x3e83a452	0.25711304
55	0x3e772e3b	0.2413873
56	0x3df3dced	0.119073726
57	0x3d208b26	0.039195202
58	0xbe228029	-0.15869202
59	0x3d101e90	0.035185397
60	0xbe361047	-0.17779647
61	0x3de60704	0.11231807
62	0xbd42cb84	-0.04755737
63	0x3e08214f	0.13293956
64	0xbdecfa3d	-0.11571167
65	0xbd9ab20b	-0.0755349
66	0xbe25b970	-0.1618402
67	0x3b65c9e6	0.0035062968
68	0x3db09f66	0.08624153
69	0xbe5f639d	-0.21815343
70	0xbca9d862	-0.020733062
71	0xbe7659a3	-0.24057631
72	0x3e6a0d13	0.2285655
73	0xbcd05a9f	-0.025433837
74	0x3e40a662	0.1881347
75	0x3d72e557	0.059300747
76	0xbd7b5dd1	-0.061368767
77	0x3ddd0b76	0.107932016
78	0xbdf34566	-0.11878471
79	0xbe251b11	-0.16123606
80	0x3cf8564e	0.03031459
81	0xbdd6325c	-0.10458824
82	0x3e4e5b4f	0.20152019
83	0x3e8eab80	0.2786522
84	0x3d28c7d7	0.041206207
85	0x3e7c9d55	0.24669392
86	0xbe0d9532	-0.13826445
87	0x3d95eb07	0.073202185
88	0x3d81c21e	0.06335853
89	0xbde45b9e	-0.11150287
90	0x3c6ea233	0.0145650385
91	0x3e897330	0.26845694
92	0x3e64059a	0.22267762
93	0xbe17f307	-0.14838801
94	0xbd7565bf	-0.059911486
95	0xbd3a7e25	-0.045530457
96	0xbe2d3394	-0.16914207
97	0xbddc7d1c	-0.1076605
98	0xbd977821	-0.0739596
99	0xbdf0fd84	-0.11767104
100	0x3ddd3741	0.108015545
101	0xbe2402c5	-0.16016681
102	0xbd2e18aa	-0.04250399
103	0x3e1ee9a6	0.15518817
104	0xbdc277ab	-0.09495481
105	0xbe337719	-0.17525901
106	0xbdf242c2	-0.11829139
107	0xbd9c5843	-0.07634022
108	0xbe126448	-0.14296067
109	0xbca71914	-0.0203977
110	0xbe3aee4c	-0.18254966
111	0xbd6ba29e	-0.05752813
112	0x3de563cc	0.11200675
113	0x3de8fea7	0.11376696
114	0x3e47d385	0.19514282
115	0x3e4ca3da	0.1998438
116	0x3e9ce01a	0.30639726
117	0x3dfcfcb8	0.1235289
118	0xbe747ce7	-0.23875771
119	0xbe64544e	-0.22297785
120	0xbe11b531	-0.14229275
121	0xbe21b096	-0.15790018
122	0xbda5101a	-0.08059712
123	0x3ba61391	0.0050682505
124	0xbe1bb172	-0.15204409
125	0x3db87566	0.09006767
126	0xbd288370	-0.041140974
127	0xbc86a651	-0.016436728
128	0x3db7c6af	0.08973443
129	0x3c233ca9	0.009963193
130	0x3c8b072b	0.016971191
131	0x3c17981f	0.009252577
132	0x3e0527ff	0.13003539
133	0xbe2bde3d	-0.16783996
134	0xbde7f054	-0.11325136
135	0x3b278e7d	0.0025567107
136	0xbd8c34ac	-0.06845984
137	0x3d92af5f	0.07162356
138	0x3e4442cb	0.19166104
139	0x3e15fdcd	0.14647599
140	0x3c12abb1	0.008952067
141	0x3cb91b86	0.022596132
142	0xbdb0abf5	-0.08626548
143	0xbd2a450e	-0.041569762
144	0x3d02e9ea	0.03196136
145	0xbe69ab36	-0.22819218
146	0xbe1e3daf	-0.15453218
147	0xbcae87e0	-0.021305025
148	0xbdb9f3a4	-0.09079674
149	0xbdf72d31	-0.120691665
150	0x3e033f8f	0.12817214
151	0xbe6a8012	-0.22900417
152	0xbe5d1491	-0.21589877
153	0x3e0d231a	0.13782921
154	0xbdf3d2f0	-0.119054675
155	0xbe438fbb	-0.19097798
156	0x3ca22f39	0.019797908
157	0xbd9a2cf4	-0.075281054
158	0xbe2421b0	-0.16028476
159	0x3d9df2be	0.07712315
160	0xbd6b47b5	-0.057441432
161	0xbc912c38	-0.01772128
162	0x3dbb5dc8	0.09148747
163	0xbdc2eb91	-0.09517587
164	0xbd44ba6c	-0.04802935
165	0xbc57aaf4	-0.013163317
166	0xbd9da00e	-0.07696544
167	0xbe375958	-0.17905176
168	0x3d3fdc60	0.046841025
169	0xbdaa69ef	-0.083209865
170	0x3c0790c5	0.008274262
171	0x3e3019da	0.17197362
172	0xbe4054be	-0.18782327
173	0xbe7af92a	-0.24509111
174	0xbe06b98f	-0.13156722
175	0xbd6535a0	-0.055959344
176	0xbde51320	-0.111852884
177	0x3e162793	0.14663534
178	0x3e285b7f	0.16441153
179	0x3d3d4e44	0.046217218
180	0xbcda4ec1	-0.02664888
181	0xbe2f5bb0	-0.1712482
182	0xbc20415c	-0.009781208
183	0x3e1e2f42	0.15447715
184	0xbe106776	-0.14101967
185	0xbe08124e	-0.13288233
186	0x3df8a104	0.12140086
187	0x3d76ad33	0.06022377
188	0x3dcc11f6	0.09964363
189	0xbdb5466d	-0.08851323
190	0xbe279398	-0.16364896
191	0xbd9d6ba1	-0.07686544
192	0xbe74606e	-0.2386491
193	0xbe0af2ca	-0.13569179
194	0xbe8ee2bb	-0.27907357
195	0x3e15affb	0.14617912
196	0xbc091650	-0.008367136
197	0xbe8764dc	-0.26444137
198	0x3dcf4006	0.101196334
199	0x3d59a5ae	0.05313652
200	0x3d9269db	0.071490966
201	0xbe291caa	-0.1651484
202	0xbd8b7d4e	-0.06811009
203	0xbd932021	-0.071838625
204	0x3cc24576	0.023714762
205	0xbcbbfcf5	-0.022947768
206	0xbdea902d	-0.114532806
207	0x3d0164ad	0.031590153
208	0xbd71bffe	-0.05902099
209	0xbd2f3389	-0.042773757
210	0xbddc408e	-0.107545
211	0xbe767030	-0.24066234
212	0xbe6e62a4	-0.23279816
213	0xbd2a7158	-0.041612
214	0xbcb9aee8	-0.02266641
215	0xbcfcff37	-0.030883415
216	0xbd6ea931	-0.058266822
217	0xbe9223f1	-0.28543046
218	0xbe30b3d3	-0.17256097
219	0xbe514c60	-0.20439291
220	0xbe5f0a1a	-0.21781197
221	0xbd840272	-0.06445779
222	0xbe00de48	-0.12584794
223	0xbd334741	-0.043769125
224	0x3ddb96be	0.10722111
225	0xbdc2c81b	-0.09510823
226	0xbe80d112	-0.25159508
227	0x3bf4466c	0.007454684
228	0xbe2e830f	-0.17042182
229	0xbe913f18	-0.2836845
230	0xbe7ae950	-0.24503064
231	0x3e20a778	0.15688884
232	0x3e38b78e	0.1803877
233	0x3e377bb4	0.17918283
234	0x3d183d74	0.03716798
235	0xbe6bf086	-0.23040971
236	0x3d86c901	0.06581307
237	0xbcc7c4d2	-0.024385843
238	0x3ca38255	0.019959608
239	0xbe3b35c2	-0.18282226
240	0x3e1372ba	0.14399233
241	0x3e2d57fd	0.16928096
242	0x3c8f9735	0.017528156
243	0xbdcb7c46	-0.09935813
244	0xbe30ee24	-0.17278343
245	0xbe5f5fbd	-0.21813865
246	0xbe50ae60	-0.20379019
247	0xbdf21c74	-0.11821833
248	0x3d95a7ee	0.07307421
249	0x3e382d2e	0.17985985
250	0x3dc0c0ba	0.0941176
251	0x3e1ae5a3	0.15126662
252	0xbe6bcbcf	-0.23026966
253	0x3c9bf4d2	0.019037638
254	0xbe3b81a6	-0.18311176
255	0xbd1e62c4	-0.03866841

convolutional1.bias f4 [25]
0	0x3ddbcfe6	0.10733013
1	0x3c7b7f5a	0.015350187
2	0x3d990e08	0.074733794
3	0xbc3fbbb5	-0.011702468
4	0xbda22322	-0.07916857
5	0x3db75589	0.089518614
6	0x3e624d5d	0.22099824
7	0x3df0cff6	0.117584154
8	0x3e93d436	0.28872842
9	0x3db42572	0.087962046
10	0x3e7965b2	0.243552
11	0x3dda163c	0.10648772
12	0xbcf81fef	-0.030288665
13	0xbd34b007	-0.044113185
14	0x3d90064a	0.070324495
15	0xbe3b1ad9	-0.1827196
16	0xbe20dce5	-0.15709265
17	0x3e5a9e64	0.21349484
18	0x3e08f2d3	0.1337388
19	0x3e689f8e	0.22717115
20	0x3e7b5eca	0.24547878
21	0xbc881271	-0.016610356
22	0xbd95dda1	-0.07317663
23	0x3d309ea8	0.043120056
24	0x3d59a17d	0.053132523

convolutional2.weight f4 [50, 25, 3, 3]
0	0x3d7c14d1	0.06154329
1	0x3cbe41f9	0.023224818
2	0xbcffa956	-0.031208675
3	0x3ddf2934	0.10896531
4	0x3d6c54e9	0.057698164
5	0x3d12ae11	0.035810534
6	0x3cb24dca	0.021765608
7	0x3c7a4d1e	0.015277175
8	0x3d0c77ed	0.034294058
9	0x3d0d2e6d	0.034468103
10	0xbc836342	-0.01603854
11	0xbda9998e	-0.08281241
12	0xbc163628	-0.009168185
13	0x3d268546	0.040654443
14	0x3dab1410	0.08353436
15	0xbd4ae99f	-0.049539205
16	0xbdee981b	-0.116501056
17	0xbc6ce29c	-0.014458325
18	0x3d5188d7	0.05115589
19	0x3db13af0	0.086538196
20	0x3e27949c	0.16365284
21	0x3de2068c	0.11036405
22	0x3e247e71	0.16063859
23	0x3e2d3c0b	0.16917436
24	0x3dc3ff42	0.09570171
25	0xbc812c72	-0.015768263
26	0x3d90419c	0.07043764
27	0x3e063762	0.13107064
28	0x3de8ab25	0.11360768
29	0x3ca6b196	0.020348351
30	0x3e2e94f9	0.17049016
31	0x3e31cac8	0.17362511
32	0x3df6acac	0.12044653
33	0x3d7e4246	0.062074922
34	0x3d6769c4	0.05649735
35	0x3d38d12f	0.045121368
36	0x3dbf539d	0.0934212
37	0x3d86e9c6	0.065875575
38	0xbd0010f2	-0.03126616
39	0x3d8c39a6	0.06846933
40	0x3d41da68	0.04732743
41	0x3daf1be2	0.0855024
42	0x3e03b90b	0.12863557
43	0x3e0bddfd	0.136589
44	0x3e23ee40	0.16008854
45	0xbced2694	-0.02894906
46	0xbd3b1053	-0.045669865
47	0x3cbd39ef	0.023098914
48	0x3de27b39	0.11058659
49	0x3d954ff9	0.07290644
50	0x3ac0898d	0.0014689431
51	0x3df14910	0.11781514
52	0x3cab901d	0.020942742
53	0x3d9d0d50	0.07668555
54	0xbd925af9	-0.07146258
55	0xbd0a3373	-0.033740472
56	0xbd9930a1	-0.07479978
57	0x3bdf3c50	0.0068126097
58	0x3c1798f2	0.009252774
59	0x3d38b44c	0.04509382
60	0x3d02e6f5	0.03195854
61	0x3e12ed01	0.14348222
62	0x3d177613	0.03697784
63	0x3c2fe356	0.010735353
64	0xbde24e63	-0.11050107
65	0xbdedd956	-0.11613719
66	0x3c688b00	0.014193296
67	0x3dc4b19c	0.09604189
68	0x3c6a5f8b	0.014305006
69	0x3d8c47f2	0.0684966
70	0x3cc00338	0.023439035
71	0x3dbded81	0.09273816
72	0xbdaa4508	-0.08313948
73	0xbdb8be3a	-0.09020658
74	0x3991b6d0	0.0002779276
75	0x3d95ac59	0.07308263
76	0xbcd58a5d	-0.026066953
77	0x3d5eaadb	0.05436216
78	0x3d6339ee	0.055475168
79	0x3e1b107f	0.15143012
80	0x3cc451c7	0.023964776
81	0xbdb131f6	-0.086521074
82	0xbbc48890	-0.005997725
83	0xbd3862dd	-0.04501616
84	0x3d2dd080	0.04243517
85	0xbd052f71	-0.032515947
86	0x3d9c45e4	0.07630518
87	0x3d88cedc	0.0668008
88	0x3d13d49f	0.036091443
89	0x3de3d04d	0.111237146
90	0x3ca113a7	0.019662691
91	0xbda0869d	-0.078381754
92	0xbc441eb6	-0.011970213
93	0xbc72e3e8	-0.014824845
94	0xbd2bfcae	-0.04198902
95	0xbb8ec849	-0.004357372
96	0x3d49bdae	0.04925316
97	0x3e025305	0.12726982
98	0x3e0959d8	0.13413179
99	0x3dbf870a	0.093519285
100	0x3dcc0b08	0.099630415
101	0x3c6e927f	0.014561295
102	0xbd0d58cf	-0.034508523
103	0xbbc50269	-0.00601225
104	0x3d0d1f88	0.0344539
105	0xbdafb63c	-0.0857968
106	0x3b4a93de	0.003091089
107	0x3cc36e06	0.023856174
108	0xbae22777	-0.0017254193
109	0x3cfbcf4f	0.0307385
110	0xbcdc7878	-0.026912913
111	0x3c316f7a	0.010829801
112	0x3db120ec	0.086488575
113	0x3d03cc36	0.032177173
114	0x3d9b520f	0.07584011
115	0x3d3458ae	0.044029884
116	0x3d4ed710	0.05049807
117	0xbca28a6e	-0.019841399
118	0xbbf8be08	-0.007591013
119	0xbc66fb62	-0.01409802
120	0x3b9e8182	0.004837216
121	0x3d15bdb5	0.03655787
122	0xbcb0a350	-0.021562248
123	0x3d39c00c	0.045349166
124	0x3df76218	0.12079257
125	0x3dddf482	0.10837652
126	0x3df122d4	0.11774221
127	0x3defd6e9	0.11710913
128	0x3d71b0d5	0.05900653
129	0x3d23581e	0.039878957
130	0xbd84cb2a	-0.06484063
131	0xbd3bada8	-0.04581991
132	0x3d96da38	0.07365841
133	0x3d1f34e0	0.038868785
134	0xbc5051d1	-0.012714819
135	0x3cce7e49	0.025206702
136	0x3cd4e9f9	0.025990473
137	0xbdbc1630	-0.091839194
138	0x3d93653f	0.071970455
139	0xbc23505f	-0.009967892
140	0xbcea9f50	-0.02864042
141	0x3da0f035	0.07858316
142	0x3d4d24c9	0.05008391
143	0x3c306b1e	0.010767726
144	0xbd556e4e	-0.052107148
145	0x3cb0401f	0.02151495
146	0xbc3a5aee	-0.011374218
147	0x3df5c6cc	0.12000808
148	0x3da31b17	0.07964151
149	0x3d74c287	0.05975583
150	0x3e139722	0.14413121
151	0x3e1a8125	0.15088327
152	0x3e0b13ce	0.13581774
153	0x3db0fbca	0.08641775
154	0x3c1f3a84	0.009718541
155	0x3c7ea530	0.015542313
156	0xbd89efef	-0.06735217
157	0xbd0ae8e5	-0.03391351
158	0xbdda3526	-0.106546685
159	0xbd0b79f9	-0.03405187
160	0xbd62a898	-0.055336565
161	0xbbf9ab8b	-0.0076193265
162	0x3b900bfb	0.0043959594
163	0xbd36664c	-0.04453115
164	0xbc5ba060	-0.013404936
165	0x3deaa281	0.114567764
166	0x3ddf27d5	0.10896269
167	0x3dd30867	0.10304337
168	0x3da7a15b	0.08185073
169	0x3d9ab389	0.07553775
170	0x3e1d13f8	0.15339649
171	0xbba71f8f	-0.0051001976
172	0xbd4cf657	-0.050039615
173	0xbdc37d56	-0.0954539
174	0x3da49323	0.080358766
175	0x3d9b84f0	0.07593715
176	0x3d37da95	0.04488619
177	0x3d8631f4	0.065524966
178	0x3cb8822b	0.022523006
179	0x3da157f0	0.07878101
180	0x3d2a040a	0.04150776
181	0x3d423db9	0.047422145
182	0x3dbaf80a	0.09129341
183	0xbdc2a1d0	-0.095035195
184	0xbdeb3157	-0.1148402
185	0xbe080159	-0.13281764
186	0xbd40a5f0	-0.04703325
187	0xbbad2211	-0.005283602
188	0x3d2dd1bb	0.042436343
189	0x3e257ff1	0.16162087
190	0x3e292051	0.16516234
191	0x3de86a5b	0.11348411
192	0x3e2ca7fb	0.16860954
193	0x3e5dce99	0.21660842
194	0x3e4812af	0.19538377
195	0x3e163563	0.14668803
196	0x3dcfdfe6	0.10150127
197	0x3d8f20d2	0.06988682
198	0xbc4205c0	-0.011842191
199	0xbcabe3c9	-0.02098264
200	0x3d2eeb13	0.042704653
201	0x3d3ab337	0.04558107
202	0x3dc09091	0.09402574
203	0x3dd3d399	0.103430934
204	0x3d48409a	0.048889734
205	0x3dd135d6	0.102153465
206	0x3bca6f21	0.0061777984
207	0x3c3bbb20	0.011458188
208	0x3d1c6f4e	0.038192086
209	0x3c8ac062	0.016937438
210	0x3bf3ad62	0.0074364403
211	0xbdd3a705	-0.10334591
212	0xbdab2430	-0.083565116
213	0x3c97a7ed	0.01851269
214	0x3d021b89	0.03176454
215	0xbc319d1d	-0.010840681
216	0x3d734a0c	0.05939679
217	0x3d841882	0.06449987
218	0x3d8e79a6	0.06956796
219	0xbdae2741	-0.08503581
220	0xbdf8eb6b	-0.121542774
221	0xbd44662e	-0.04794901
222	0x3d3ea050	0.046539605
223	0x3d88aa95	0.06673161
224	0x3d69c824	0.057075635
225	0x3e200013	0.15625028
226	0x3deb6af3	0.11495008
227	0x3b94831a	0.00453223
228	0x3d90efae	0.07076965
229	0x3d8e255d	0.0694072
230	0x3da025cf	0.078197114
231	0x3dcf22a4	0.10114029
232	0x3d3916eb	0.045187872
233	0x3d7cac51	0.06168777
234	0xbd11c70c	-0.035590217
235	0x3dc18f4e	0.09451161
236	0x3db8a7ea	0.09016402
237	0xbd1bdbd7	-0.038051452
238	0x3dbb881a	0.09156819
239	0x3dbe8869	0.09303362
240	0x3d7df3f7	0.06200024
241	0x3ca9132d	0.020639027
242	0x3d8e0b2f	0.06935727
243	0x39ca27a3	0.00038557974
244	0x3d139ca7	0.036038067
245	0x3d946241	0.07245303
246	0x3cbb7f7e	0.022887941
247	0x3d09ad33	0.03361244
248	0x3d8a6fd0	0.06759608
249	0xbd7cc9a1	-0.061715726
250	0xbd1c7b0d	-0.038203288
251	0x3d395c8d	0.04525428
252	0xbcf8559c	-0.03031426
253	0x3d589334	0.05287476
254	0x3d87f3ed	0.06638322
255	0x3d3f6abe	0.046732657

convolutional2.bias f4 [50]
0	0xbdba683f	-0.091019146
1	0x3ceec74a	0.029147763
2	0x3d334270	0.04376453
3	0x3db26705	0.08711056
4	0x3d94bda6	0.07262735
5	0xbd62208a	-0.055206813
6	0xbd83c947	-0.06434875
7	0x3d87673a	0.06611486
8	0xbc821f6e	-0.015884127
9	0x3d40c0d0	0.04705888
10	0x3ce26424	0.027635641
11	0xbd0c5432	-0.034259982
12	0x3d742201	0.05960274
13	0xbd1f73af	-0.038928684
14	0x3ba97563	0.0051714643
15	0x3d66b352	0.056323357
16	0xbc3a4745	-0.011369531
17	0x3db9c513	0.09070792
18	0x3d37c198	0.04486236
19	0xbdd7bdff	-0.10534286
20	0x3d35e38a	0.04440645
21	0xbd424593	-0.047429632
22	0x3dd969d4	0.10615888
23	0x3c878215	0.01654152
24	0x3dc6b0e6	0.097017094
25	0x3de82488	0.11335093
26	0xbda1f5b4	-0.07908192
27	0x3ac792ba	0.0015226223
28	0x3d600b38	0.0546982
29	0xbdac9583	-0.084269546
30	0xbbecb330	-0.0072235093
31	0xbcafc50c	-0.021456264
32	0xbc4c5635	-0.012471725
33	0xbd7b7428	-0.061390072
34	0x3d77258f	0.060338553
35	0xbd5102ee	-0.051028185
36	0xbd8a9195	-0.06766049
37	0xbc55f9e8	-0.013060071
38	0xbd16f2e4	-0.036852732
39	0xbde967b8	-0.11396736
40	0xbdb02ac7	-0.08601909
41	0x3dc28633	0.09498253
42	0xbca548e9	-0.020176368
43	0x3d562559	0.05228171
44	0xbd544a64	-0.051828757
45	0xbb9fa4d6	-0.004871945
46	0x3dc50ed6	0.0962197
47	0xbcab8cb7	-0.020941122
48	0xbbb9539a	-0.005655718
49	0xbccafce9	-0.0247788

convolutional3.weight f4 [100, 50, 3, 3]
0	0x3c4f8e0e	0.012668146
1	0xbccb8bc3	-0.024846917
2	0xb9bd1081	-0.00036061186
3	0xbc5f4cc6	-0.013629144
4	0x3cb5f76c	0.022212707
5	0x3d0231a1	0.03178561
6	0x3c4f8136	0.012665084
7	0x3cf199b4	0.029492237
8	0x3cd25936	0.025677305
9	0xbd418e89	-0.047255073
10	0xbcde0a46	-0.027104508
11	0xbc8884b8	-0.016664848
12	0xbd57d40e	-0.052692465
13	0x3cc478e9	0.023983436
14	0xbd006bff	-0.031352993
15	0xbc9eb16a	-0.019371707
16	0x3cfa5fff	0.030563353
17	0x3d35cc92	0.044384547
18	0xbcc2f030	-0.023796171
19	0xbd6a67c1	-0.057227854
20	0xbcd82076	-0.026382666
21	0xbd5ec59e	-0.05438768
22	0xbc9424f5	-0.018084029
23	0xbb7101db	-0.0036774788
24	0xbc86bd88	-0.016447797
25	0xbd7207e7	-0.059089568
26	0xbb7d3b7c	-0.0038640192
27	0xbd07fcdf	-0.03320014
28	0x3a526f57	0.0008027455
29	0xbc427c55	-0.011870463
30	0xbb5b32aa	-0.0033446946
31	0xbd0a4b7e	-0.0337634
32	0xbd331232	-0.043718524
33	0xbc93e9c9	-0.018055813
34	0x3d1d1fee	0.03836053
35	0x39aa5b30	0.00032492867
36	0xbb70fd6b	-0.0036772143
37	0xbd1344fe	-0.035954468
38	0xbce2ebcb	-0.027700325
39	0xbd491fd7	-0.04910263
40	0xbd46dac2	-0.048548467
41	0x3d56b3e0	0.052417636
42	0xbd2d7548	-0.042348176
43	0xbce23ed5	-0.027617851
44	0xbcc3396c	-0.023831092
45	0x3da654f9	0.08121676
46	0x3d3d3ec1	0.046202425
47	0x3d25f229	0.040514145
48	0x3ccb6365	0.024827668
49	0x3dc465ea	0.09589751
50	0x3d4944e2	0.049137957
51	0x3b5d00be	0.0033722366
52	0xbd2ea9b0	-0.042642295
53	0x3ca144cb	0.019686123
54	0x3d0985d4	0.033574894
55	0xbc24228c	-0.010018002
56	0x3d32a811	0.043617312
57	0xbc948751	-0.01813093
58	0xbd01f95d	-0.031731952
59	0x3d2fb620	0.042898297
60	0x3d006e71	0.031355325
61	0x3c04e323	0.008110794
62	0x3d15256b	0.036412638
63	0x3d4e3cd5	0.050350983
64	0xbca964ac	-0.020677887
65	0xbd3e3497	-0.046436872
66	0xbc37de41	-0.011222423
67	0xbc94ae0c	-0.018149398
68	0x3ca08464	0.019594379
69	0xbbb0f5f8	-0.0054004155
70	0xbd56fca2	-0.052487023
71	0xbc4cd1e6	-0.012501216
72	0x3d871ebd	0.0659766
73	0x3be8d1db	0.007105095
74	0x3c84ae72	0.016196463
75	0xbc20869c	-0.009797718
76	0x3bb22a0f	0.0054371427
77	0x3d388e9d	0.04505788
78	0x3c430555	0.011903127
79	0x3c892bed	0.016744578
80	0xbca5a557	-0.020220442
81	0xbd3b832c	-0.045779392
82	0xbd88ea23	-0.06685283
83	0xbd2aaa29	-0.041666184
84	0xbd34ac4b	-0.044109624
85	0x3c5fffee	0.013671858
86	0xbc5679be	-0.013090549
87	0x3c06eb61	0.00823483
88	0x3c7c3b0a	0.015394935
89	0x3d0bb235	0.0341055
90	0x3d83b70b	0.06431397
91	0x3b8d003b	0.004303006
92	0x3c55e62c	0.0130553655
93	0x3cb2eb57	0.021840734
94	0x3d44bcda	0.048031665
95	0x3c1d202e	0.009590192
96	0xbcc3a2aa	-0.023881275
97	0x3c5efc97	0.013610027
98	0x3c54d0fc	0.012989279
99	0x3d076528	0.033055454
100	0xbca3c56f	-0.019991605
101	0x3cc242a1	0.023713412
102	0x3cb99de4	0.022658296
103	0xbbd88657	-0.0066078114
104	0x3c454492	0.012040274
105	0x3d6a70b7	0.0572364
106	0x3d70223b	0.058626395
107	0x3db0f588	0.08640581
108	0x3d73f052	0.05955536
109	0xbb909399	-0.0044121263
110	0x3c4e0200	0.012573719
111	0xbca88e75	-0.020575741
112	0xbd5410bd	-0.051773775
113	0xbd0b6ff6	-0.03404232
114	0xbd02c7e9	-0.03192893
115	0x3d069114	0.0328532
116	0xbcd6feb7	-0.026244504
117	0x3d2a95ee	0.04164689
118	0xbd5b4584	-0.053533092
119	0x3c98a1b5	0.018631795
120	0xbceb1601	-0.028697016
121	0x3ca62da9	0.020285444
122	0x3d0e84fe	0.0347948
123	0x3cc6916e	0.024239268
124	0xbca8c7fa	-0.020603169
125	0xba6215b3	-0.0008624449
126	0x3d75ff74	0.060058072
127	0xbc1d14d0	-0.009587482
128	0xbc9efeb6	-0.019408565
129	0x3d17002e	0.036865406
130	0xbb627949	-0.0034557155
131	0xba87c665	-0.0010358809
132	0x3c055b2d	0.008139414
133	0xbbb5ede5	-0.005552041
134	0x3d8bf9a9	0.06834728
135	0x3d3ea1d4	0.04654105
136	0xbc9cbc9c	-0.019132905
137	0x3c86ea76	0.016469222
138	0x3c6121fd	0.013741014
139	0x3cd7dcc2	0.026350383
140	0x3d089217	0.033342447
141	0x3ca7a3a8	0.02046378
142	0xbd34330f	-0.043994006
143	0xbd444cd2	-0.047924824
144	0x3cb789dd	0.022404606
145	0xbc034ebb	-0.008014376
146	0x3d24ef06	0.040267013
147	0xbcad1bab	-0.021131357
148	0xbcbea503	-0.023272043
149	0xbd30201e	-0.04299938
150	0x3a8225f2	0.0009929521
151	0xbd812594	-0.063059956
152	0x3ca301f5	0.019898394
153	0x3c26b9ff	0.010176181
154	0xbd26f5f7	-0.040761914
155	0x3c784ea5	0.015155469
156	0x3d37b31d	0.04484855
157	0x3d28a81b	0.041175943
158	0x3d33ceea	0.0438985
159	0x3d4964c2	0.049168356
160	0xbd3a7cb0	-0.045529068
161	0xbcb9f283	-0.022698646
162	0x3ce11927	0.027477814
163	0x3cda60d5	0.026657501
164	0x3a26ad6e	0.00063582405
165	0xbbda06df	-0.006653651
166	0xbc294009	-0.010330209
167	0xbd4a307b	-0.04936264
168	0xbcca6650	-0.02470699
169	0x3c9d3a20	0.019192755
170	0x3ce27b3e	0.027646657
171	0xbcb5e176	-0.022202235
172	0xbcb236bb	-0.021754613
173	0x3d178abd	0.036997546
174	0x3cecdd43	0.0289141
175	0xbcac563e	-0.021037217
176	0xbb93a329	-0.004505534
177	0x3d7a3bd3	0.06109221
178	0x3c942f2b	0.018088898
179	0x3da0e441	0.07856036
180	0xbd85cbb3	-0.06532993
181	0xbd233499	-0.039845083
182	0xbc574447	-0.013138837
183	0xbd982805	-0.07429508
184	0xbd24df62	-0.040252097
185	0xbd65bc09	-0.056087527
186	0xbd43d8bb	-0.047814112
187	0xbbfebb3e	-0.007773786
188	0x3b5b195f	0.003343187
189	0xba1e24b5	-0.00060326915
190	0xbd5958ca	-0.05306319
191	0xbce0c527	-0.02743776
192	0xbcfe5880	-0.03104806
193	0x3c3fee3a	0.0117145125
194	0x3d2596ca	0.040427007
195	0xbd164bf0	-0.036693513
196	0xbc9a2024	-0.018814154
197	0x3cb39def	0.021925895
198	0xbc8c7c73	-0.017149186
199	0xbbc9bef5	-0.006156797
200	0x3d19fd14	0.03759487
201	0xbcaff485	-0.0214789
202	0xbcdd9f2f	-0.027053444
203	0xbd0c3deb	-0.034238737
204	0xbd38f77e	-0.045157902
205	0xbae8a3fd	-0.0017749068
206	0xbc427570	-0.01186882
207	0x3da07aa7	0.07835894
208	0x3d27d11d	0.04097091
209	0xbcd03b55	-0.025418917
210	0x3bc9c198	0.0061571114
211	0x3d260e86	0.040541194
212	0x3d6fd92a	0.058556713
213	0x3d2c3c2f	0.042049583
214	0xbc360583	-0.0111097125
215	0x3c70813b	0.014679248
216	0x3bd5d7b5	0.0065259584
217	0x3ca196ce	0.01972523
218	0x3d4acc4c	0.04951124
219	0x3c21e4ec	0.009881239
220	0x3cda6a29	0.02666195
221	0x3c29188b	0.010320793
222	0x3c255c8c	0.010092866
223	0x3b88e248	0.0041773655
224	0x3d9c96ae	0.07645927
225	0x3a9ae022	0.0011816064
226	0x3d50fe0d	0.05102353
227	0x3d7386b6	0.059454642
228	0x3d8c682d	0.068558075
229	0x3da7b70e	0.08189212
230	0x3dc5af45	0.09652571
231	0xbc481a5f	-0.012213319
232	0x3d5dc764	0.05414523
233	0x3ccdab43	0.025106078
234	0x3ced7e52	0.028990898
235	0x3d06929b	0.032854658
236	0xbd316bd4	-0.043315724
237	0xbcd748e7	-0.02627988
238	0xbc048237	-0.008087686
239	0x3c90312e	0.017601576
240	0x3c4e72ad	0.012600583
241	0xbbd0fa3c	-0.0063774865
242	0x3c68c3da	0.014206851
243	0xbcc6fa43	-0.024289256
244	0xbd312776	-0.043250524
245	0xbc4ce2e1	-0.012505264
246	0xbd57c9e6	-0.05268278
247	0xbc513719	-0.012769484
248	0xbd545678	-0.051840276
249	0xbd20a6bd	-0.039221514
250	0xbd39a095	-0.04531916
251	0xbcb1d373	-0.021707272
252	0x3c83c821	0.01608664
253	0xbd056958	-0.032571167
254	0x3d85809c	0.06518671
255	0x3c5dbd9b	0.013533975

convolutional3.bias f4 [100]
0	0x3c7eb7f1	0.015546785
1	0xbe00afb8	-0.12567031
2	0x3d0c2782	0.034217365
3	0xbccb8e51	-0.024848135
4	0xbd4bc7f3	-0.049751233
5	0xbd967f85	-0.07348541
6	0x3d75d49c	0.060017213
7	0x3c016746	0.007898157
8	0x3d50adf0	0.05094713
9	0x3d52add2	0.0514353
10	0xbdeb4916	-0.114885494
11	0xbaf01540	-0.001831688
12	0xbd61aa4b	-0.055094045
13	0xbb8a06ae	-0.004212222
14	0x3d3cf1fe	0.04612922
15	0x3cbd4697	0.023104949
16	0x3d42eae9	0.04758731
17	0x3cb259df	0.02177137
18	0xbdb0ff11	-0.086424
19	0x3ccfe142	0.025375966
20	0x3d771a10	0.06032759
21	0x3d81f884	0.06346229
22	0x3dd6a2a2	0.104802385
23	0x3dbeb959	0.09312696
24	0xbd56968e	-0.052389674
25	0xbd5354b9	-0.05159447
26	0x3de7ada0	0.11312413
27	0x3cd8dac2	0.0264715
28	0xbd98015f	-0.074221365
29	0x3c2b7d37	0.010466865
30	0x3d3ca1db	0.046052795
31	0xbd0ef35b	-0.03490005
32	0x3daf70a2	0.08566405
33	0xbd80dc82	-0.062920585
34	0xbdf45d5c	-0.119318694
35	0x3db7b8cf	0.08970796
36	0xbc6044c6	-0.013688272
37	0xbc780bd8	-0.0151395425
38	0xbdfb8c6b	-0.12282642
39	0xbd829e84	-0.06377891
40	0xbe0560b6	-0.13025174
41	0xbcd97444	-0.026544698
42	0x3d823d01	0.06359292
43	0x3dc38260	0.095463514
44	0xbd41b803	-0.047294628
45	0x3d4eb7f9	0.05046842
46	0xbdb7c03e	-0.08972214
47	0x3c1e703c	0.009670313
48	0xbc7869c5	-0.015161936
49	0x3b348dc9	0.002755033
50	0x3ab375c0	0.0013691708
51	0x3d7eef48	0.062239915
52	0xbda8a1e8	-0.08234006
53	0x3c6e189a	0.014532233
54	0xbd6a8353	-0.057254147
55	0x3d70a286	0.058748744
56	0xba5e94fd	-0.0008490829
57	0xbe13426c	-0.14380807
58	0xbdbca84c	-0.092117876
59	0x3d4bd5ba	0.049764372
60	0xbd94c8ba	-0.07264848
61	0xbce6ddf6	-0.028182011
62	0xbcb4d4d5	-0.022074142
63	0xbc2bd0fb	-0.010486837
64	0x3d26bc2d	0.040706802
65	0xbd68693d	-0.056740988
66	0x3cea8105	0.028625974
67	0xbd322073	-0.043487977
68	0x3c7eac0b	0.015543948
69	0x3df44df7	0.11928933
70	0x3d25934b	0.040423673
71	0xbda8c30f	-0.082403295
72	0xbc906530	-0.017626375
73	0xbcf49f00	-0.029860973
74	0x3d51e4ba	0.05124352
75	0xbcc3feb6	-0.023925167
76	0xb937cb7d	-0.00017528045
77	0xbc6fb1a3	-0.014629754
78	0x3c868c19	0.016424226
79	0x3d1c7aa8	0.03820291
80	0xbd8d8236	-0.069096014
81	0xbdad097c	-0.084490746
82	0xbd74fb6e	-0.059810095
83	0x3d67775d	0.056510318
84	0xbd3546cc	-0.04425697
85	0xbccc04ec	-0.02490469
86	0x3c824d35	0.015905956
87	0x3d3933fb	0.045215588
88	0x3d7e179e	0.06203424
89	0x3c414964	0.011797283
90	0x3cf1f490	0.029535562
91	0xbd74d268	-0.05977097
92	0x3d8d8bdb	0.06911441
93	0xbd6e507b	-0.05818222
94	0xbd5c83f5	-0.05383678
95	0xbd9b3ba4	-0.07579735
96	0xbd829cbf	-0.06377553
97	0x3cc081dc	0.023499422
98	0x3c80b63c	0.015711896
99	0xbda95253	-0.08267655

linear1.weight f4 [100, 1600]
0	0xbb6a1d7b	-0.0035723138
1	0xbb13f52b	-0.0022576551
2	0xbc0a0930	-0.008425042
3	0x3ba69608	0.005083803
4	0xbcf56ed9	-0.029960083
5	0xbc597330	-0.013272092
6	0x3cacfb45	0.021115908
7	0xbc756df6	-0.01497983
8	0xbd3f9bed	-0.04677956
9	0xbb9d3c60	-0.004798457
10	0xbb292011	-0.0025806467
11	0xbcacfa3c	-0.021115415
12	0xbcbb2f30	-0.02284965
13	0xbc301d41	-0.010749162
14	0xbbbcb70b	-0.005759125
15	0x3c1500af	0.009094401
16	0xbc821a51	-0.01588169
17	0xbd31964d	-0.04335623
18	0xbd6dc49b	-0.058048826
19	0x3bcb386a	0.0062017934
20	0xbd63db0a	-0.055628814
21	0x39fd8a46	0.00048358942
22	0x3d1ce7b7	0.038306918
23	0x3c3654ac	0.011128586
24	0xbadc024f	-0.0016785356
25	0x3b813a5d	0.003943725
26	0xbc72b3e2	-0.014813395
27	0x3b9966a5	0.0046814256
28	0x3cc4fbfb	0.024045935
29	0x3cce9e31	0.025221916
30	0xbb3441e8	-0.0027505103
31	0xbc87b683	-0.01656652
32	0xbd2d90b3	-0.042374324
33	0xbca8e372	-0.020616267
34	0x3bbe85e3	0.0058143004
35	0xbd3229c8	-0.043496877
36	0xbd122b24	-0.035685673
37	0xbb7ed9f1	-0.0038887227
38	0xbc7cc4f5	-0.015427818
39	0xbc579317	-0.013157628
40	0xbcc231d0	-0.023705393
41	0x3cb5d9e7	0.02219863
42	0x3ca13a78	0.0196812
43	0xbccbdee2	-0.024886552
44	0x3c66dbe0	0.014090508
45	0x3c96f685	0.018428097
46	0x3d0d44be	0.034489386
47	0xbcb4a7a4	-0.022052594
48	0xbcb2c805	-0.021823892
49	0xbcf6717e	-0.030083414
50	0x389183af	6.938667e-05
51	0xbc89f951	-0.016842516
52	0xbd667959	-0.05626807
53	0x3c707ed2	0.014678674
54	0xbc3e0a8d	-0.011599195
55	0x3cfa2fdf	0.030540405
56	0xbd00ecfb	-0.031476002
57	0x3b2dd6b8	0.0026525687
58	0x3c64469e	0.013932852
59	0x3c5b214d	0.013374639
60	0xbc5fd985	-0.013662701
61	0x3b953aeb	0.0045541427
62	0x3c138c65	0.009005641
63	0xbbcc798b	-0.006240075
64	0xbcb25979	-0.02177118
65	0xbc7a0223	-0.0152592985
66	0xbbec06f5	-0.007202978
67	0x3d2252ea	0.039629854
68	0xbd1d0806	-0.03833773
69	0xbd281b53	-0.041041683
70	0x3c8acca8	0.01694329
71	0x3c0babd3	0.008524853
72	0x3d3bd762	0.045859702
73	0xba1caca3	-0.00059766526
74	0x3bc5e4eb	0.006039252
75	0x3cbf97bd	0.023387784
76	0x3b6b3d42	0.0035894667
77	0xbcc4d6b3	-0.024028158
78	0xbcfdb10b	-0.03096821
79	0x3ccb2f04	0.024802692
80	0x3c64e492	0.013970511
81	0xbc07a3ae	-0.00827877
82	0xbd25814a	-0.040406503
83	0x3c6fce4c	0.014636587
84	0xbd373aa6	-0.044733666
85	0x3bc1de45	0.005916389
86	0x3cac5dc9	0.021040814
87	0x3c45f4e1	0.012082309
88	0x3cefb7c8	0.029262438
89	0x3b9e4b67	0.004830766
90	0xbad315bb	-0.0016104499
91	0x3d3c355c	0.045949325
92	0x3d0d20f4	0.034455255
93	0x3ca3b3f2	0.019983266
94	0x3cdf2779	0.027240502
95	0x3cf15fdb	0.029464653
96	0xbc3fb43b	-0.011700685
97	0xbc2dffeb	-0.010620098
98	0xbcb1b49c	-0.021692567
99	0xbce74c1b	-0.028234532
100	0xbc5e8b12	-0.013582962
101	0xbd1f7d34	-0.038937762
102	0xbd03655b	-0.032079082
103	0xbd05a6c3	-0.03262974
104	0xbd330d02	-0.043713577
105	0xbbaa7460	-0.0052018613
106	0x3d557e40	0.052122355
107	0x3cb55447	0.022134913
108	0x3c6a683c	0.014307078
109	0xbb6ac4a2	-0.0035822769
110	0x3c99f691	0.01879433
111	0x3d146c14	0.036235884
112	0x3c66f85f	0.014097302
113	0xbca5d130	-0.02024135
114	0x3b18f079	0.0023336692
115	0x3d247260	0.04014814
116	0xbc6d5198	-0.0144847855
117	0x3c9eeefd	0.019401068
118	0x3c8bcd98	0.017065808
119	0xbc1f3eee	-0.009719593
120	0xbc90b5f8	-0.017664894
121	0xbc8e6225	-0.017380783
122	0xbc30801e	-0.010772733
123	0x3c32adbf	0.010905682
124	0xbcf4f882	-0.029903654
125	0xbc625ea4	-0.013816509
126	0xbd2d4273	-0.0422997
127	0xbc9ec809	-0.019382494
128	0xbcab3938	-0.020901307
129	0x3b5ffeeb	0.0034179043
130	0xbc2b7d09	-0.010466822
131	0x3d0dc401	0.034610752
132	0xbcb24216	-0.021760028
133	0xbb34c19e	-0.0027581225
134	0xbc958b9e	-0.018255051
135	0x3ce04366	0.027375888
136	0xbc366432	-0.011132287
137	0x3b10905d	0.0022058703
138	0xbae6d318	-0.0017610518
139	0x3bf8a470	0.007587962
140	0x3ca8de5e	0.020613845
141	0xbc2638a3	-0.010145339
142	0xbc8af27f	-0.016961334
143	0x3bd52928	0.0065051503
144	0x3cbfa562	0.02339429
145	0xbd108554	-0.0352834
146	0xbc900dea	-0.01758476
147	0x3cbb1043	0.022834903
148	0x3c8366d4	0.016040243
149	0xbcd2ba78	-0.02572368
150	0x3cc78556	0.024355572
151	0x3d00ecc7	0.03147581
152	0x3d0c1c9c	0.03420697
153	0x3c1aa1fd	0.009438035
154	0xbcaebe62	-0.021331016
155	0xbc6ed106	-0.014576202
156	0x3b91dc0d	0.004451281
157	0x3d0a2244	0.033724084
158	0xbcb4fa59	-0.022092031
159	0x3c89812e	0.01678523
160	0xbd4cdf07	-0.050017383
161	0x3ca1c1d0	0.019745737
162	0xbc45c07c	-0.012069818
163	0xbcf8470d	-0.030307317
164	0xbd1b3dee	-0.037900858
165	0x3c1fd0ed	0.009754402
166	0xbd365156	-0.04451116
167	0x3cff4e6b	0.031165322
168	0xbced247f	-0.028948067
169	0x3b0230c5	0.0019865495
170	0x3b4f97b9	0.0031676127
171	0x3b9b0932	0.004731321
172	0x3cf14a71	0.029454442
173	0x3b608539	0.0034259094
174	0xbcb0d3af	-0.021585314
175	0xbcb5b8d0	-0.022182852
176	0xbca82a52	-0.020527992
177	0xbc34d9e4	-0.011038277
178	0xbbf20018	-0.007385265
179	0x3c0f0d46	0.008731192
180	0x3bb8bece	0.00563798
181	0x3c92c1a1	0.017914595
182	0xba23ae00	-0.00062438846
183	0xbc5c6637	-0.013452104
184	0xbcab45ba	-0.020907272
185	0xbcba5e27	-0.022749973
186	0x3b14c710	0.0022701658
187	0x3cbd702b	0.023124775
188	0x3bab9c29	0.0052371216
189	0x3b13d958	0.0022559967
190	0xbad71c20	-0.001641158
191	0xbc992365	-0.018693635
192	0xbc10e39c	-0.008843329
193	0xbce79712	-0.028270278
194	0xbac54eb3	-0.0015053361
195	0x3d49b094	0.049240664
196	0xbcef649e	-0.029222783
197	0xbd220fd6	-0.039565884
198	0xbca484f2	-0.020082925
199	0x39bcb6e2	0.00035994413
200	0xb8c40a52	-9.3479306e-05
201	0x3c451a00	0.012030125
202	0x3ca3d058	0.019996807
203	0xbabef70b	-0.0014569474
204	0xbc2e7b9e	-0.01064959
205	0x3a96d576	0.0011507708
206	0x3bcbfefb	0.0062254644
207	0x3cc6b14c	0.024254464
208	0xbcf014be	-0.029306766
209	0xbcc1d6cb	-0.023661992
210	0x3c7998aa	0.015234152
211	0x3d4237fd	0.047416676
212	0xbca76f57	-0.020438833
213	0xbca4293f	-0.020039199
214	0xbc014f59	-0.007892453
215	0x3b9815d0	0.004641272
216	0xbbdbce49	-0.0067079407
217	0x3ca29c35	0.019849876
218	0x3ca29ca1	0.019850077
219	0xbb115580	-0.0022176206
220	0x3ba14377	0.0049213725
221	0xbc2cc9e3	-0.01054618
222	0x3b99f432	0.0046983
223	0x3c880aa6	0.01660664
224	0xbc313f78	-0.010818355
225	0xbcd2c8fa	-0.025730599
226	0x3b80fc1d	0.0039363042
227	0xba1bbd70	-0.0005941009
228	0x3a91af67	0.0011114896
229	0xbc44a9bd	-0.012003359
230	0x3bc3e647	0.005978379
231	0x3d254bc7	0.04035547
232	0x3c7a8f34	0.015292931
233	0x3cbbd090	0.022926599
234	0x3d1218f0	0.035668314
235	0x3d1525b8	0.036412925
236	0x3ca2d686	0.019877683
237	0xbc684675	-0.0141769545
238	0x3bab2f28	0.0052241273
239	0x3d7c40cf	0.061585244
240	0x3b75c606	0.0037502064
241	0x3a34a1d8	0.00068905717
242	0x3b0ac197	0.0021172517
243	0x3d11b268	0.035570532
244	0xbca02160	-0.019547164
245	0xbbfe31db	-0.007757408
246	0x3cb0dfaa	0.021591026
247	0x3cbd97b2	0.023143623
248	0xbc8a9b58	-0.016919777
249	0xbcf04aaa	-0.029332478
250	0x3c5d7b75	0.013518204
251	0x3d0db658	0.034597725
252	0x3cfc64fd	0.030809874
253	0x3bd0aea0	0.006368473
254	0x3cefa4b0	0.029253334
255	0x3d313a5f	0.043268558

linear1.bias f4 [100]
0	0x3ce5f685	0.028071651
1	0xbcb62be1	-0.02223772
2	0x3b89deb6	0.0042074574
3	0x3d2b6fa1	0.041854504
4	0xbca001a2	-0.019532029
5	0xbb921a84	-0.0044587273
6	0xba187076	-0.0005815098
7	0xbc81443e	-0.01577961
8	0x3c47bf0e	0.012191547
9	0x3c497c29	0.0122976685
10	0x3d437b7c	0.047725186
11	0x3cc343b1	0.023835989
12	0xbcf027d1	-0.029315861
13	0x3ccedba6	0.02525122
14	0x3cb2ea07	0.021840109
15	0x3d26e11c	0.040742025
16	0xbcb47567	-0.022028638
17	0x3cbadd1e	0.022810515
18	0xbd4ec089	-0.050476585
19	0xbbf955e6	-0.007609117
20	0xbd919cc1	-0.071099766
21	0x3db603c3	0.08887436
22	0xbbe9c367	-0.0071338895
23	0x3d056e9c	0.03257619
24	0x3ca6ac3e	0.020345803
25	0x3c8329bd	0.016011113
26	0xbae6bd9c	-0.0017604115
27	0xbc46c5b6	-0.012132099
28	0x3d4beef1	0.04978842
29	0x3c90523d	0.01761734
30	0x3c4ef553	0.012631732
31	0x3cc35c15	0.02384762
32	0xbdac251f	-0.08405518
33	0x3d0c3880	0.03423357
34	0xbd64c8fc	-0.055855736
35	0xbcbd8aec	-0.023137532
36	0x3c878563	0.016543096
37	0x3d6b3208	0.05742076
38	0xbd49c8f4	-0.04926391
39	0x3cbe75e6	0.023249578
40	0x3de3b342	0.11118175
41	0xbd1f3814	-0.03887184
42	0x3ac2ad37	0.0014852647
43	0xbc328c45	-0.010897701
44	0x3db094f2	0.08622159
45	0x3c3b4e6f	0.011432274
46	0x3cd541e0	0.026032388
47	0xbb1b118a	-0.0023661577
48	0x3d5d7f1a	0.05407629
49	0x3c7f0791	0.015565769
50	0xbcbb1bc2	-0.022840384
51	0x3caf16ec	0.021373235
52	0x3c8fa766	0.017535876
53	0xbd7d1826	-0.061790608
54	0xbca00222	-0.019532267
55	0xbc6fe8ad	-0.014642877
56	0x3da43706	0.080183074
57	0xbd954f11	-0.07290471
58	0x3d8fd1c6	0.07022433
59	0x3d544572	0.05182404
60	0x3838b5b8	4.4038257e-05
61	0xbb159a55	-0.0022827585
62	0x3d53ba67	0.05169144
63	0x3cf5718d	0.029961372
64	0x3d8a48f2	0.067521945
65	0x3d07b6c1	0.033133272
66	0xbc97820c	-0.018494628
67	0xbd24cb08	-0.04023269
68	0xbc42bb61	-0.011885495
69	0x3c2a1e5d	0.010383216
70	0xba40aaaf	-0.00073496526
71	0xbcdd51ad	-0.027016485
72	0xb9970307	-0.0002880322
73	0xbcae5318	-0.021279857
74	0xbd6ec2a9	-0.05829111
75	0xbc44e0d2	-0.012016492
76	0x3cfab629	0.030604439
77	0x3dbbf4cb	0.0917755
78	0xbd1474de	-0.036244266
79	0x3c87778e	0.0165365
80	0xbcbe26ff	-0.023211954
81	0xbd02a770	-0.031897962
82	0xbc500311	-0.012696044
83	0xbce901ed	-0.028443301
84	0x3d28ac40	0.041179895
85	0x3c0fef02	0.008785011
86	0x3c21d3f3	0.009877193
87	0x3b28f4d0	0.0025780685
88	0xbbad77b8	-0.0052938126
89	0xbd33a62b	-0.043859642
90	0x3c6f281d	0.014596966
91	0xbc9e74d1	-0.019342812
92	0x3abc6005	0.0014371878
93	0xbc19c38a	-0.009384999
94	0x3c883f3d	0.016631717
95	0x3c7f822a	0.015594998
96	0xbd3f81d7	-0.046754684
97	0xbccd638c	-0.025071882
98	0xbc1f35e2	-0.0097174365
99	0xbca82f02	-0.020530228

linear2.weight f4 [10, 100]
0	0xbe145e55	-0.1448911
1	0x3d5c5f38	0.053801745
2	0xbb88cb4a	-0.0041746246
3	0xbd726f51	-0.05918819
4	0xbdc80db3	-0.09768238
5	0xbd6b0485	-0.057377357
6	0x3bff5f1e	0.0077933213
7	0x3d402341	0.04690862
8	0xbc374cff	-0.011187791
9	0x3c198a8b	0.00937141
10	0xbdd926b1	-0.10603083
11	0xbb9fa06e	-0.0048714196
12	0x3c36be7d	0.011153814
13	0xbcebda6a	-0.028790671
14	0xbdd1fb7b	-0.10253044
15	0xbb1abafe	-0.0023609991
16	0x3c301b3a	0.010748679
17	0xbd806c36	-0.062706396
18	0x3d8dfb88	0.069327414
19	0xbd743448	-0.05962017
20	0xbd8f807d	-0.07006929
21	0x3d8b0ab0	0.06789148
22	0xbd15a987	-0.036538627
23	0x3dcc7dae	0.09984909
24	0xbd0bef22	-0.0341636
25	0xbd241026	-0.040054463
26	0xbdc711d2	-0.09720196
27	0xbdb97710	-0.090559125
28	0x3ccb0de5	0.024786899
29	0xbe1e4d47	-0.15459166
30	0x3d15fa40	0.03661561
31	0x3dcaca05	0.099018134
32	0x3d6f71e9	0.058458243
33	0x3da77f53	0.08178582
34	0xbdeec582	-0.116587654
35	0x3d1180c8	0.035523206
36	0x3d8c0f50	0.06838858
37	0x3d0e7e8d	0.034788657
38	0xbe0bd785	-0.13656433
39	0x3c825cfb	0.015913477
40	0xbd841322	-0.06448962
41	0xbd6374cb	-0.055531304
42	0xbd5a55a0	-0.053304315
43	0x3d283e73	0.04107518
44	0xbd3c0da5	-0.04591145
45	0x3dc5fa0a	0.09666832
46	0x3dca8281	0.09888173
47	0x3d894366	0.06702308
48	0x3d45027d	0.048098076
49	0xbc7331b7	-0.014843396
50	0x3dbd163b	0.09232756
51	0x3c28ab8f	0.010294809
52	0xbd7a1580	-0.06105566
53	0xbe070621	-0.13185932
54	0xbda4a983	-0.08040144
55	0xbd986ec3	-0.07443001
56	0x3db220b8	0.08697647
57	0x3dd3dfdb	0.103454314
58	0x3ca8a2d9	0.020585464
59	0xbd8d629d	-0.069035746
60	0x3cd34823	0.025791233
61	0xbe1b7bf5	-0.15184005
62	0xbd9842b5	-0.07434598
63	0xbd8ca705	-0.06867794
64	0x3d2ba029	0.041900788
65	0x3daae131	0.08343733
66	0xbd6b4066	-0.057434462
67	0x3d207826	0.039177082
68	0x3d002795	0.03128775
69	0xbdb8e82b	-0.090286575
70	0xbde80e89	-0.11330897
71	0xbcd7937b	-0.026315441
72	0x3d7b1386	0.061297916
73	0xbe058d43	-0.13042168
74	0x3ca49b31	0.020093532
75	0xbd39ac0f	-0.045330103
76	0xbdfb5620	-0.122722864
77	0xbce606ba	-0.02807938
78	0x3dcdf9d5	0.10057417
79	0xbc1de159	-0.009636247
80	0xbdc89fe3	-0.09796121
81	0xbd34be31	-0.044126693
82	0xbd816065	-0.06317214
83	0xbd35ab12	-0.0443526
84	0x3cffe0f3	0.031235194
85	0x3d9da668	0.07697755
86	0xbd73376c	-0.059379026
87	0xbdc8e1c2	-0.09808685
88	0x3dca4f1a	0.09878369
89	0x3da60000	0.08105469
90	0xbcfe45d7	-0.031039162
91	0x3dac6d7d	0.08419321
92	0x3c20b191	0.00980796
93	0xbdcae9cb	-0.09907874
94	0xbda70745	-0.081556834
95	0x3d37308d	0.044724036
96	0x3da615c3	0.081096195
97	0x3bab92b9	0.0052359966
98	0x3cf9857e	0.030459162
99	0xbd788836	-0.060676776
100	0x3ddf3b93	0.10900035
101	0xbd4f71ff	-0.050645825
102	0xbd98699f	-0.074420206
103	0xbdf13e48	-0.11779457
104	0x3d4ee208	0.05050853
105	0x3c1b9836	0.009496739
106	0x3cac9a1a	0.021069575
107	0xbd779640	-0.060446024
108	0xbd0210a2	-0.031754144
109	0x3cdbd9fc	0.026837341
110	0xbe081418	-0.13288915
111	0x3d95bfa0	0.0731194
112	0x3de297c2	0.11064102
113	0x3d084766	0.033271216
114	0xbd1c058c	-0.038091227
115	0xbd1ad2e8	-0.037798792
116	0xbcaf37c1	-0.02138889
117	0xb9658eff	-0.00021892412
118	0x3de76f2c	0.11300501
119	0x3d87494e	0.06605779
120	0x3d5c980e	0.05385595
121	0xbe090129	-0.13379349
122	0x3d889a48	0.06670052
123	0xbe00281b	-0.12515299
124	0xbd9c0a48	-0.076191485
125	0xbd1dd501	-0.038533214
126	0x3daab3cc	0.08335075
127	0x3d28f2a2	0.041247018
128	0xbda7d5c1	-0.08195067
129	0xbcf712b7	-0.030160291
130	0x3c41577d	0.011800644
131	0xbda072e3	-0.07834413
132	0xbc2cc7b9	-0.0105456645
133	0x3c1671aa	0.009182373
134	0x3dddb75f	0.10825991
135	0xbe1c307c	-0.1525287
136	0xbd38e8ca	-0.04514388
137	0xbd2f8c7a	-0.04285858
138	0xbab72f1b	-0.001397583
139	0x3c90be6b	0.017668923
140	0xbde88166	-0.11352806
141	0xbc1c131a	-0.009526039
142	0x3d2ae999	0.041726682
143	0xbd00f6f2	-0.031485505
144	0xbd4f8b99	-0.05067024
145	0xbd1e4ff7	-0.03865048
146	0x3d2c3fcb	0.042053025
147	0x3dc49ab8	0.09599823
148	0x3cd2fe97	0.025756164
149	0x3c7d04a1	0.015442998
150	0xbdac2afa	-0.08406635
151	0x3d7b8942	0.061410196
152	0x3dac3f5c	0.08410522
153	0x3cdd7abf	0.027036069
154	0x3c7bdba4	0.015372191
155	0xbd204965	-0.039132494
156	0xbdf25386	-0.11832337
157	0x3dc1d61d	0.09464667
158	0xbdcac851	-0.099014886
159	0xbda2ba91	-0.07945741
160	0xbb18c90a	-0.0023313188
161	0x3cf5dc43	0.030012256
162	0x3cf3a8b3	0.029743528
163	0x3b90787f	0.0044088955
164	0xbd99756a	-0.07493098
165	0x3daecf39	0.08535618
166	0xbc686043	-0.014183107
167	0x3d157d4d	0.03649645
168	0xbd7dabaa	-0.06193129
169	0x3d59cd4b	0.0531743
170	0x3daba7f1	0.08381642
171	0xbdbbc2e0	-0.09168029
172	0x3d0b7100	0.034043312
173	0x3d38f515	0.045155603
174	0xbdda30ac	-0.10653815
175	0xbc697c59	-0.014250838
176	0x3d8c0670	0.06837165
177	0xbdecece8	-0.11568624
178	0xbd30b094	-0.043137148
179	0xbdc7bc7e	-0.09752749
180	0xbd555e6a	-0.052091993
181	0x3d8dcdbd	0.06924007
182	0x3d2594d9	0.040425155
183	0x3c4157c5	0.011800711
184	0xbd569610	-0.052389205
185	0x3d8da183	0.069155715
186	0x3d4bd894	0.049767092
187	0xbd309fb8	-0.04312107
188	0xbda15b5c	-0.078787535
189	0x3c968fda	0.01837914
190	0xbd8fcbc8	-0.0702129
191	0xbcc10d5d	-0.023565942
192	0xbdaba3d1	-0.08380855
193	0xbdc9194d	-0.09819279
194	0xbd8ea408	-0.0696488
195	0x3d7f0569	0.06226102
196	0xbd02bb3e	-0.03191685
197	0xbd528e1e	-0.051405065
198	0x3d65fea4	0.056151047
199	0x3d21d185	0.039506454
200	0x3deeac80	0.116539955
201	0xbd9c5e5a	-0.07635184
202	0xbcf9388c	-0.030422471
203	0x3d8e9976	0.06962864
204	0xbd8f48e2	-0.06996323
205	0x3cf298c1	0.029613854
206	0x3d5681ee	0.052370004
207	0x3d9f86cc	0.07789382
208	0xbdb790dc	-0.089631766
209	0x3df4e1e8	0.11957151
210	0x3b741565	0.0037244197
211	0x3d90759f	0.070536844
212	0xbd7895a4	-0.060689583
213	0x3d0e2fc6	0.03471353
214	0xbe060270	-0.13086867
215	0x3de60a49	0.112324305
216	0xbd623905	-0.05523016
217	0x3db5bdcd	0.08874092
218	0xbd8fa21e	-0.07013343
219	0x3d867c67	0.065666966
220	0xbe04d8ec	-0.12973374
221	0x3e22b89c	0.15890735
222	0xbdd30711	-0.10304082
223	0xbdcba4ef	-0.09943568
224	0xbd927c69	-0.071526356
225	0x3c48afee	0.012248976
226	0xbcd0946d	-0.0254614
227	0x3dab579f	0.08366322
228	0xbd361f52	-0.044463463
229	0xbd484189	-0.048890624
230	0xbdef2420	-0.11676812
231	0x3d8ccee7	0.06875401
232	0xbc58b247	-0.013226098
233	0x3e02f1ed	0.127876
234	0xbb970b69	-0.0046095145
235	0xbd9d5b7e	-0.076834664
236	0x3dbc402f	0.091919295
237	0x3dd23414	0.10263839
238	0x3d936d40	0.07198572
239	0x3d3e0e93	0.046400618
240	0x3e029dd9	0.12755527
241	0xbdaf6f21	-0.08566118
242	0xbd940a6f	-0.072285526
243	0x3cd1baeb	0.025601825
244	0x3d72de9c	0.059294328
245	0xbc998b54	-0.018743195
246	0xbcc8e040	-0.024520993
247	0xbd4eb166	-0.05046215
248	0x3d527019	0.051376436
249	0xbcfb3e13	-0.030669248
250	0xbdbbdaf1	-0.09172619
251	0x3e093e9c	0.1340279
252	0xbd78d8d9	-0.060753677
253	0xbd123ecc	-0.03570442
254	0xbce0c1e0	-0.027436197
255	0x3dc48839	0.09596295

linear2.bias f4 [10]
0	0xbd1133b2	-0.03544969
1	0xbde9061a	-0.11378117
2	0x3c84abf8	0.016195282
3	0x3d2dbcc5	0.042416353
4	0xbcd3d957	-0.025860472
5	0xbd452cde	-0.04813849
6	0x3d9e9d20	0.07744813
7	0x3d7fd3fb	0.06245802
8	0x3e085673	0.13314228
9	0xbdec52ac	-0.11539206
