Tugas3_MarshalArijonaSinaga_2006560983/model_final_1.pt (torch_old, 874777 bytes, 10 tensors)

convolutional1.weight f4 [25, 3, 3, 3]
0.69958454 0.5155095 0.563128 0.6907741 0.41921166 0.7152552 0.56085086 0.69816446
-0.5734069 0.5768641 0.6538429 0.60994744 0.67073476 0.52542585 0.586243 0.5831165
0.62816536 -0.6007031 0.768608 0.66030025 0.5286617 0.48411706 0.5679509 -0.6830177
0.53812295 -0.59107286 -0.4857164 -0.49461976 -0.78820217 0.71719325 -0.54430836 -0.41710055
0.7258156 0.42443836 -0.7815079 0.50005263 -0.43085983 -0.63222545 0.680587 0.5030544
-0.41031533 0.5185987 0.7445246 0.60138273 0.4985418 -0.5014591 -0.70256084 -0.5436389
-0.6559244 -0.6214779 -0.785108 -0.69194585 -0.49588832 -0.646915 -0.40673795 0.7543995
0.5908838 -0.72856075 0.7144977 -0.5397736 -0.7245211 0.72325253 -0.47887725 -0.42895776
0.49196002 0.5661891 -0.60368365 0.6261883 -0.7459359 -0.73650175 0.70461047 -0.6348675
-0.5061555 -0.5873829 -0.5357348 -0.5579084 -0.52992404 -0.50476277 -0.7782565 0.6952011
-0.7348905 0.45505163 0.61197954 0.5671103 0.71340597 0.48896372 0.42669573 0.74045825
0.57183826 -0.49049047 0.6622207 0.45592502 0.63863236 0.64660466 0.47154412 0.508531
0.66602606 0.6348406 0.5122214 0.54214907 0.776602 0.5645924 0.70888406 0.683721
0.47413164 0.43672505 0.7850442 -0.589736 0.732129 0.64029306 0.66231734 0.74277115
0.78267896 0.47261223 0.6186214 0.7433863 0.7395537 0.7197527 0.4611184 0.4618114
0.48354486 0.62441254 0.79210454 0.47828934 0.7026156 0.49371052 0.4192912 0.55950624
0.7112958 0.77875996 0.48078638 0.6421076 0.76614124 0.7276504 0.7201786 0.737223
0.72220653 0.65019065 0.46887416 0.4388716 0.51229584 0.57803863 0.4825048 0.6708574
0.6600125 0.55689985 0.6744547 0.6626726 0.7179813 0.7300882 0.53528 0.78849596
0.5781924 0.59385544 0.418829 0.47661835 0.48805556 0.5181722 0.7373091 0.5375837
0.456667 0.6744986 -0.53827953 0.72312915 0.5002248 -0.55866426 -0.67040616 -0.6430767
-0.7537535 -0.6880792 -0.6591649 -0.5178877 0.634883 0.64777505 -0.4082943 -0.41269377
0.7309161 -0.5942312 -0.73338604 -0.44921952 -0.64821184 0.58467615 0.4345727 -0.6383453
-0.7230072 0.7771787 -0.76663965 -0.7496735 0.5936032 -0.70409095 -0.53117967 -0.67321265
-0.689152 -0.5855037 -0.4517225 0.45956582 0.6896653 -0.47610876 -0.41203827 -0.73500293
-0.5536181 -0.74252975 -0.43583366 -0.67476666 -0.4841906 -0.5937664 -0.6152062 -0.6065242
-0.5676657 -0.5096203 -0.5694985 -0.54162925 -0.7734472 -0.46008462 -0.43238035 -0.4412704
-0.45787382 -0.73702097 -0.6672507 -0.4306525 -0.7462522 0.7746737 -0.7513847 0.4601061
0.6941448 -0.738069 0.5503527 0.7392374 -0.44785526 -0.4177038 0.5611941 -0.7493136
-0.4039072 0.5592677 -0.6794392 -0.5532587 -0.7347232 -0.47388497 -0.47969165 -0.7484356
-0.7581497 -0.6168739 0.6806165 0.59483427 0.50260013 -0.5944943 0.41949466 0.46420196
0.47204107 0.75883895 0.7681438 0.534729 0.60904926 0.68603283 0.60351413 0.5039905
00000000: f917 333f 6ef8 033f 2829 103f 92d6 303f
00000010: e9a2 d63e f71a 373f ec93 0f3f e8ba 323f
00000020: cbca 12bf 5ead 133f 4062 273f 8425 1c3f
00000030: 46b5 2b3f 4f82 063f 0514 163f 1f47 153f
00000040: 72cf 203f aec7 19bf 7ec3 443f 7009 293f
00000050: 6056 073f 31de f73e 3b65 113f 3fda 2ebf
00000060: 6dc2 093f 8d50 17bf d2af f8be cd3e fdbe
00000070: 9ec7 49bf fa99 373f cb57 0bbf 348e d5be
00000080: 0dcf 393f fc4f d93e e710 48bf 7303 003f
00000090: a999 dcbe 87d9 21bf f33a 2e3f 2cc8 003f
000000a0: da14 d2be e2c2 043f 2a99 3e3f 38f4 193f
000000b0: df40 ff3e a05f 00bf 07db 33bf eb2b 0bbf
000000c0: a9ea 27bf 2d19 1fbf d6fc 48bf 5d23 31bf
000000d0: 13e5 fdbe 399c 25bf f53f d0be 5320 413f
000000e0: 2944 173f f582 3abf 52e9 363f 9a2e 0abf
000000f0: 377a 39bf 1427 393f 662f f5be 5aa0 dbbe
00000100: 2fe2 fb3e c5f1 103f 038b 1abf e04d 203f
00000110: a8f5 3ebf 618b 3cbf 5a61 343f ad86 22bf
00000120: 6893 01bf ba5e 16bf ea25 09bf 16d3 0ebf
00000130: 1aa9 07bf 2238 01bf d13b 47bf b3f8 313f
00000140: c921 3cbf 87fc e83e b1aa 1c3f 242e 113f
00000150: c6a1 363f 7459 fa3e dd77 da3e ac8e 3d3f
00000160: fe63 123f 9121 fbbe 4c87 293f 016f e93e
00000170: 697d 233f e287 253f 3b6e f13e 162f 023f
00000180: af80 2a3f ea84 223f f120 033f 48ca 0a3f
00000190: 64cf 463f 2189 103f 6d79 353f 5708 2f3f
000001a0: 62c1 f23e 6d9a df3e a8f8 483f f0f8 16bf
000001b0: ce6c 3b3f 3fea 233f a18d 293f 4026 3e3f
000001c0: a65d 483f 3bfa f13e f95d 1e3f 914e 3e3f
000001d0: 6453 3d3f b741 383f b617 ec3e 8b72 ec3e
000001e0: 3193 f73e 80d9 1f3f 5dc7 4a3f 57e2 f43e
000001f0: 9ede 333f a0c7 fc3e 56ad d63e cd3b 0f3f
00000200: 7b17 363f d05c 473f a229 f63e 2a61 243f
00000210: d521 443f 4c47 3a3f a05d 383f a6ba 3c3f
00000220: 87e2 383f e572 263f 4610 f03e c7b3 e03e
00000230: d225 033f 57fa 133f df0a f73e 50bd 2b3f
00000240: 94f6 283f fd90 0e3f 10a9 2c3f e9a4 293f
00000250: 9fcd 373f 0fe7 3a3f 1c08 093f dfda 493f
00000260: 6b04 143f e906 183f c170 d63e 5207 f43e
00000270: 6be2 f93e efa6 043f 4ac0 3c3f 169f 093f
00000280: 42d0 e93e f1ab 2c3f b0cc 09bf fe1e 393f
00000290: bc0e 003f 9f04 0fbf bd9f 2bbf ada0 24bf
000002a0: fdf5 40bf f525 30bf 08bf 28bf 4a94 04bf
000002b0: b187 223f 96d4 253f f30b d1be 994c d3be
000002c0: 511d 3b3f 891f 18bf 30bf 3bbf 1a00 e6be
000002d0: 36f1 25bf 56ad 153f 5080 de3e 996a 23bf
000002e0: 0017 39bf 2ff5 463f 7f42 44bf 9aea 3fbf
000002f0: 61f6 173f 4e3f 34bf 64fb 07bf aa57 2cbf
00000300: 446c 30bf 92e3 15bf 2c48 e7be 364c eb3e
00000310: e88d 303f 87c4 f3be aef6 d2be 2729 3cbf
00000320: eab9 0dbf 6e16 3ebf 9725 dfbe 82bd 2cbf
00000330: d5e7 f7be 1301 18bf 277e 1dbf 2c45 1bbf
00000340: 8a52 11bf 7a76 02bf a7ca 11bf 37a8 0abf
00000350: a300 46bf 3690 ebbe f560 ddbe 32ee e1be
00000360: 706e eabe 68ad 3cbf f1d0 2abf 7c7e dcbe
00000370: 620a 3fbf 0451 463f bf5a 40bf 0793 eb3e
00000380: 79b3 313f 17f2 3cbf eae3 0c3f aa3e 3d3f
00000390: 494d e5be 46dd d5be 6baa 0f3f 04d3 3fbf
000003a0: edcc cebe 2b2c 0f3f baef 2dbf 5da2 0dbf
000003b0: d216 3cbf 0da1 f2be 259a f5be 7a99 3fbf
000003c0: 1916 42bf 73eb 1dbf e23c 2e3f 0f47 183f
000003d0: 67aa 003f c730 18bf 01c8 d63e e1ab ed3e
000003e0: 5eaf f13e 4543 423f 12a5 443f 00e4 083f
000003f0: a7ea 1b3f d99f 2f3f e77f 1a3f 8505 013f

convolutional1.bias f4 [25]
-0.52970743 0.5025053 0.46253848 -0.4691985 -0.6922668 -0.46513724 0.75653934 -0.73482704
-0.68896705 0.6235819 -0.78174394 -0.5413905 -0.68061227 0.51504815 -0.7491025 -0.51043016
-0.7229384 0.44654882 0.5497908 0.49327415 -0.78761137 -0.52288485 -0.67354715 -0.46524522
-0.4650221
00000000: e89a 07bf 30a4 003f d8d1 ec3e c93a f0be
00000010: 6638 31bf 7826 eebe 90ac 413f a01d 3cbf
00000020: 2560 30bf 10a3 1f3f 5f20 48bf 9198 0abf
00000030: 9b3c 2ebf 32da 033f 2ec5 3fbf 8dab 02bf
00000040: 7e12 39bf 0ca2 e43e 17bf 0c3f 6e8e fc3e
00000050: e6a0 49bf c8db 05bf 966d 2cbf 9f34 eebe
00000060: 6017 eebe

convolutional2.weight f4 [50, 25, 3, 3]
-0.64281267 -0.6391636 -0.62395954 -0.560995 -0.5981593 -0.62393326 -0.55889755 -0.53687125
-0.5506503 -0.65132487 -0.61417395 -0.6130417 -0.54301155 -0.63329864 -0.6364278 -0.59899914
-0.61549044 -0.5749326 0.6073656 0.5592675 0.6467734 -0.55155575 0.6144253 0.5396989
-0.56512046 0.62045884 -0.5797535 -0.6261223 -0.59589016 -0.6257128 -0.5376327 -0.5359042
-0.60389197 -0.64528805 -0.56121284 -0.56534505 0.6354716 0.5500068 0.62277395 0.5707589
0.54128325 0.54345644 0.6284762 0.6252398 0.5416889 -0.5626627 -0.5493979 -0.5498804
-0.5628036 -0.6109336 -0.55580586 -0.54827404 -0.5657272 -0.648431 -0.623755 -0.547669
-0.5496511 -0.5579447 -0.62833816 -0.6136772 -0.65014285 -0.63847744 -0.54930776 0.5445806
0.58333164 0.6143839 -0.62115425 0.61540633 0.58863896 0.62670296 0.5489306 0.6085526
-0.6568166 -0.5584712 -0.534208 -0.6238866 -0.5903014 -0.6345761 -0.6423669 -0.63376915
-0.63139164 -0.5716988 0.5923567 0.6039505 0.5490756 0.5583822 0.53516704 -0.63412553
-0.5411847 -0.5752739 -0.660033 -0.60970825 -0.5934613 -0.5603334 -0.53013 -0.5721021
-0.5517001 -0.62319 -0.59991544 -0.6406644 -0.585075 -0.53891534 -0.5585558 -0.5341063
-0.6304591 -0.60875446 -0.5866805 -0.5468279 -0.6617059 -0.6332014 -0.5907959 -0.6389574
-0.57554984 -0.6049708 -0.61770546 -0.5646921 -0.5527008 0.66508096 0.6300865 -0.6019524
0.6542087 -0.54661953 -0.63380057 0.61897224 -0.5901724 -0.628952 -0.61390674 0.5839938
0.55325466 0.5782539 0.6215338 0.64894193 0.60386115 0.5351199 0.63237065 -0.6205839
-0.5408922 -0.6647682 -0.61604434 -0.54864997 -0.5714072 -0.6337045 -0.65813655 -0.60077715
-0.573993 0.54363257 0.54402936 0.59905225 0.58652145 0.6431319 -0.653771 0.5890185
0.54805017 0.58841103 0.56390965 0.6209384 0.54342276 -0.65192753 0.5572483 -0.6495181
0.639975 0.5905095 -0.6375238 -0.55376756 -0.6155928 -0.5659838 -0.62112373 -0.65611047
-0.5858117 -0.5589369 -0.66540486 -0.59344834 -0.587117 -0.5927238 -0.6018653 -0.62098074
-0.6519324 -0.5892559 -0.645167 -0.6554413 -0.6218462 -0.6460954 -0.58000404 -0.55298305
-0.54861856 -0.641653 -0.5641132 -0.5530671 -0.5995315 0.6284347 0.63805073 0.6513544
0.63563854 0.6285549 -0.61977494 0.5628183 0.5666463 -0.5452829 -0.61217487 0.6023817
0.53811705 0.5969793 0.58136904 0.5559013 0.65188044 0.5464049 0.5906863 -0.6035382
0.5396947 0.6405891 -0.619769 0.62961197 -0.5624384 -0.53532207 0.6165024 0.64849496
-0.538933 -0.58729804 -0.6140854 -0.61875135 -0.58969784 -0.576501 -0.6633879 -0.55055165
-0.5899749 0.53814626 0.62133276 0.64226145 0.6251821 0.6541465 -0.5948837 0.5448921
0.5995009 -0.55061626 0.5676026 0.6284216 0.61498284 0.58925676 0.6001136 -0.57058233
0.554055 -0.5579179 -0.55503076 0.6376045 0.66650844 0.5971009 0.5527705 0.6031073
-0.6149353 0.62079144 0.65564764 -0.6365759 0.60321677 0.6652483 0.5471308 0.5887566
00000000: 5f8f 24bf 3aa0 23bf d0bb 1fbf 5e9d 0fbf
00000010: f820 19bf 17ba 1fbf e913 0fbf 6570 09bf
00000020: 6bf7 0cbf 3abd 26bf 813a 1dbf 4df0 1cbf
00000030: ce02 0bbf dc1f 22bf efec 22bf 0258 19bf
00000040: c890 1dbf c82e 13bf 507c 1b3f 282c 0f3f
00000050: f192 253f c232 0dbf fa4a 1d3f b529 0a3f
00000060: bcab 10bf 64d6 1e3f ba6a 14bf 8d49 20bf
00000070: 428c 18bf b72e 20bf 4ca2 09bf 0531 09bf
00000080: aa98 1abf 9931 25bf a5ab 0fbf 74ba 10bf
00000090: 44ae 223f 3fcd 0c3f 1d6e 1f3f 411d 123f
000000a0: 8a91 0a3f f61f 0b3f d1e3 203f b70f 203f
000000b0: 20ac 0a3f aa0a 10bf 57a5 0cbf f6c4 0cbf
000000c0: e613 10bf 2566 1cbf 4b49 0ebf b05b 0cbf
000000d0: 7fd3 10bf 93ff 25bf 68ae 1fbf 0934 0cbf
000000e0: efb5 0cbf 77d5 0ebf c5da 20bf f319 1dbf
000000f0: c36f 26bf 4273 23bf 6f9f 0cbf a269 0b3f
00000100: 3955 153f 4348 1d3f f703 1fbf 458b 1d3f
00000110: 0bb1 163f 9b6f 203f b786 0c3f 1aca 1b3f
00000120: 2225 28bf f8f7 0ebf dbc1 08bf 08b7 1fbf
00000130: fe1d 17bf 9473 22bf 2872 24bf b23e 22bf
00000140: e2a2 21bf da5a 12bf b0a4 173f 809c 1a3f
00000150: 3890 0c3f 23f2 0e3f b500 093f 0d56 22bf
00000160: 158b 0abf 2645 13bf ecf7 28bf d715 1cbf
00000170: 14ed 17bf 0272 0fbf 9ab6 07bf 4975 12bf
00000180: 383c 0dbf 6189 1fbf 0f94 19bf 9502 24bf
00000190: 7ac7 15bf 5bf6 09bf 83fd 0ebf 31bb 08bf
000001a0: c465 21bf 55d7 1bbf b130 16bf eafc 0bbf
000001b0: 8f65 29bf 7d19 22bf 663e 17bf b692 23bf
000001c0: 3c57 13bf 5edf 1abf f221 1ebf a98f 10bf
000001d0: cd7d 0dbf bf42 2a3f 594d 213f 8d19 1abf
000001e0: 397a 273f 42ef 0bbf c140 22bf f774 1e3f
000001f0: 8a15 17bf 0003 21bf fe28 1dbf 9e80 153f
00000200: 19a2 0d3f 7308 143f d71c 1f3f 0f21 263f
00000210: a596 1a3f 9efd 083f 0be3 213f 96de 1ebf
00000220: e977 0abf 402e 2abf 15b5 1dbf 5374 0cbf
00000230: be47 12bf 753a 22bf a37b 28bf 88cc 19bf
00000240: 35f1 12bf 812b 0b3f 8245 0b3f 7d5b 193f
00000250: 4526 163f 4ba4 243f 895d 27bf ebc9 163f
00000260: 044d 0c3f 1ba2 163f 625c 103f d2f5 1e3f
00000270: c11d 0b3f b9e4 26bf d3a7 0e3f d146 26bf
00000280: 67d5 233f a12b 173f c234 23bf b6c3 0dbf
00000290: 7d97 1dbf 50e4 10bf f701 1fbf dbf6 27bf
000002a0: c1f7 15bf 7d16 0fbf f957 2abf 3bec 17bf
000002b0: 4d4d 16bf bfbc 17bf d813 1abf 98f8 1ebf
000002c0: 0be5 26bf 7ad9 16bf aa29 25bf 00cb 27bf
000002d0: 5031 1fbf 8266 25bf 257b 14bf 4c90 0dbf
000002e0: 4472 0cbf 5f43 24bf b969 10bf ce95 0dbf
000002f0: e57a 19bf 19e1 203f 4b57 233f 29bf 263f
00000300: 35b9 223f f9e8 203f 92a9 1ebf dc14 103f
00000310: bb0f 113f a997 0bbf 7eb7 1cbf b035 1a3f
00000320: 0ac2 093f a3d3 183f 9ad4 143f 8c4f 0e3f
00000330: a3e1 263f 31e1 0b3f 3837 173f 7b81 1abf
00000340: 6f29 0a3f a6fd 233f 2ea9 1ebf 402e 213f
00000350: f7fb 0fbf de0a 09bf 1ad3 1d3f c403 263f
00000360: 83f7 09bf 2a59 16bf b334 1dbf 7d66 1ebf
00000370: 70f6 16bf 9295 13bf cad3 29bf f4f0 0cbf
00000380: 9808 17bf f4c3 093f aa0f 1f3f 3f6b 243f
00000390: ef0b 203f 2576 273f 4c4a 18bf 0c7e 0b3f
000003a0: e478 193f 30f5 0cbf 674e 113f 3de0 203f
000003b0: 846f 1d3f 88d9 163f 0ba1 193f af11 12bf
000003c0: 8cd6 0d3f b5d3 0ebf 7f16 0ebf 0c3a 233f
000003d0: 4ca0 2a3f 9bdb 183f 5e82 0d3f 3d65 1a3f
000003e0: 666c 1dbf 30ec 1e3f 86d8 273f a3f6 22bf
000003f0: 6a6c 1a3f b64d 2a3f c410 0c3f c1b8 163f

convolutional2.bias f4 [50]
-0.6645017 0.62279594 -0.6205824 -0.569927 0.6628405 -0.58437365 -0.57071835 -0.5400497
-0.6221846 -0.58473754 -0.60513747 0.6379357 -0.57847166 0.59620863 -0.58212256 0.6013148
-0.642182 -0.57124525 0.5441858 -0.5420349 -0.64037955 -0.6058907 -0.633721 0.6224373
-0.6561186 -0.58333737 0.6364813 0.54536194 -0.53190464 -0.5475589 -0.57431763 0.6424735
0.60688287 -0.5982521 0.5652788 -0.6233438 -0.057621777 0.65965945 -0.58340394 -0.61433905
-0.6429443 -0.60008883 -0.58537996 -0.5948073 -0.57307905 -0.6361856 -0.6103884 0.56715757
-0.5472737 0.6588081
00000000: c91c 2abf 8e6f 1f3f 7dde 1ebf bce6 11bf
00000010: eaaf 293f 8399 15bf 991a 12bf b240 0abf
00000020: 7d47 1fbf 5cb1 15bf 4aea 1abf c14f 233f
00000030: b816 14bf 21a1 183f fc05 15bf c4ef 193f
00000040: 0a66 24bf 213d 12bf c34f 0b3f cdc2 0abf
00000050: eaef 23bf a71b 1bbf 8a3b 22bf 0d58 1f3f
00000060: 63f7 27bf 9955 15bf 70f0 223f d79c 0b3f
00000070: e72a 08bf d22c 0cbf 7b06 13bf 2579 243f
00000080: ad5c 1b3f 0d27 19bf 1db6 103f 7693 1fbf
00000090: d004 6cbd 71df 283f f659 15bf 5345 1dbf
000000a0: ff97 24bf 6c9f 19bf 76db 15bf 4b45 18bf
000000b0: 4fb5 12bf 0fdd 22bf 6a42 1cbf 3d31 113f
000000c0: 211a 0cbf a6a7 283f

convolutional3.weight f4 [100, 50, 3, 3]
-0.61570346 -0.5895113 -0.5769234 -0.55534875 -0.562661 -0.6164301 -0.6419618 -0.5570045
-0.5709366 -0.6366253 -0.5916336 -0.5684402 0.56791145 -0.63585836 -0.61120605 -0.58525354
-0.5998731 -0.57566446 -0.6460827 -0.61639035 -0.6099211 -0.5710135 -0.6386059 -0.6357763
-0.5697801 -0.64605266 -0.61304164 -0.5706879 -0.59249926 -0.5974952 -0.61298436 -0.55678785
-0.5930092 -0.60819995 -0.5696544 -0.59024286 -0.588371 -0.58194906 -0.5790883 -0.62988764
-0.5685994 -0.6151167 -0.59329677 -0.57518077 -0.55456364 0.6254323 0.55282044 -0.6260007
0.6091942 -0.6219251 -0.58555347 0.5600339 -0.6268478 -0.61483 -0.5926362 -0.6371389
-0.6306826 -0.6356968 -0.6305816 -0.6397894 -0.55381644 -0.6335976 -0.56835437 -0.6090923
-0.5875137 -0.62571585 -0.63779294 -0.6415157 -0.61044705 -0.5599381 -0.6018476 -0.59169334
0.6156011 0.6363936 -0.59219515 0.59162897 -0.5781985 -0.60797775 0.6225024 -0.5722495
0.59389305 -0.6095299 0.566682 -0.6194383 -0.55789816 0.62042254 0.5887851 -0.60171705
-0.606817 0.3767883 -0.5873397 0.5543506 -0.57508576 0.6256772 -0.597865 -0.56395435
-0.6302253 -0.62705046 -0.5761006 -0.6464148 -0.6087924 -0.59995914 -0.6316379 -0.62285787
-0.5679338 -0.62224394 -0.61229634 -0.6340821 0.57751256 -0.6423806 -0.63048065 0.61792475
0.5986346 -0.5782876 -0.543826 0.6306888 0.62370956 -0.61186767 -0.6146451 -0.56099325
-0.5852383 -0.58962697 -0.5975899 -0.60179466 -0.6076532 0.5820405 -0.5532137 -0.5709106
-0.55434585 -0.62953717 -0.6320309 -0.56480443 -0.61006874 -0.6131359 -0.61539847 -0.62424684
-0.6099222 -0.59607935 -0.594246 -0.61360717 -0.5687994 -0.5712794 -0.6116951 -0.5933927
0.016615013 -0.50303525 -0.028902397 0.5875173 0.015293433 -0.016352966 -0.022639284 -0.026082752
-0.036961615 -0.62199306 -0.62894124 -0.6141914 -0.5892629 -0.5937156 -0.59943205 -0.5625824
-0.64246386 -0.6165791 -0.56138206 -0.59103024 -0.5641123 -0.59585756 -0.5581609 0.5725956
0.61588573 0.5833066 0.27084228 -0.6361532 -0.5721182 -0.61480004 -0.63829315 -0.55516374
-0.6079882 -0.5636948 -0.5661212 -0.5801586 -0.6100628 -0.5564958 -0.5634845 0.60720074
-0.5725303 -0.5966544 -0.576542 -0.59510356 -0.61429816 -0.5899896 -0.58810717 -0.55482817
-0.6314006 -0.5818168 -0.6008594 -0.6440454 -0.59098685 -0.63822055 -0.6334056 -0.55695146
-0.64142036 -0.646713 -0.6148005 -0.6292937 -0.5728526 -0.6234074 -0.6247397 -0.592964
-0.5770185 -0.57354987 0.5999884 -0.63115036 -0.5984245 -0.5886704 -0.55966944 -0.63198185
-0.5933173 -0.6064128 0.6237079 -0.6357151 -0.58764535 -0.6002768 -0.5760493 -0.6072106
-0.56486326 -0.58050823 -0.6133368 -0.62637436 -0.59979075 -0.63856804 -0.6354245 -0.5883927
-0.6085643 -0.560849 -0.56461114 -0.616604 -0.57097256 -0.57783145 -0.58632404 -0.59190744
-0.625258 -0.6285761 -0.6087617 0.5931199 0.5947573 0.49461883 0.56150603 0.5914766
0.5622743 0.5538323 0.6125879 -0.5435346 -0.62341756 -0.587141 -0.62910753 -0.5722529
00000000: be9e 1dbf 36ea 16bf 40b1 13bf 562b 0ebf
00000010: 8d0a 10bf 5dce 1dbf 9c57 24bf d997 0ebf
00000020: e728 12bf e0f9 22bf 4d75 17bf 4c85 11bf
00000030: a562 113f 9dc7 22bf 0078 1cbf 2dd3 15bf
00000040: 4991 19bf bf5e 13bf ad65 25bf c2cb 1dbf
00000050: ca23 1cbf f12d 12bf ad7b 23bf 3cc2 22bf
00000060: 1cdd 11bf b563 25bf 4cf0 1cbf 9a18 12bf
00000070: 08ae 17bf 72f5 18bf 8bec 1cbf a689 0ebf
00000080: 73cf 17bf feb2 1bbf dfd4 11bf 281a 17bf
00000090: 7b9f 16bf 9dfa 14bf 213f 14bf 5140 21bf
000000a0: bb8f 11bf 4a78 1dbf 4ce2 17bf 0c3f 13bf
000000b0: e2f7 0dbf 551c 203f a485 0d3f 9541 20bf
000000c0: 27f4 1b3f 7c36 1fbf d5e6 15bf 625e 0f3f
000000d0: 1979 20bf 8065 1dbf 02b7 17bf 891b 23bf
000000e0: 6a74 21bf 07bd 22bf cc6d 21bf 3dc9 23bf
000000f0: eac6 0dbf 7433 22bf ac7f 11bf 79ed 1bbf
00000100: 4c67 16bf ea2e 20bf 6646 23bf 5f3a 24bf
00000110: 4246 1cbf 1a58 0fbf af12 1abf 3779 17bf
00000120: 0998 1d3f b1ea 223f 1a9a 17bf ff74 173f
00000130: d104 14bf 6ea4 1bbf 515c 1f3f f17e 12bf
00000140: 6009 183f 270a 1cbf 1212 113f 8293 1ebf
00000150: 6ad2 0ebf 03d4 1e3f 9fba 163f 210a 1abf
00000160: 5c58 1bbf 65ea c03e e55b 16bf ece9 0d3f
00000170: d238 13bf 622c 203f ae0d 19bf 505f 10bf
00000180: 7256 21bf 6186 20bf 547b 13bf 717b 25bf
00000190: d2d9 1bbf ec96 19bf 05b3 21bf 9d73 1fbf
000001a0: 1c64 11bf 614b 1fbf 74bf 1cbf 3453 22bf
000001b0: ddd7 133f 0e73 24bf 2e67 21bf 5130 1e3f
000001c0: 1e40 193f a80a 14bf 2e38 0bbf d274 213f
000001d0: 6eab 1f3f 5ca3 1cbf 6259 1dbf 419d 0fbf
000001e0: 2dd2 15bf cbf1 16bf a7fb 18bf 370f 1abf
000001f0: 298f 1bbf 9b00 153f 6a9f 0dbf 3227 12bf
00000200: 9ce9 0dbf 5929 21bf c7cc 21bf 0697 10bf
00000210: 772d 1cbf 79f6 1cbf c18a 1dbf a4ce 1fbf
00000220: dc23 1cbf a898 18bf 8120 18bf 5c15 1dbf
00000230: d69c 11bf 5e3f 12bf 0d98 1cbf 96e8 17bf
00000240: 351c 883c ebc6 00bf b8c4 ecbc 8967 163f
00000250: 4f91 7a3c a8f6 85bc 0576 b9bc 7fab d5bc
00000260: 1065 17bd f03a 1fbf 4b02 21bf a63b 1dbf
00000270: efd9 16bf bffd 17bf 6174 19bf 6605 10bf
00000280: 8378 24bf 21d8 1dbf bcb6 0fbf c24d 17bf
00000290: aa69 10bf 1f8a 18bf a2e3 0ebf a095 123f
000002a0: b0aa 1d3f 9553 153f d7ab 8a3e f0da 22bf
000002b0: 5776 12bf 8963 1dbf 2e67 23bf 361f 0ebf
000002c0: 1da5 1bbf 4d4e 10bf 52ed 10bf 4685 14bf
000002d0: 132d 1cbf 8276 0ebf 8540 10bf 8271 1b3f
000002e0: 5991 12bf 58be 18bf 4298 13bf b558 18bf
000002f0: a542 1dbf 8f09 17bf 318e 16bf 3809 0ebf
00000300: 78a3 21bf f2f1 14bf ecd1 19bf 29e0 24bf
00000310: ea4a 17bf 6c62 23bf df26 22bf 5f94 0ebf
00000320: 2034 24bf fc8e 25bf 9163 1dbf 6419 21bf
00000330: 78a6 12bf a197 1fbf f1ee 1fbf 7dcc 17bf
00000340: 7cb7 13bf 2ad4 12bf d798 193f 1293 21bf
00000350: 5932 19bf 1ab3 16bf 7f46 0fbf 90c9 21bf
00000360: a4e3 17bf df3d 1bbf 52ab 1f3f 3abe 22bf
00000370: ed6f 16bf beab 19bf f877 13bf 2772 1bbf
00000380: e19a 10bf 309c 14bf a403 1dbf 125a 20bf
00000390: e38b 19bf 3279 23bf 2eab 22bf e7a0 16bf
000003a0: dfca 1bbf cd93 0fbf 5b8a 10bf c2d9 1dbf
000003b0: 422b 12bf c3ec 13bf 5519 16bf 3f87 17bf
000003c0: e910 20bf 5dea 20bf cfd7 1bbf b5d6 173f
000003d0: 0442 183f ae3e fd3e dcbe 0f3f 036b 173f
000003e0: 35f1 0f3f f4c7 0d3f 90d2 1c3f 1525 0bbf
000003f0: 4b98 1fbf df4e 16bf 310d 21bf 2b7f 12bf

convolutional3.bias f4 [100]
-0.5917386 -0.5824776 0.57727337 -0.040757783 -0.55529165 0.57415015 0.5819721 -0.5763634
0.59844124 -0.58755183 0.5966072 0.64493644 0.5752183 0.5601775 -0.58516544 -0.5551423
-0.63243115 -0.5804795 -0.6362931 -0.5649752 0.6106617 0.6250455 0.6460585 0.5967931
-0.5971851 0.6376864 0.6262341 -0.5656133 0.6336348 -0.578975 -0.570223 -0.5921589
0.6355776 -0.6173206 -0.5870537 -0.6473584 0.5776017 -0.57666326 -0.03862592 -0.5724404
-0.57224953 -0.6099982 -0.022872185 -0.6409929 -0.60782653 0.59745103 -0.5955168 -0.6103682
0.5913831 0.5957224 -0.58383226 0.56723833 -0.6118267 -0.6106995 0.63744473 -0.59934354
0.57752436 -0.6132696 0.6325972 0.59034073 -0.591565 0.5558133 0.6065897 -0.6192946
-0.63143194 0.56739867 -0.61747396 0.61313415 -0.5617896 -0.6342294 -0.5688937 0.64525574
-0.6220683 0.6018839 -0.62607604 -0.5622593 -0.6193466 0.6230883 0.6064998 0.56191003
0.6330203 -0.5545719 -0.57059616 -0.5727914 0.64749753 -0.6021996 0.5736027 -0.5922379
-0.6223625 -0.56210434 -0.564206 -0.5687076 -0.5832398 -0.60623425 -0.61075675 -0.6159001
-0.036959045 0.55894774 0.55550104 0.5621633
00000000: 2e7c 17bf 411d 15bf 30c8 133f a2f1 26bd
00000010: 9827 0ebf 81fb 123f 20fc 143f 8d8c 13bf
00000020: 7233 193f cc69 16bf 40bb 183f 8e1a 253f
00000030: 8241 133f cb67 0f3f 67cd 15bf ce1d 0ebf
00000040: 02e7 21bf 4e9a 14bf 1be4 22bf 37a2 10bf
00000050: 5354 1c3f fb02 203f 1764 253f 6fc7 183f
00000060: 1fe1 18bf 6a3f 233f e150 203f 09cc 10bf
00000070: e435 223f b537 14bf 22fa 11bf ba97 17bf
00000080: 37b5 223f b908 1ebf 2749 16bf 48b9 25bf
00000090: b4dd 133f 34a0 13bf 3636 1ebd 748b 12bf
000000a0: f27e 12bf d828 1cbf 735e bbbc 1c18 24bf
000000b0: 859a 1bbf 8df2 183f ca73 18bf 1741 1cbf
000000c0: e264 173f 4381 183f 0876 15bf 8836 113f
000000d0: ada0 1cbf cd56 1cbf 942f 233f 946e 19bf
000000e0: a3d8 133f 3dff 1cbf e4f1 213f 9220 173f
000000f0: ce70 17bf c849 0e3f 7649 1b3f 178a 1ebf
00000100: 86a5 21bf 0a41 113f c612 1ebf 5cf6 1c3f
00000110: 71d1 0fbf dc5c 22bf 04a3 11bf 7b2f 253f
00000120: de3f 1fbf 1015 1a3f 8546 20bf 3af0 0fbf
00000130: 808d 1ebf b782 1f3f 9243 1b3f 56d9 0f3f
00000140: 9e0d 223f 6df8 0dbf 9712 12bf 75a2 12bf
00000150: 66c2 253f c129 1abf a0d7 123f e79c 17bf
00000160: 2653 1fbf 12e6 0fbf ce6f 10bf d296 11bf
00000170: 344f 15bf 2b32 1bbf 8e5a 1cbf a1ab 1dbf
00000180: 5e62 17bd 3317 0f3f 5135 0e3f efe9 0f3f

linear1.weight f4 [100, 1600]
0.5852201 0.6030328 0.6076221 0.61994976 0.5897769 0.6180125 0.5953465 0.5974898
0.5991472 0.5922706 0.5825928 0.5913512 0.6140144 -0.016752744 0.59830683 0.61373144
0.57631904 0.61895585 0.58549154 0.6157027 0.609053 0.6135217 0.6246457 0.6032435
0.61435664 0.6053608 0.59671056 0.6243949 0.61406916 0.59486717 0.5999499 0.59667724
0.6103344 0.6193893 0.61014044 0.57833356 0.61655796 0.5769415 0.5912621 0.61076736
0.5872786 0.59897 0.6074435 0.5754628 0.5960824 0.5970043 0.6118335 0.58138335
0.012249915 0.020916568 -0.020133913 0.008535823 -0.024573851 -0.010676876 -0.013569492 -0.018928554
0.010652399 0.0240745 0.022849062 0.013561362 -0.019219866 0.01424914 -0.00801063 -0.019910714
0.6212956 0.6063489 0.6095199 0.6091821 0.57891244 0.60431874 0.6117957 0.6108749
0.6189552 0.58530504 0.6245581 0.5831234 0.584933 0.593958 0.5953883 0.61344767
0.58755016 -0.022100717 0.62297475 -0.011871755 0.014986293 0.5608241 0.6168635 -0.0076813046
0.6073471 0.5903364 0.59790254 0.61497587 0.5827839 0.5894231 -0.02036584 0.58403254
0.60084414 0.6022781 0.60940665 0.5942016 0.6118112 0.57267493 0.0036928952 0.016554149
-0.022059558 0.016821248 0.024772434 0.0088808965 -0.0047861785 -0.0048514716 -0.00017102063 0.023338506
0.60667604 0.5889173 0.60060805 0.595635 0.60917497 0.5952542 0.599377 0.61636835
0.5807791 0.6131388 0.58618945 0.57772857 0.5899326 0.5971524 0.5781555 0.58865786
0.59295267 0.61677945 0.579873 0.5984929 0.5971612 0.010889856 0.579618 -0.0049014892
0.58191466 0.012367068 -0.005821634 0.57076615 0.58623356 0.61124223 0.5926309 0.006700838
0.58836824 0.0020125564 -0.020312563 0.6088769 0.60671234 0.60486186 0.6024402 0.62107366
0.61517745 0.59202325 0.6180136 0.6164648 0.6106831 0.59180367 0.6169041 0.61415976
0.62506056 0.59069645 0.5979967 0.58449656 0.6077192 0.6165671 0.62055385 0.6088546
0.59068686 0.6207033 0.57926816 0.58279645 0.6086063 0.6076732 0.61739916 0.5823158
0.5910991 0.61408895 0.6014925 0.62492114 0.5879869 0.6207183 0.62396806 0.58705884
0.58013207 0.61425996 0.6149321 0.5756405 0.598167 0.57644534 0.6252153 0.62150455
0.022764506 0.5938991 0.61906385 0.61490476 0.6110894 0.6237099 0.6244672 0.57825583
0.59088266 0.57659805 0.60462856 0.61970294 0.585473 0.5851918 0.6072104 0.5854205
-0.012934014 -0.003042981 0.01339552 0.0058405604 0.022497164 -0.016986186 -0.022480587 -0.021508753
-0.024645884 -0.019652689 0.022020264 -0.01191625 0.004453888 -0.015114754 -0.005194431 -0.009203449
0.5943782 0.61387 0.6119424 0.6174935 0.6233603 0.6019946 0.5954453 0.57842684
0.5797693 0.5876836 0.6040075 0.62243164 0.58039296 0.5779552 0.57694924 0.61259335
0.61848086 0.012124466 -0.016693763 -0.012278902 -4.6223402e-05 0.6079302 -0.003525069 -6.429851e-05
-0.008232702 -0.023070578 -0.018861424 0.6069417 -0.015963584 -0.005588088 0.61415726 0.59637994
00000000: fcd0 153f 5c60 1a3f 1f8d 1b3f 07b5 1e3f
00000010: 9efb 163f 1136 1e3f a168 183f 17f5 183f
00000020: b661 193f 0c9f 173f cd24 153f cb62 173f
00000030: 0c30 1d3f 0d3d 89bc a32a 193f 811d 1d3f
00000040: a589 133f e473 1e3f c6e2 153f b19e 1d3f
00000050: e6ea 1b3f c20f 1d3f c8e8 1f3f 2b6e 1a3f
00000060: 7a46 1d3f edf8 1a3f 06c2 183f 58d8 1f3f
00000070: a333 1d3f 3749 183f 5196 193f d7bf 183f
00000080: e03e 1c3f 4c90 1e3f 2a32 1c3f ab0d 143f
00000090: bed6 1d3f 70b2 133f f45c 173f 405b 1c3f
000000a0: e457 163f 1956 193f 6b81 1b3f 8851 133f
000000b0: db98 183f 46d5 183f 1fa1 1c3f 8ad5 143f
000000c0: deb3 483c 3959 ab3c e0ef a4bc d6d9 0b3c
000000d0: 1a4f c9bc 10ee 2ebc 9352 5ebc 0e10 9bbc
000000e0: 6687 2e3c e337 c53c f52d bb3c 7a30 5e3c
000000f0: fb72 9dbc 3a75 693c 043f 03bc cb1b a3bc
00000100: 3a0d 1f3f ae39 1b3f 7f09 1c3f 5cf3 1b3f
00000110: 9b33 143f a2b4 1a3f a59e 1c3f 4c62 1c3f
00000120: d973 1e3f 8dd6 153f 0ae3 1f3f 9347 153f
00000130: 2bbe 153f a20d 183f 5e6b 183f e80a 1d3f
00000140: b069 163f 900c b5bc 467b 1f3f c081 42bc
00000150: 1289 753c 2b92 0f3f c4ea 1d3f 74b3 fbbb
00000160: 197b 1b3f 4920 173f 2410 193f 0f6f 1d3f
00000170: 5331 153f 6fe4 163f 43d6 a6bc 2883 153f
00000180: ecd0 193f e62e 1a3f 1302 1c3f 991d 183f
00000190: a99f 1c3f d39a 123f 8004 723b 919c 873c
000001a0: 3fb6 b4bc b7cc 893c 8fef ca3c 2e81 113c
000001b0: 60d5 9cbb 18f9 9ebb 0054 33b9 6530 bf3c
000001c0: 1f4f 1b3f 49c3 163f 73c1 193f 897b 183f
000001d0: e4f2 1b3f 9462 183f c570 193f 51ca 1d3f
000001e0: f0ad 143f aaf6 1c3f 8310 163f 05e6 133f
000001f0: d305 173f fbde 183f 0002 143f 48b2 163f
00000200: bfcb 173f 42e5 1d3f 8f72 143f d536 193f
00000210: 8edf 183f 5e6b 323c d861 143f ac9c a0bb
00000220: 5cf8 143f 3e9f 4a3c 68c3 bebb bb1d 123f
00000230: 6713 163f 5f7a 1c3f a9b6 173f b492 db3b
00000240: 4d9f 163f 18e5 033b 8866 a6bc 5bdf 1b3f
00000250: 8051 1b3f 3ad8 1a3f 8539 1a3f affe 1e3f
00000260: 457c 1d3f d68e 173f 2436 1e3f a3d0 1d3f
00000270: ba55 1c3f 7280 173f 6ded 1d3f 9339 1d3f
00000280: f803 203f e237 173f 5016 193f 91a1 153f
00000290: 7c93 1b3f 57d7 1d3f 9edc 1e3f e5dd 1b3f
000002a0: 4137 173f 69e6 1e3f eb4a 143f 2632 153f
000002b0: 9fcd 1b3f 7990 1b3f df0d 1e3f a612 153f
000002c0: 4552 173f ef34 1d3f 6afb 193f d5fa 1f3f
000002d0: 4f86 163f 65e7 1e3f 5fbc 1f3f 7d49 163f
000002e0: 8983 143f 2440 1d3f 316c 1d3f 2d5d 133f
000002f0: 7921 193f ec91 133f 1c0e 203f ec1a 1f3f
00000300: a17c ba3c c509 183f f87a 1e3f 666a 1d3f
00000310: 5b70 1c3f 74ab 1f3f 15dd 1f3f 9308 143f
00000320: 1644 173f ee9b 133f f0c8 1a3f daa4 1e3f
00000330: 8fe1 153f 21cf 153f 2472 1b3f 1ede 153f
00000340: 30e9 53bc c06c 47bb e278 5b3c 2c62 bf3b
00000350: f94b b83c 9d26 8bbc 3529 b8bc 2033 b0bc
00000360: 2ae6 c9bc adfe a0bc d763 b43c 603c 43bc
00000370: ecf1 913b e0a3 77bc 0c36 aabb 10ca 16bc
00000380: 2b29 183f 9626 1d3f 42a8 1c3f 0e14 1e3f
00000390: 8a94 1f3f 511c 1a3f 1a6f 183f c813 143f
000003a0: c36b 143f 6f72 163f 3ca0 1a3f ae57 1f3f
000003b0: a294 143f dff4 133f f2b2 133f ebd2 1c3f
000003c0: c354 1e3f b2a5 463c 5cc1 88bc 732d 49bc
000003d0: 00e0 41b8 50a1 1b3f d804 67bb 00d8 86b8
000003e0: 74e2 06bc 82fe bcbc 4683 9abc 8860 1b3f
000003f0: 10c6 82bc 481c b7bb 6939 1d3f 5bac 183f

linear1.bias f4 [100]
0.5902966 0.020931559 0.015467586 0.5927152 0.0043382645 -0.597714 -0.0027380474 -0.61276066
-0.023949135 -0.013562873 0.58633876 -0.0047450177 0.58294505 0.01291609 -0.60083914 0.612701
-0.596268 0.5771576 0.011154415 -0.00911798 -0.61942863 0.6097849 0.62001497 -0.01985825
-0.6136828 0.6156118 -0.02370418 -0.59862787 0.59369916 -0.5797967 -0.019155417 0.021331118
-0.5934138 -0.024558423 -0.5884588 -0.020487344 0.586859 -0.6137562 0.023315737 -0.0086938925
0.008518131 -0.6065631 0.010440333 0.61747867 0.60511035 -0.6190178 -0.6200878 0.58540803
0.5948156 -0.5837662 -0.0033234153 -0.016507605 -0.021686552 0.0058519095 0.58568174 -0.6153365
-0.0061914586 0.62550545 0.018284852 -0.011677692 -0.024005655 -0.59382623 -0.6135411 0.011396566
-0.024726171 0.5916845 0.60903984 0.62046975 -0.6026247 -0.59179735 -0.015665323 0.5978001
-0.010880217 0.5948498 0.6217489 -0.6180863 0.6208754 0.6124303 -0.5765307 -0.010011149
0.0023631938 -0.5960351 -0.02302931 -0.6151688 -0.61999685 0.61011755 0.6162077 0.6015163
-0.59776294 -0.6185315 -0.577016 -0.00080629066 0.6129967 -0.018303236 0.5909054 -0.016899839
-0.5889405 0.01852815 -0.6041724 -0.0020687077
00000000: ae1d 173f a978 ab3c c26b 7d3c 2fbc 173f
00000010: 0028 8e3b c903 19bf d070 33bb e2dd 1cbf
00000020: fa30 c4bc d036 5ebc 4c1a 163f 187c 9bbb
00000030: e33b 153f 029e 533c 98d0 19bf f9d9 1c3f
00000040: 05a5 18bf 9ac0 133f 02c1 363c 9463 15bc
00000050: e092 1ebf dd1a 1c3f 4db9 1e3f c5ad a2bc
00000060: 511a 1dbf bc98 1d3f 452f c2bc ad3f 19bf
00000070: abfc 173f 8e6d 14bf d2eb 9cbc 99be ae3c
00000080: f7e9 17bf bf2e c9bc 3ca5 16bf 13d5 a7bc
00000090: 643c 163f 201f 1dbf a500 bf3c d470 0ebc
000000a0: a28f 0b3c b847 1bbf ee0d 2b3c 1513 1e3f
000000b0: 83e8 1a3f f377 1ebf 13be 1ebf 4ddd 153f
000000c0: d645 183f b471 15bf a8cd 59bb f53a 87bc
000000d0: ffa7 b1bc 60c1 bf3b 3def 153f b186 1dbf
000000e0: b8e1 cabb 2021 203f 1dca 953c ca53 3fbc
000000f0: 82a7 c4bc ff04 18bf 0811 1dbf aab8 3a3c
00000100: 8a8e cabc a378 173f 09ea 1b3f 1bd7 1e3f
00000110: 9d45 1abf 0880 17bf 9054 80bc 6d09 193f
00000120: f042 32bc 1448 183f f02a 1f3f e73a 1ebf
00000130: b1f1 1e3f 3bc8 1c3f 8497 13bf cd05 24bc
00000140: d0df 1a3b c295 18bf f7a7 bcbc b47b 1dbf
00000150: 1db8 1ebf aa30 1c3f cabf 1d3f f9fc 193f
00000160: fe06 19bf 1558 1ebf 52b7 13bf 405d 53ba
00000170: 5aed 1c3f abf0 95bc 9445 173f 8871 8abc
00000180: cec4 16bf 59c8 973c 0bab 1abf 2893 07bb

linear2.weight f4 [10, 100]
-0.6314612 -0.073453054 -0.029466927 -0.6779568 -0.027215622 -0.68256384 0.044344164 -0.6649979
-0.06362113 -0.03241565 -0.58306235 -0.0061151832 -0.6850674 -0.059002485 -0.6748318 -0.5333786
-0.5546916 -0.6069187 -0.020472065 0.049937837 -0.6537316 -0.59054106 -0.53992015 -0.06472637
-0.66751164 -0.6191355 0.049650125 -0.5340526 -0.656961 -0.64806867 -0.027491987 -0.0055065304
-0.51134366 -0.016352318 -0.5580005 -0.02659192 -0.6684034 -0.54434454 0.05293528 -0.08263679
-0.033532463 -0.57180744 0.08117703 -0.68070436 -0.5554314 -0.6622241 -0.6046866 -0.54204476
-0.60401845 -0.51806515 -0.0930082 0.088442154 -0.04998344 0.0673809 -0.6650283 -0.54121083
-0.08877058 -0.69551426 0.0070440173 -0.044547834 -0.02112855 -0.5447206 -0.6087827 -0.0035901293
-0.03155539 -0.53983736 -0.5245956 -0.64840806 -0.5119194 -0.579493 0.08952332 -0.69655
0.05909062 -0.58108974 -0.6663684 -0.61533654 -0.6563373 -0.59339297 -0.62893945 0.030575193
-0.02440624 -0.5147614 -0.05748563 -0.59475505 -0.6414636 -0.58975667 -0.638425 -0.6773837
-0.62731045 -0.5117181 -0.5955231 0.014531687 -0.66473085 -0.075404085 -0.6219752 -0.09913117
-0.6569142 0.09367909 -0.50667435 -0.09520487 0.65351063 0.03037075 0.012263298 0.6596535
0.055642195 0.64936876 0.062659286 0.5954866 0.04518559 -0.0053824782 0.69985557 -0.0052764565
-0.6695309 -0.04329697 0.63542765 0.63144475 0.5565281 0.512542 -0.0070625916 0.04653848
-0.67263454 0.66989064 0.62366116 0.068650596 0.53683424 0.6514961 0.03840377 0.5942865
-0.6987553 0.59091985 -0.043662 -0.051803388 0.6726561 -0.034513056 0.6325828 0.012812711
0.54098463 -0.5212403 0.0062621683 -0.029599272 -0.05949366 -0.5471653 0.056397893 -0.5509868
0.5555706 0.58636475 0.5269091 0.53648365 0.5953233 0.5019563 0.09999528 0.021333419
0.06978477 0.059108935 0.58641624 0.5438346 -0.019820988 0.6397736 0.09138215 -0.07319176
0.0067474395 -0.63548493 0.6269295 0.06050331 -0.06977858 0.64101845 -0.5821177 0.6229206
-0.5200515 0.5533822 0.03943955 0.61663324 0.068329446 0.6175308 0.68674904 0.6860409
0.50548774 0.6085829 -0.52870864 -0.0772027 0.072468765 0.5135901 0.0843726 0.55162454
0.6000117 -0.5208891 0.60275334 0.67896646 0.5178633 -0.60922474 0.57147944 0.049716838
0.56097764 0.029467307 0.5286859 -0.089982845 0.6956051 -0.0996111 0.6438911 0.0575236
-0.63813305 0.054610543 -0.062227692 0.5861058 0.08779874 0.5060674 0.098751865 0.50483155
0.02368848 0.013154805 0.64806825 0.07442243 0.6928778 -0.06941799 -0.50282276 -0.66277504
-0.5262237 0.534659 -0.09417983 -0.06032871 -0.6449605 0.6882402 0.5764741 -0.09812343
0.578038 0.63327694 -0.063321576 0.58797485 0.54341173 0.6160539 0.016955234 0.024479888
0.66383845 0.028336234 0.5363474 0.018649973 0.6950222 -0.58025557 0.0192158 -0.09839163
-0.005396232 0.55541813 -0.047214545 0.5509615 0.6266558 -0.5224316 -0.5029665 0.6140406
-0.514389 0.6444036 0.047347166 -0.00645002 -0.0658832 0.082465 -0.6171494 0.64224434
00000000: 71a7 21bf 8e6e 96bd a064 f1bc 948e 2dbf
00000010: 4cf3 debc 81bc 2ebf 3aa2 353d 4d3d 2abf
00000020: cc4b 82bd 46c6 04bd 9343 15bf e061 c8bb
00000030: 9460 2fbf 97ac 71bd c7c1 2cbf 808b 08bf
00000040: 4500 0ebf 065f 1bbf 08b5 a7bc 9e8b 4c3d
00000050: f45a 27bf b32d 17bf 3538 0abf 428f 84bd
00000060: 0be2 2abf aa7f 1ebf ee5d 4b3d acb7 08bf
00000070: 992e 28bf d4e7 25bf e036 e1bc 2070 b4bb
00000080: 6be7 02bf 4cf5 85bc 1fd9 0ebf 4cd7 d9bc
00000090: 7c1c 2bbf 2a5a 0bbf aad2 583d 7a3d a9bd
000000a0: 5659 09bd f961 12bf 2540 a63d a442 2ebf
000000b0: c130 0ebf 8587 29bf becc 1abf 72c3 0abf
000000c0: f4a0 1abf eb9f 04bf 157b bebd 2921 b53d
000000d0: 70bb 4cbd fffe 893d 4b3f 2abf cb8c 0abf
000000e0: 5acd b5bd 390d 32bf 80d1 e63b ca77 36bd
000000f0: c815 adbc cf72 0bbf 2fd9 1bbf 6048 6bbb
00000100: 3a40 01bd c832 0abf e64b 06bf 12fe 25bf
00000110: 260d 03bf a759 14bf 0158 b73d 1a51 32bf
00000120: 0209 723d 4cc2 14bf 1f97 2abf b286 1dbf
00000130: b905 28bf 9ae8 17bf 2d02 21bf d478 fa3c
00000140: 98ef c7bc 67c7 03bf 0d76 6bbd de41 18bf
00000150: f536 24bf 4bfa 16bf d26f 23bf 0569 2dbf
00000160: 6b97 20bf f5ff 02bf 3474 18bf 5016 6e3c
00000170: cd2b 2abf 756d 9abd c439 1fbf 4805 cbbd
00000180: 872b 28bf d3da bf3d 69b5 01bf c5fa c2bd
00000190: 794c 273f 14cc f83c 00ec 483c 0ddf 283f
000001a0: 12e9 633d 083d 263f 8353 803d cf71 183f
000001b0: 8614 393d 805f b0bb bc29 333f 20e6 acbb
000001c0: 6166 2bbf 2a58 31bd 63ab 223f 5da6 213f
000001d0: a078 0e3f f435 033f 506d e7bb 229f 3e3d
000001e0: c731 2cbf f47d 2b3f 42a8 1f3f af98 8c3d
000001f0: f86d 093f 73c8 263f 464d 1d3d 2923 183f
00000200: a1e1 32bf 8646 173f edd6 32bd ca2f 54bd
00000210: 3133 2c3f 905d 0dbd f2f0 213f 68ec 513c
00000220: f87d 0a3f 0170 05bf e032 cd3b 2c7a f2bc
00000230: a0af 73bd 0613 0cbf 7a01 673d 790d 0dbf
00000240: e039 0e3f 001c 163f 84e3 063f fe56 093f
00000250: 1c67 183f 3580 003f 53ca cc3d 6cc3 ae3c
00000260: 51eb 8e3d 361c 723d 601f 163f bf38 0b3f
00000270: a05f a2bc 34c8 233f 9126 bb3d 90e5 95bd
00000280: a019 dd3b 24af 22bf 747e 203f 52d2 773d
00000290: 12e8 8ebd c919 243f aa05 15bf b977 1f3f
000002a0: 1822 05bf 75aa 0d3f 5e8b 213d addb 1d3f
000002b0: 4ff0 8b3d 8016 1e3f c9ce 2f3f 60a0 2f3f
000002c0: a567 013f 17cc 1b3f 7359 07bf 731c 9ebd
000002d0: 816a 943d a47a 033f 8bcb ac3d 4437 0d3f
000002e0: 5e9a 193f fd58 05bf 0b4e 1a3f bfd0 2d3f
000002f0: b092 043f 27f6 1bbf 7a4c 123f e2a3 4b3d
00000300: 3b9c 0f3f 6c65 f13c f657 073f ed48 b8bd
00000310: 2d13 323f e800 ccbd 0cd6 243f de9d 6b3d
00000320: b05c 23bf 4eaf 5f3d 77e2 7ebd 080b 163f
00000330: d3cf b33d a28d 013f 6b3e ca3d a43c 013f
00000340: 580e c23c 4087 573c cde7 253f c96a 983d
00000350: 7160 313f 052b 8ebd feb8 00bf a0ab 29bf
00000360: 99b6 06bf 6adf 083f 5be1 c0bd 3d1b 77bd
00000370: 221c 25bf 8230 303f ce93 133f f0f4 c8bd
00000380: 4cfa 133f 701e 223f beae 81bd 8585 163f
00000390: 081d 0b3f b5b5 1d3f b4e5 8a3c 0c8a c83c
000003a0: 51f1 293f 6421 e83c 104e 093f d4c7 983c
000003b0: faec 313f a18b 14bf 746a 9d3c 8d81 c9bd
000003c0: e0d2 b0bb e22f 0e3f 0a64 41bd d00b 0d3f
000003d0: 846c 203f 14be 05bf 6ac2 00bf c431 1d3f
000003e0: ffae 03bf a2f7 243f 1aef 413d b05a d3bb
000003f0: c5ed 86bd 69e3 a83d 81fd 1dbf 206a 243f

linear2.bias f4 [10]
-0.55472183 0.5784713 0.6294612 -0.64425826 -0.6487004 -0.5379964 0.5790531 -0.566088
0.6552359 -0.53122544
00000000: 4002 0ebf b216 143f 5f24 213f 1cee 24bf
00000010: 3b11 26bf 22ba 09bf d33c 143f 25eb 10bf
00000020: 8abd 273f 64fe 07bf
