Tugas3_MarshalArijonaSinaga_2006560983/model_final_2.pt (torch_old, 874777 bytes, 10 tensors)

convolutional1.weight f4 [25, 3, 3, 3]
0	0x3f2f2750	0.6841936
1	0x3f092303	0.5356905
2	0x3f0b5527	0.5442681
3	0x3f4526cd	0.7701233
4	0x3f31f092	0.69507706
5	0x3f28b1d0	0.6589632
6	0x3f0ad53a	0.5423161
7	0x3f0a0ff0	0.5393057
8	0x3f1aee54	0.6051991
9	0x3f15bd8e	0.5849236
10	0x3f22cbcd	0.63592225
11	0x3f2b6a2d	0.66958886
12	0x3f037d05	0.5136264
13	0x3f0d0906	0.55091894
14	0x3f1eb122	0.61989033
15	0x3f3b0b6f	0.7306432
16	0x3f08e051	0.5346728
17	0x3f3431f0	0.703887
18	0x3f480414	0.7813122
19	0x3f10ab03	0.56510943
20	0x3f46a70a	0.7759863
21	0x3f037f0f	0.5136575
22	0x3f0748cf	0.5284547
23	0x3f38598a	0.72011626
24	0x3f0f8571	0.5606299
25	0x3f0e4645	0.5557597
26	0x3f4183bd	0.7559164
27	0xbf03dc03	-0.51507586
28	0xbf47f5c8	-0.7810941
29	0xbf36a262	-0.71341527
30	0xbee217b4	-0.4415871
31	0xbf0883a4	-0.5332587
32	0xbee9f312	-0.4569326
33	0xbeee0d40	-0.46494484
34	0xbf31b922	-0.69423115
35	0xbf35c2f6	-0.7100061
36	0xbf35b065	-0.7097228
37	0xbf1fc7d2	-0.62414277
38	0xbf093fdc	-0.53613067
39	0xbf402299	-0.7505279
40	0xbf3dc364	-0.7412627
41	0xbef5b201	-0.4798737
42	0xbf2efbcd	-0.6835297
43	0xbf1d4098	-0.6142669
44	0xbf2b6d53	-0.6696369
45	0xbf43b6c1	-0.76450735
46	0xbf44eb4a	-0.7692152
47	0xbf2215a9	-0.633143
48	0xbf08b640	-0.5340309
49	0xbf4562cc	-0.7710388
50	0xbee450a5	-0.44592777
51	0xbf2d0e62	-0.6760007
52	0xbeecdd03	-0.4626237
53	0xbf44082a	-0.7657496
54	0xbf02de3a	-0.5112034
55	0x3f17bc1c	0.5927141
56	0x3f06a52d	0.5259579
57	0xbef8b782	-0.48577505
58	0x3f0ee086	0.55811346
59	0x3f24c764	0.64366746
60	0xbefd1c75	-0.49435773
61	0x3f1a5d99	0.6029907
62	0x3f1fb29e	0.62381923
63	0xbef66c27	-0.4812939
64	0x3f01a5be	0.5064353
65	0x3effbb65	0.49947658
66	0xbf31ad4b	-0.6940505
67	0x3ed10dd0	0.4083085
68	0x3f16380d	0.58679277
69	0xbf33b420	-0.70196724
70	0x3f437923	0.76356715
71	0x3f3278e1	0.69715697
72	0xbf3958e0	-0.7240124
73	0x3ee592e0	0.4483862
74	0x3ee1d6d6	0.4410922
75	0xbeef7ca9	-0.46774796
76	0x3f3f7ab9	0.74796635
77	0x3f03131f	0.5120105
78	0xbf0841b4	-0.53225255
79	0x3f139b69	0.5765901
80	0x3ee220c1	0.44165614
81	0x3f1c0e14	0.6095898
82	0xbf19b200	-0.6003723
83	0x3ed7be03	0.42137155
84	0x3ee4e053	0.44702396
85	0x3f38122f	0.71902746
86	0x3f159192	0.5842525
87	0x3f3a6d2c	0.72822833
88	0xbf18991f	-0.59608644
89	0x3ed4fc23	0.41598615
90	0xbf431ca9	-0.76215607
91	0xbf3817ec	-0.719115
92	0xbf0c472d	-0.54796106
93	0x3ef6b8f9	0.48187998
94	0xbee8613a	-0.45386678
95	0x3ef75017	0.4830329
96	0xbf37fc99	-0.7186981
97	0xbf0633de	-0.52422893
98	0xbf246bc5	-0.64226943
99	0xbf1d6fb7	-0.6149859
100	0xbf36856c	-0.71297336
101	0xbefa7d8e	-0.48923916
102	0x3ed242f9	0.4106672
103	0xbf465e36	-0.77487504
104	0x3edee8c0	0.4353695
105	0xbf08d3b9	-0.53448063
106	0xbf0b14e7	-0.5432877
107	0xbf11d608	-0.5696721
108	0x3f3456a6	0.70444715
109	0xbf43be1d	-0.76461965
110	0xbf0f3a47	-0.559483
111	0xbf3ab072	-0.72925484
112	0xbf0f2741	-0.5591927
113	0xbf019af3	-0.5062706
114	0xbed558bf	-0.4166927
115	0xbeffc237	-0.49952862
116	0x3f45d7e3	0.7728254
117	0xbefea88c	-0.49737966
118	0xbf1eaac0	-0.61979294
119	0xbf2241a3	-0.63381404
120	0xbf0c1ede	-0.547346
121	0xbf31e65d	-0.6949213
122	0xbf431599	-0.7620483
123	0xbedb3d3e	-0.42820162
124	0xbf105c1f	-0.56390566
125	0x3f38be28	0.72165155
126	0xbf025b4a	-0.50920546
127	0xbeecb331	-0.46230462
128	0xbef6cc6c	-0.48202837
129	0xbedaf1f6	-0.42762727
130	0xbedef015	-0.43542543
131	0xbee3ef65	-0.4451858
132	0xbee948b1	-0.45563272
133	0xbf22e637	-0.6363253
134	0x3f26b7bf	0.65124124
135	0x3f149dd6	0.5805334
136	0x3f2bfd40	0.67183304
137	0x3ef0e596	0.4705016
138	0x3f2478e3	0.6424696
139	0x3f2dbc26	0.67865217
140	0x3f3bd642	0.73373806
141	0x3f25c150	0.64748096
142	0x3f10fa06	0.56631505
143	0x3f3548c6	0.7081417
144	0x3f19e105	0.6010898
145	0x3f12f6a4	0.57407594
146	0x3f42e548	0.76131105
147	0x3f425363	0.7590849
148	0x3f37203e	0.7153357
149	0x3f290f31	0.66038805
150	0xbed76cef	-0.42075297
151	0x3f0289d1	0.5099154
152	0x3ee306d1	0.44341138
153	0x3f22a54b	0.6353347
154	0x3f2e3904	0.6805575
155	0x3f36fe23	0.7148153
156	0x3f3c7a38	0.7362399
157	0x3f101c8a	0.5629355
158	0x3f24dca7	0.6439919
159	0xbed852f7	-0.42250797
160	0x3edb4a20	0.4282999
161	0x3ee909fc	0.4551543
162	0x3f0a9050	0.54126453
163	0x3f43571c	0.76304793
164	0x3f3e3520	0.7429981
165	0x3f30ed59	0.69112164
166	0x3ef67b6c	0.48141038
167	0x3f376130	0.7163267
168	0x3f102c28	0.5631738
169	0x3f35e063	0.7104551
170	0xbf213f00	-0.62986755
171	0x3f460998	0.7735839
172	0x3f0ba176	0.54543245
173	0x3f4345ce	0.7627839
174	0x3f4569a6	0.7711433
175	0x3f0b31ac	0.5437267
176	0x3f0e772b	0.55650586
177	0x3f35c4f8	0.71003675
178	0x3ee9199f	0.4552736
179	0x3f28ac6c	0.65888095
180	0x3f38ee79	0.7223888
181	0x3f15378a	0.5828787
182	0x3f26b11a	0.65113986
183	0x3ef1016f	0.47071406
184	0x3ed23a27	0.41059992
185	0x3f36ae38	0.71359587
186	0x3ee6951c	0.45035636
187	0x3ed536d7	0.41643402
188	0x3f18d04d	0.5969284
189	0xbf10cb24	-0.5655997
190	0xbf004ba8	-0.5011544
191	0xbf052df5	-0.5202325
192	0xbef2bf14	-0.47411406
193	0xbef68751	-0.48150113
194	0xbef9338b	-0.48672137
195	0xbf27ba28	-0.65518427
196	0x3f2048c6	0.62611043
197	0xbee47626	-0.4462139
198	0xbf258364	-0.6465361
199	0xbf483865	-0.7821105
200	0xbf194c96	-0.59882486
201	0xbf2d004c	-0.6757858
202	0x3f3be51e	0.7339648
203	0xbeb0d960	-0.34540844
204	0x3f14dd7f	0.58150476
205	0x3ef4a4b9	0.47781923
206	0xbf160027	-0.5859398
207	0xbedab064	-0.427127
208	0xbf080241	-0.5312844
209	0xbf0712f7	-0.52763313
210	0xbf3b55b5	-0.73177654
211	0xbf29d878	-0.6634593
212	0xbef670f4	-0.4813305
213	0x3ee2bfc8	0.44286942
214	0x3f362aec	0.71159244
215	0xbf0268e7	-0.5094132
216	0xbef5b271	-0.47987702
217	0x3f0613f6	0.5237421
218	0x3f2e5416	0.68097055
219	0xbf450d8b	-0.7697379
220	0xbf1b4522	-0.60652363
221	0x3ed7ab53	0.42122898
222	0xbf2287d9	-0.6348854
223	0xbed8b4b2	-0.4232536
224	0xbf1d309d	-0.61402303
225	0xbf31093a	-0.69154704
226	0xbf02f19b	-0.5114991
227	0xbed91b73	-0.42403755
228	0xbf458685	-0.77158386
229	0xbf207072	-0.6267158
230	0xbf2ca2aa	-0.67435706
231	0xbf447c76	-0.7675241
232	0xbef00c23	-0.4688426
233	0xbf2ec7f9	-0.68273884
234	0xbf225394	-0.6340878
235	0xbf45091c	-0.76967025
236	0xbf4707bd	-0.7774618
237	0xbeee4566	-0.46537322
238	0xbf3e15a5	-0.74251777
239	0xbf402740	-0.7505989
240	0xbef781c2	-0.48341185
241	0xbf31aa44	-0.6940043
242	0xbf235600	-0.638031
243	0xbf060de5	-0.5236495
244	0xbf1cf501	-0.61311346
245	0xbeecef2b	-0.4627622
246	0xbf32bd7d	-0.69820386
247	0xbf18c9fd	-0.5968321
248	0xbef1c78e	-0.4722256
249	0xbf0a4385	-0.54009277
250	0xbf0b3b42	-0.54387295
251	0xbf266551	-0.64998347
252	0xbf235100	-0.6379547
253	0xbf1eca35	-0.62027293
254	0xbf355f6f	-0.70848745
255	0xbed6dd78	-0.41965842

convolutional1.bias f4 [25]
0	0x3eec80d6	0.46192044
1	0x3eea3c7d	0.45749274
2	0xbf46afca	-0.7761198
3	0xbf0e739b	-0.5564515
4	0xbf094c93	-0.5363247
5	0x3f1bfffe	0.6093749
6	0xbf3fd279	-0.7493053
7	0xbee2181f	-0.44159028
8	0x3f294c1f	0.66131777
9	0x3eeef273	0.4666935
10	0x3ed52d45	0.416361
11	0xbf0ba877	-0.5455393
12	0xbee3445a	-0.44388086
13	0xbf49be60	-0.78806114
14	0x3f39eab7	0.7262377
15	0x3f0c3ff5	0.5478509
16	0xbedc5051	-0.43030027
17	0xbf2df72f	-0.679553
18	0xbf1b7ae3	-0.60734385
19	0xbf1ba8f1	-0.6080466
20	0xbee653e8	-0.4498589
21	0x3f435744	0.7630503
22	0xbefd3048	-0.49450898
23	0x3f12a835	0.57287914
24	0xbf3515d5	-0.7073644

convolutional2.weight f4 [50, 25, 3, 3]
0	0x3f19f41f	0.60138124
1	0x3f23aed8	0.63938665
2	0x3f1c3037	0.6101107
3	0xbf0f18b5	-0.55897075
4	0x3f1e730f	0.61894315
5	0xbf145cd3	-0.5795414
6	0x3f2766be	0.6539115
7	0x3f176d7e	0.59151447
8	0x3f150ab5	0.5821946
9	0x3f0f657a	0.56014216
10	0x3f18b742	0.5965463
11	0x3f12401e	0.57129085
12	0x3f2a3572	0.664878
13	0x3f16566c	0.5872562
14	0x3f19d020	0.600832
15	0x3f094311	0.5361796
16	0x3f1e4a12	0.6183177
17	0x3f15f310	0.5857401
18	0x3f211666	0.629248
19	0x3f1010a0	0.5627537
20	0x3f15683f	0.5836219
21	0x3f1e8126	0.61915815
22	0x3f258fc1	0.64672476
23	0x3f160d3f	0.5861396
24	0x3f2aa7bb	0.66662186
25	0x3f24e7cb	0.6441619
26	0x3f0b87e0	0.54504204
27	0x3f20f6b9	0.6287647
28	0x3f294139	0.66115147
29	0x3f1d46e7	0.61436313
30	0x3f1b8cfe	0.6076201
31	0x3f29140d	0.6604622
32	0x3f1f38fb	0.6219632
33	0x3f285fc2	0.65771115
34	0x3f2516f5	0.64488155
35	0x3f18fd5a	0.59761584
36	0xbf25f499	-0.6482635
37	0x3f23353b	0.637531
38	0x3f19554b	0.5989577
39	0x3f276149	0.6538282
40	0x3f0ccfd7	0.5500464
41	0x3f115788	0.5677419
42	0x3f2a9ea7	0.66648334
43	0x3f2a5e42	0.66550076
44	0x3f23cbaf	0.6398267
45	0x3f26e12b	0.6518733
46	0x3f24d03b	0.64380234
47	0x3f1021b9	0.56301457
48	0x3f2334c9	0.6375242
49	0xbf159432	-0.58429253
50	0x3f2a5ccb	0.6654784
51	0x3f0d1f6e	0.5512608
52	0x3f1cd1c4	0.61257577
53	0x3f22d3a1	0.6360417
54	0xbf0bf282	-0.5466691
55	0x3f2370dc	0.63844085
56	0xbf169d38	-0.58833647
57	0xbf2940ee	-0.661147
58	0x3f1df022	0.6169454
59	0x3f0f5e26	0.56003034
60	0x3f0c21e8	0.54739237
61	0x3f12b988	0.5731435
62	0x3f129fe1	0.57275206
63	0x3f210fc3	0.62914675
64	0x3f284ec7	0.65745205
65	0x3f231428	0.6370263
66	0x3f259bf8	0.64691114
67	0x3f1c0b94	0.60955167
68	0x3f17ba24	0.59268403
69	0x3f0eaaea	0.55729544
70	0x3f137e10	0.5761423
71	0x3f17eb4b	0.59343404
72	0x3f15153a	0.58235514
73	0x3f2818a4	0.656626
74	0x3f0ff527	0.5623345
75	0x3f22042a	0.63287604
76	0x3f22688f	0.63440794
77	0x3f1acad5	0.6046575
78	0x3f189a7b	0.5961072
79	0x3f1ad038	0.60473967
80	0x3f0e94f6	0.55696046
81	0xbf0f5ede	-0.5600413
82	0xbf1639ad	-0.58681756
83	0x3f0ec040	0.557621
84	0x3f0d517a	0.5520245
85	0xbf14797e	-0.5799788
86	0xbf1862b3	-0.59525603
87	0x3f1f359f	0.62191194
88	0x3f20faa7	0.62882465
89	0x3f0a2897	0.53968185
90	0x3f14c7ad	0.5811718
91	0x3f28f5aa	0.65999854
92	0x3f090f66	0.5353912
93	0x3f21ec5b	0.63251275
94	0x3f23dcfd	0.64009076
95	0x3f168615	0.5879834
96	0x3f238483	0.6387407
97	0x3f0a9fb3	0.5414993
98	0x3f0a3cf5	0.53999263
99	0xbf2629a8	-0.6490731
100	0x3f212a51	0.62955195
101	0x3f25e6b7	0.6480517
102	0x3f08cb16	0.53434885
103	0x3f2861ff	0.6577453
104	0x3f15b7bf	0.584835
105	0x3f0d121d	0.55105764
106	0x3f0efbb4	0.5585282
107	0x3f14d13e	0.5813178
108	0x3f1c2431	0.60992724
109	0x3f20f204	0.62869287
110	0x3f153566	0.58284605
111	0x3f2a01a4	0.66408753
112	0x3f1dc641	0.61630636
113	0x3f0eaad5	0.5572942
114	0x3f0f6988	0.560204
115	0x3f12c261	0.5732785
116	0x3f0fcc65	0.56171256
117	0x3f198f98	0.5998473
118	0x3f16eb44	0.58952737
119	0xbf266f75	-0.6501382
120	0x3f1cca39	0.6124607
121	0xbf292d06	-0.66084325
122	0xbf280372	-0.6563026
123	0x3f0fa353	0.5610859
124	0x3f0adb36	0.5424074
125	0x3f21a898	0.6314788
126	0x3f14f5e2	0.5818769
127	0x3f1b3cb7	0.6063952
128	0x3f0a0ca1	0.5392552
129	0x3f2414c9	0.64094216
130	0x3f15d326	0.5852531
131	0x3f2ab41f	0.6668109
132	0x3f1d4888	0.614388
133	0x3f188611	0.5957957
134	0x3f29ba5f	0.66300005
135	0x3f253033	0.6452667
136	0x3f1b63dc	0.6069925
137	0x3f12a82b	0.57287854
138	0x3f23db05	0.6400607
139	0x3f1900df	0.59766954
140	0x3f118660	0.56845665
141	0x3f0a7c72	0.5409614
142	0x3f1a4b4f	0.6027116
143	0x3f2a8b8d	0.6661919
144	0x3f17f6a7	0.59360737
145	0x3f15d777	0.585319
146	0x3f1af168	0.60524607
147	0xbf23474e	-0.6378068
148	0x3f0ef23f	0.5583839
149	0x3f260589	0.64852196
150	0x3f120fd3	0.57055396
151	0x3f0e3ebe	0.55564487
152	0x3f0c10ca	0.5471312
153	0x3f1d5a24	0.6146567
154	0xbf193a64	-0.5985472
155	0xbf2567a8	-0.6461129
156	0xbf0ea4db	-0.557203
157	0x3f1d5b70	0.6146765
158	0x3f1d236a	0.6138216
159	0x3f259910	0.6468668
160	0x3f0f2889	0.55921227
161	0x3f0fda77	0.56192726
162	0x3f238e59	0.6388908
163	0x3f0a615e	0.5405482
164	0x3f0c1120	0.5471363
165	0x3f1b90eb	0.60768
166	0x3f1de65e	0.6167964
167	0x3f0fba96	0.5614408
168	0x3f251bf1	0.6449576
169	0x3f25cffa	0.6477047
170	0x3f240978	0.6407695
171	0x3f2159a8	0.6302743
172	0x3f0f6dcd	0.5602692
173	0x3f0a207f	0.53955835
174	0x3f0b6d16	0.54463327
175	0x3f19a549	0.6001783
176	0x3f1004aa	0.56257117
177	0x3f0fc273	0.5615608
178	0x3f1d9c52	0.6156665
179	0x3f1e6b48	0.6188245
180	0x3f123d08	0.57124376
181	0x3f107588	0.5642934
182	0x3f0f3243	0.5593607
183	0x3f0aa0c0	0.54151535
184	0x3f1a31b0	0.6023207
185	0x3f090058	0.5351615
186	0x3f19a173	0.60011977
187	0x3f092ba9	0.53582245
188	0x3f241260	0.6409054
189	0xbf2310d3	-0.63697547
190	0xbf24c967	-0.64369816
191	0x3f0c7cdb	0.54878014
192	0x3f15ed5a	0.58565295
193	0x3f2467d1	0.6422091
194	0x3f1c1895	0.6097501
195	0x3f11ecad	0.57001764
196	0x3f1d62c2	0.6147882
197	0x3f2053c3	0.6262781
198	0x3f20ec3d	0.6286047
199	0x3f1fc8a8	0.6241555
200	0x3f126171	0.57179934
201	0x3f0bbe50	0.5458727
202	0x3f27a1a6	0.6548103
203	0x3f1d6629	0.6148401
204	0x3f0a0312	0.53910935
205	0x3f10ce66	0.5656494
206	0x3f14fb08	0.58195543
207	0xbf1e01ca	-0.6172148
208	0xbf1e2003	-0.61767596
209	0x3f1ba6e8	0.60801554
210	0x3f136a5b	0.5758416
211	0x3f123ed2	0.57127106
212	0x3f27754a	0.65413344
213	0x3f1fca3d	0.62417966
214	0x3f1ec9f5	0.6202691
215	0x3f1380c2	0.57618344
216	0xbf186d47	-0.59541744
217	0xbf1df266	-0.61697996
218	0x3f29846a	0.6621767
219	0x3f17f875	0.5936349
220	0xbf1562f2	-0.58354104
221	0x3f0b27a6	0.54357374
222	0x3f09e2a4	0.5386145
223	0x3f1fb6c6	0.62388265
224	0x3f26f339	0.6521488
225	0xbf15c5c6	-0.58504903
226	0xbf18a65f	-0.5962886
227	0xbf28bdfe	-0.65914905
228	0xbf225b77	-0.63420814
229	0xbf23e6de	-0.6402415
230	0xbf1f236a	-0.6216341
231	0xbf150f7d	-0.5822676
232	0xbf0c5e1b	-0.54831094
233	0xbf1783e6	-0.59185636
234	0x3f0a338c	0.53984904
235	0xbf2a0503	-0.664139
236	0xbf11eee6	-0.57005155
237	0xbf0b7326	-0.5447258
238	0x3f1cf323	0.613085
239	0xbf29c22a	-0.66311896
240	0xbf0b58bf	-0.5443229
241	0x3f1ebb6d	0.6200474
242	0x3f268a46	0.6505474
243	0x3f25fc2d	0.64837915
244	0xbf0d8d94	-0.55294156
245	0x3f198113	0.59962577
246	0xbf13f52f	-0.57795995
247	0xbf1a39e8	-0.6024461
248	0xbf128fa7	-0.57250446
249	0x3f21f1df	0.6325969
250	0xbf24caa7	-0.6437172
251	0xbf0b4244	-0.5439799
252	0xbf2a1ed3	-0.66453284
253	0xbf08f75d	-0.53502446
254	0xbf262b67	-0.64909977
255	0xbf1bf9dd	-0.60928136

convolutional2.bias f4 [50]
0	0x3f199f89	0.60009056
1	0xbf22514f	-0.6340532
2	0x3f25657a	0.64607966
3	0xbcced792	-0.025249276
4	0xbf172377	-0.5903849
5	0x3f273677	0.6531748
6	0x3f0c5e94	0.54831815
7	0xbf24b85d	-0.64343816
8	0x3f0c9d06	0.549271
9	0xbf25b578	-0.64730024
10	0x3f0c6b98	0.54851675
11	0x3f269d48	0.6508374
12	0x3f244354	0.64165235
13	0xbf1aa7b5	-0.6041215
14	0xbf18f7ae	-0.5975293
15	0xbf23073e	-0.63682926
16	0xbf0b56e3	-0.54429454
17	0xbf249ab6	-0.6429857
18	0xbf29a37b	-0.66265076
19	0x3f280ef9	0.65647846
20	0x3f1f2f40	0.6218147
21	0x3f0bf8a2	0.5467626
22	0x3f1f9222	0.62332356
23	0x3f246e35	0.6423066
24	0x3f13ef4b	0.5778701
25	0x3f270acf	0.6525087
26	0x3f120bee	0.57049453
27	0x3f11e05b	0.56982964
28	0x3f232200	0.63723755
29	0xbf0e1b6d	-0.555106
30	0x3f0fcc88	0.56171465
31	0x3f17c6d9	0.5928779
32	0xbf107976	-0.56435335
33	0xbf1a4b7e	-0.6027144
34	0xbf220b33	-0.6329834
35	0xbf0e811e	-0.5566577
36	0x3f0b588d	0.5443199
37	0xbf10f99e	-0.56630886
38	0xbf181b17	-0.59416336
39	0xbf16cb2d	-0.5890377
40	0x3f278ec3	0.6545221
41	0x3f22965f	0.635107
42	0x3f0dab82	0.55339825
43	0x3f1d3d8c	0.6142204
44	0xbf1e6606	-0.61874425
45	0x3f1e1f40	0.61766434
46	0xbf1c5216	-0.61062753
47	0xbf0fb3f8	-0.56133986
48	0xbf1af069	-0.60523087
49	0x3f22f9f0	0.63662624

convolutional3.weight f4 [100, 50, 3, 3]
0	0x3f171619	0.59018093
1	0x3f14a8d2	0.580701
2	0x3f0fe79f	0.562128
3	0x3f1c2cbf	0.6100578
4	0x3f23e25a	0.6401726
5	0x3f175362	0.5911161
6	0x3f256fe1	0.6462384
7	0xbf100a8c	-0.56266093
8	0xbf17d176	-0.5930399
9	0xbf178ed8	-0.5920234
10	0xbf1dc576	-0.61629426
11	0xbf137521	-0.576006
12	0xbf193e1a	-0.59860384
13	0xbf1a11b0	-0.6018324
14	0xbf10e4b9	-0.56599003
15	0xbf191e8b	-0.5981223
16	0xbf256ef5	-0.6462243
17	0x3f14ad08	0.58076525
18	0xbf0d901a	-0.55298007
19	0xbf117a85	-0.56827575
20	0xbf1bdcd5	-0.6088384
21	0xbf0ecea6	-0.5578407
22	0xbf0ee55c	-0.55818725
23	0xbf15fb59	-0.5858665
24	0xbf169be5	-0.58831626
25	0xbf12d6c4	-0.57358956
26	0xbf133076	-0.5749582
27	0xbd14b4d7	-0.036305275
28	0xbbb28808	-0.005448345
29	0x3c30c1fc	0.010788437
30	0x3c48564c	0.012227606
31	0xbd030826	-0.031990193
32	0xbcd7a0dc	-0.02632182
33	0x3c621c40	0.013800681
34	0x3a9e0360	0.0012055449
35	0xbc0cd098	-0.0085946545
36	0xbf1fa532	-0.62361443
37	0xbf11d69a	-0.5696808
38	0x3f10d341	0.5657235
39	0x3f1b89af	0.60756963
40	0xbf1c6d00	-0.6110382
41	0x3f20107b	0.6252515
42	0xbf130c52	-0.57440674
43	0xbf194864	-0.59876084
44	0xbf2113ec	-0.62921023
45	0xbf0dfaba	-0.55460703
46	0xbf15ebbd	-0.58562833
47	0xbf1cb046	-0.6120647
48	0xbf1eec04	-0.6207888
49	0xbf19bf9d	-0.60058004
50	0x3f1fd60f	0.62436
51	0xbf22367f	-0.63364404
52	0xbf124661	-0.5713864
53	0x3f10aeb4	0.56516576
54	0xbf14e930	-0.58168316
55	0xbd3168c9	-0.04331282
56	0x3d1d71f4	0.038438752
57	0xbf1861e4	-0.5952437
58	0xbbd24d92	-0.0064179385
59	0xbd3ca49d	-0.046055425
60	0xbf164bae	-0.5870923
61	0xbc88c777	-0.016696675
62	0x3c00fe00	0.007873058
63	0xbf12f534	-0.574054
64	0xbf11b682	-0.5691911
65	0xbf1564b9	-0.58356816
66	0xbf1519d7	-0.58242553
67	0xbf11b177	-0.56911415
68	0xbf189e56	-0.596166
69	0xbf172b32	-0.59050286
70	0xbf1b91bd	-0.60769254
71	0xbf129ade	-0.5726756
72	0x3f1d8d87	0.6154408
73	0x3f1e6cfe	0.6188506
74	0x3f1cd543	0.6126291
75	0x3f188a91	0.59586436
76	0xbf19b6ef	-0.6004476
77	0x3f2518af	0.6449079
78	0xbf1cb4a3	-0.6121313
79	0xbf1dc401	-0.61627203
80	0xbf1ded39	-0.616901
81	0xbf24c796	-0.64367044
82	0xbf1afd53	-0.6054279
83	0x3f232f20	0.6374378
84	0xbf22bb76	-0.6356729
85	0x3f1d60c4	0.6147578
86	0x3f1928a1	0.5982762
87	0x3f0ea866	0.55725706
88	0xbf0e47e1	-0.5557843
89	0x3f0fd211	0.5617991
90	0xbf15c9f2	-0.5851127
91	0xbf21da3b	-0.6322362
92	0xbf22b358	-0.63554907
93	0x3f1b3c74	0.6063912
94	0x3f19ef51	0.6013079
95	0x3f10e28c	0.56595683
96	0xbf245c18	-0.64203024
97	0xbf156e72	-0.5837165
98	0xbf1f0b96	-0.62127054
99	0xbf10c122	-0.565447
100	0xbf19137d	-0.5979536
101	0xbf0fc32b	-0.5615718
102	0xbf205aae	-0.62638366
103	0x3f24d4d3	0.64387244
104	0xbf0ede45	-0.55807906
105	0x3f1bea3a	0.60904276
106	0xbf1472ac	-0.57987475
107	0x3f1eaebc	0.61985373
108	0x3f224427	0.6338524
109	0x3f0fa151	0.56105524
110	0x3f139009	0.57641655
111	0xbf220e88	-0.6330342
112	0xbf1ff6bf	-0.6248588
113	0x3f2458ba	0.64197886
114	0xbf1acec7	-0.6047177
115	0xbf1c1c8a	-0.6098105
116	0x3f0c4dc1	0.54806143
117	0xbf185fbb	-0.59521073
118	0xbf1d7f46	-0.6152233
119	0xbf1f59b4	-0.6224625
120	0xbf143c60	-0.57904625
121	0x3f1992b2	0.59989464
122	0xbf19e816	-0.6011976
123	0x3f1209f5	0.57046443
124	0xbf0ffb5e	-0.5624293
125	0x3f1bb01a	0.60815585
126	0xbf0fcb7d	-0.56169873
127	0xbf1f0ba4	-0.6212714
128	0xbf1b8c8a	-0.6076132
129	0xbf1b19ec	-0.6058643
130	0x3f21b3b2	0.6316482
131	0xbf17847f	-0.5918655
132	0xbf199813	-0.5999767
133	0x3f0dd994	0.5541012
134	0xbf0e004c	-0.55469203
135	0xbf1bfd29	-0.60933167
136	0x3f1988ca	0.5997435
137	0xbf14b1a1	-0.5808354
138	0xbf1aa167	-0.6040253
139	0x3f137935	0.5760682
140	0x3f234e27	0.63791126
141	0x3f1ec55f	0.62019914
142	0xbf14106f	-0.57837576
143	0xbf20bf26	-0.6279167
144	0xbf17d4b3	-0.5930893
145	0xbf16fe2b	-0.5898158
146	0x3f167ca5	0.5878394
147	0xbf1b8aee	-0.60758865
148	0xbf1f19ef	-0.62148947
149	0xbf1aa9dd	-0.6041544
150	0x3f1d4d16	0.6144575
151	0xbf1d3b27	-0.61418384
152	0xbf22b43e	-0.6355628
153	0x3f1734bf	0.5906486
154	0xbf2305c4	-0.6368067
155	0xbf211892	-0.62928116
156	0x3f1058e6	0.5638565
157	0x3f1652be	0.58720005
158	0x3f17d766	0.59313047
159	0xbf1cb286	-0.61209905
160	0xbf17edb6	-0.59347093
161	0xbf0ee2d0	-0.5581484
162	0x3f1ad3fa	0.604797
163	0x3f2586df	0.6465892
164	0x3f14db65	0.5814727
165	0x3f17ff59	0.59374005
166	0x3f247d3a	0.6425358
167	0x3f16ac80	0.58856964
168	0x3f22660c	0.6343696
169	0xbf0e9c49	-0.5570722
170	0xbf20353e	-0.6258124
171	0xbf2135a6	-0.62972486
172	0xbf1522cc	-0.5825622
173	0xbf0f20c7	-0.5590939
174	0xbf232c84	-0.637398
175	0xbf18169d	-0.59409505
176	0xbf18be37	-0.59665245
177	0xbf1aa5c4	-0.6040919
178	0xbf10317c	-0.5632551
179	0xbf1dcf32	-0.6164428
180	0x3f257e01	0.6464539
181	0x3f12e36c	0.5737827
182	0x3f1eb02d	0.6198757
183	0x3f237280	0.6384659
184	0xbf1ec4ab	-0.6201884
185	0x3f1764eb	0.59138364
186	0x3f24e47f	0.6441116
187	0xbf20467b	-0.62607545
188	0x3f1d6853	0.6148731
189	0x3f02b611	0.5105906
190	0xbf244f96	-0.6418394
191	0x3f1134fb	0.56721467
192	0xbf15891f	-0.58412355
193	0xbf14ae41	-0.5807839
194	0xbf077cd9	-0.5292488
195	0x3f23171f	0.63707155
196	0x3f1a851f	0.60359377
197	0xbebe1bc2	-0.37130553
198	0xbf145d62	-0.5795499
199	0x3f1c981a	0.6116959
200	0x3f1262bb	0.571819
201	0xbf11ec23	-0.5700094
202	0x3f1bb6f2	0.6082603
203	0x3f21b35c	0.63164306
204	0x3f20e959	0.6285606
205	0x3f197a4d	0.5995224
206	0x3f12c807	0.5733647
207	0xbf23ddeb	-0.64010495
208	0xbf245238	-0.64187956
209	0xbf0f9543	-0.5608713
210	0xbf1bf9e5	-0.60928184
211	0xbf18ebcb	-0.5973479
212	0xbf0fdc1d	-0.5619524
213	0x3f18441a	0.59478915
214	0xbf238b07	-0.63884014
215	0x3f1c71f7	0.61111397
216	0xbf1fdab9	-0.6244312
217	0xbf0bd770	-0.54625607
218	0x3f191a82	0.5980607
219	0x3f17464a	0.5909163
220	0x3f1319a6	0.5746101
221	0x3f226bd2	0.6344577
222	0xbf1ba679	-0.6080089
223	0xbf149b23	-0.5804922
224	0x3f1f1b8e	0.6215142
225	0x3f104244	0.56351113
226	0x3f172a6f	0.59049124
227	0x3f1d68a2	0.6148778
228	0x3f1dfe65	0.617163
229	0x3f0d74de	0.5525645
230	0x3f1c6a05	0.6109927
231	0xbf1e0ac7	-0.61735195
232	0x3f1464ab	0.5796611
233	0xbf178ab8	-0.59196043
234	0x3f0dd39e	0.5540103
235	0x3f1e903c	0.61938834
236	0xbf230abd	-0.6368826
237	0xbf1d4bbc	-0.61443686
238	0xbf15d0ca	-0.5852171
239	0x3f1d3fbe	0.6142539
240	0xbf0e96f2	-0.55699074
241	0x3f246afd	0.6422575
242	0x3f187bf7	0.59564155
243	0xbf17bfbe	-0.5927695
244	0xbf14c526	-0.58113325
245	0xbf1c99e1	-0.611723
246	0xbf201123	-0.6252615
247	0xbf1c8e43	-0.61154574
248	0x3f0d861f	0.5528278
249	0xbf198f9d	-0.5998476
250	0xbf229075	-0.63501674
251	0x3f0dfd78	0.5546489
252	0xbf1d4ba7	-0.6144356
253	0xbf20cf43	-0.62816256
254	0xbf20ccf0	-0.6281271
255	0xbf154e9e	-0.58323085

convolutional3.bias f4 [100]
0	0xbf15ac61	-0.58466154
1	0xbf1540a0	-0.58301735
2	0xbf0e709e	-0.5564059
3	0x3f20bd08	0.6278844
4	0xbf1115a0	-0.5667362
5	0x3f1d5c03	0.61468524
6	0x3f230dea	0.63693106
7	0xbf1a68c9	-0.6031614
8	0x3f0f234e	0.55913246
9	0xbf1f1839	-0.62146336
10	0xbf175772	-0.59117806
11	0xbf1d22e2	-0.6138135
12	0x3f21c162	0.63185704
13	0x3f234724	0.63780427
14	0xbf189c02	-0.5961305
15	0x3f1d4659	0.61435467
16	0x3f20ae25	0.62765723
17	0xbf0fd6ca	-0.5618712
18	0xbf13dcaa	-0.5775858
19	0xbf1ee29b	-0.6206452
20	0x3f189a03	0.59610003
21	0x3f16efc8	0.5895963
22	0x3f15cfc0	0.58520126
23	0x3f14b127	0.58082813
24	0x3f160cee	0.5861348
25	0x3f247369	0.642386
26	0x3f0edac1	0.5580254
27	0xbf1441a1	-0.5791264
28	0xbf1487a8	-0.58019495
29	0xbf133325	-0.57499915
30	0x3f1b24a4	0.60602784
31	0xbf14f14a	-0.5818068
32	0x3f20bd96	0.62789285
33	0x3f11f1e5	0.57009727
34	0xbf174d48	-0.59102297
35	0xbd3918b6	-0.04518958
36	0x3f16ab96	0.5885557
37	0xbf103c00	-0.5634155
38	0x3f190615	0.59774905
39	0x3f14423e	0.5791358
40	0x3f0e7382	0.55645
41	0xbf2562b9	-0.64603764
42	0xbf12bdd6	-0.57320917
43	0xbf22b070	-0.6355047
44	0x3f1036a4	0.56333375
45	0x3f1b997f	0.6078109
46	0xbf1716aa	-0.5901896
47	0xbf247fc5	-0.6425746
48	0x3f124d76	0.57149446
49	0x3f1f4513	0.62214774
50	0x3f1df2c7	0.61698574
51	0xbf14b3fa	-0.5808712
52	0x3f1df3fe	0.6170043
53	0xbf143188	-0.5788808
54	0xbf1ce39a	-0.6128479
55	0x3f180173	0.5937721
56	0x3f1beed1	0.6091128
57	0xbf227411	-0.63458353
58	0x3f1f40c0	0.62208176
59	0x3f19fa21	0.6014729
60	0x3f114f64	0.56761765
61	0x3f1adf51	0.60497004
62	0x3f1a3cd0	0.6024904
63	0xbf14023b	-0.57815903
64	0xbf16d982	-0.5892564
65	0x3f1c002d	0.6093777
66	0xbf2596c1	-0.6468316
67	0x3f12ec47	0.5739178
68	0xbf181f65	-0.59422904
69	0x3f1e01d3	0.61721534
70	0xbf177279	-0.59159046
71	0xbf2306de	-0.63682353
72	0x3f16f868	0.5897279
73	0x3f22c2f2	0.6357871
74	0xbf174060	-0.59082603
75	0xbf0ef7e6	-0.55847013
76	0x3f1a2480	0.60211945
77	0xbf0edef1	-0.5580893
78	0xbf24c749	-0.64366585
79	0xbf236b27	-0.63835377
80	0x3f1fb5db	0.62386864
81	0x3f0f7863	0.5604307
82	0xbf0df2e7	-0.55448765
83	0x3f24a476	0.6431345
84	0xbf23d72c	-0.640002
85	0x3f151e0c	0.5824897
86	0x3f111b08	0.5668187
87	0x3f1c11bc	0.6096456
88	0xbf21aeee	-0.63157547
89	0x3f1a52f8	0.6028285
90	0xbf19dfea	-0.6010729
91	0x3f15b6f3	0.58482283
92	0xbf14605c	-0.5795953
93	0xbf1aeb35	-0.6051515
94	0xbf101f1a	-0.5629746
95	0x3f1943d1	0.59869105
96	0x3f249e27	0.6430382
97	0x3f21db10	0.6322489
98	0x3f21df3a	0.6323124
99	0x3f1bd88f	0.6087732

linear1.weight f4 [100, 1600]
0	0x3f14e433	0.58160704
1	0x3f15f273	0.58573073
2	0x3f1b77b4	0.6072953
3	0x3f178d27	0.59199756
4	0x3f1fab08	0.6237035
5	0x3f1f984d	0.6234177
6	0x3f13caf1	0.5773154
7	0x3f154f30	0.58323956
8	0x3f16914f	0.58815473
9	0x3f1b7781	0.60729223
10	0x3f1cc5b9	0.612392
11	0x3f1ab3c8	0.60430574
12	0x3f1512a4	0.5823157
13	0x3f147d1f	0.5800342
14	0x3f168796	0.5880064
15	0x3f1d7e8f	0.6152124
16	0x3f1b4ac9	0.6066099
17	0x3f1f3d4c	0.62202907
18	0x3f14cb63	0.58122844
19	0x3f1f0ec5	0.6213191
20	0x3f18db43	0.59709567
21	0x3f196176	0.5991434
22	0x3f174ac7	0.59098476
23	0x3f1a42d6	0.60258234
24	0x3f16cbb0	0.5890455
25	0x3f1d382c	0.61413836
26	0x3f16074c	0.58604884
27	0x3f1c5779	0.6107097
28	0x3f19ff22	0.60154927
29	0x3f1437d9	0.57897717
30	0x3f1d3f35	0.6142457
31	0x3f1a206c	0.6020572
32	0x3f14d7e3	0.58141917
33	0x3f19089f	0.5977878
34	0x3f1e8c75	0.6193307
35	0x3f1a3bb1	0.6024733
36	0x3f13b044	0.57690835
37	0x3f150117	0.5820479
38	0x3f136c2a	0.5758692
39	0x3f1eecdd	0.62080175
40	0x3f156d9b	0.5837037
41	0x3f183d06	0.59468114
42	0x3f13a5e8	0.5767503
43	0x3f13541d	0.5755022
44	0x3f19990b	0.5999915
45	0x3f13d18a	0.57741606
46	0x3f1dcad2	0.61637604
47	0x3f179a2d	0.5921963
48	0x3f19fde6	0.60153043
49	0x3f1754d7	0.5911383
50	0x3f0def1c	0.55442977
51	0xbbdc1878	-0.006716784
52	0x3f1c21ba	0.6098896
53	0x3f193ac9	0.59855324
54	0x3f1c81bd	0.61135465
55	0x3f1f64e4	0.6226332
56	0x3f1e1e05	0.61764556
57	0x3f1dccbc	0.61640525
58	0x3f18df2b	0.5971553
59	0x3f18d6eb	0.5970294
60	0x3f1b3a5f	0.6063594
61	0x3f18bb24	0.59660554
62	0x3f1d9172	0.61550057
63	0x3f17e7c8	0.59338045
64	0x3f1b6321	0.60698134
65	0x3f1b3a38	0.6063571
66	0x3f1815e6	0.59408414
67	0x3f1c5626	0.6106895
68	0x3f180b8a	0.5939261
69	0x3f1a52b7	0.6028246
70	0x3f13c5bc	0.57723594
71	0x3f18b125	0.596453
72	0x3f1c380d	0.61023027
73	0x3f19bf42	0.6005746
74	0x3f19d15a	0.6008507
75	0x3f14ed5e	0.58174694
76	0x3f1b3b55	0.6063741
77	0x3f16b190	0.5886469
78	0x3f13ce73	0.5773689
79	0x3f159243	0.584263
80	0x3f183cbf	0.5946769
81	0x3f1885e3	0.59579295
82	0x3f13f9f2	0.5780326
83	0x3f1ca536	0.6118959
84	0x3f157a22	0.58389485
85	0x3f1e3a15	0.61807376
86	0x3f1829c7	0.5943875
87	0x3f14a154	0.5805867
88	0x3f1bb30f	0.60820097
89	0x3f1fcd34	0.6242249
90	0x3f1590ad	0.5842388
91	0x3f143162	0.5788785
92	0x3f15a0d5	0.58448535
93	0x3f1929c1	0.59829336
94	0x3f1cef9d	0.6130312
95	0x3f194088	0.5986409
96	0x3f13a571	0.5767432
97	0x3f1d82c0	0.61527634
98	0x3f1a8d0e	0.6037148
99	0x3f1ec2d1	0.62016016
100	0x3f1cfcf9	0.61323506
101	0x3f19f13f	0.6013374
102	0x3f18f321	0.59745985
103	0x3f19202a	0.59814703
104	0x3f17749a	0.59162295
105	0x3f1a4ddb	0.6027505
106	0x3f1401a4	0.57815003
107	0x3f18d914	0.59706235
108	0x3f18c446	0.5967449
109	0x3f1eccec	0.62031436
110	0x3f18d326	0.59697187
111	0x3f1f4ee7	0.6222977
112	0x3f1ac5cc	0.60458064
113	0x3f173258	0.59061193
114	0x3f1356c2	0.57554257
115	0x3f1e2c38	0.6178622
116	0x3f1bdbf7	0.60882515
117	0x3f1c3d6f	0.6103124
118	0x3f1d6ced	0.6149433
119	0x3f166c69	0.5875917
120	0x3f1d4f56	0.6144918
121	0x3f16510b	0.5871741
122	0x3f19eca4	0.6012671
123	0x3f1a8957	0.60365814
124	0x3f1e8574	0.61922383
125	0x3f1cd737	0.6126589
126	0x3f175276	0.591102
127	0x3f1a586b	0.60291165
128	0x3f1d8499	0.6153045
129	0x3f1d2e01	0.6139832
130	0x3f1e545f	0.6184749
131	0x3f158d6d	0.58418924
132	0x3f200b4d	0.62517244
133	0x3f1d3982	0.61415875
134	0x3f13f205	0.5779117
135	0x3f1fe060	0.62451744
136	0x3f1f368b	0.621926
137	0x3f19623a	0.59915507
138	0x3f1d52ac	0.6145427
139	0x3f176da7	0.5915169
140	0x3f17a3a9	0.592341
141	0x3f1ef534	0.620929
142	0x3f16ab9e	0.5885562
143	0x3f135615	0.57553226
144	0x3f184e55	0.59494525
145	0xbb553e18	-0.0032538231
146	0x3cb4a219	0.02204995
147	0xbb2b8ab0	-0.0026175193
148	0x3c9a5793	0.018840587
149	0x3cba6c35	0.022756675
150	0x3aff6220	0.00194842
151	0x3bbca000	0.005756378
152	0x3f083d08	0.53218126
153	0x3c9e3e29	0.01931675
154	0xbbda5dd4	-0.006664017
155	0x3f18a42b	0.596255
156	0x3f19a0a8	0.60010767
157	0x3f1c4917	0.61049026
158	0xba121e00	-0.00055739284
159	0xbbe521a8	-0.0069925375
160	0x3f1dbc33	0.61615294
161	0x3f1db773	0.61608046
162	0x3f185009	0.59497124
163	0x3f19c39e	0.60064113
164	0x3f1a3a65	0.60245353
165	0x3f1f3e29	0.62204224
166	0x3f1df9d1	0.61709315
167	0x3f1af797	0.6053404
168	0x3f1943d6	0.59869134
169	0x3f17ac27	0.5924706
170	0x3f1c6605	0.6109317
171	0x3f16185e	0.5863093
172	0x3f1f160f	0.62143034
173	0x3f157649	0.58383614
174	0x3f177e95	0.59177524
175	0x3f1918d2	0.598035
176	0x3f13bafa	0.5770718
177	0x3f1cc77d	0.61241895
178	0x3f1e927a	0.61942255
179	0x3f19f936	0.6014589
180	0x3f17938a	0.592095
181	0x3f1f281e	0.6217059
182	0x3f1e2866	0.61780393
183	0x3f138efe	0.57640064
184	0x3f1c9cd2	0.6117679
185	0x3f1902cb	0.59769887
186	0x3f18017d	0.5937727
187	0x3f1353e5	0.5754989
188	0x3f17e5ac	0.59334826
189	0x3f1848c6	0.59486043
190	0x3f1b981a	0.60778964
191	0x3f169b61	0.5883084
192	0x3f1ed350	0.6204119
193	0x3f1a11ff	0.6018371
194	0x3f1e8e02	0.61935437
195	0x3f1ab1d6	0.60427606
196	0x3f168be3	0.588072
197	0x3f1efbf8	0.62103224
198	0x3f16eaee	0.58952224
199	0x3f19853a	0.5996891
200	0x3f17f6f6	0.5936121
201	0x3f197556	0.59944665
202	0x3f177d56	0.5917562
203	0x3f1c8d2b	0.61152905
204	0x3f16c834	0.58899236
205	0x3f18e1e4	0.5971968
206	0x3f1ecbf8	0.6202998
207	0x3f17424c	0.59085536
208	0x3f181f7f	0.5942306
209	0x3f199cdd	0.6000498
210	0x3f170072	0.58985054
211	0x3f1470b4	0.5798447
212	0x3f13fcc5	0.5780757
213	0x3f1ecb49	0.6202894
214	0x3f170971	0.5899878
215	0x3f1ffd91	0.62496287
216	0x3f13a090	0.57666874
217	0x3f14ac01	0.5807496
218	0x3f18d353	0.59697455
219	0x3f1fb19b	0.6238038
220	0x3f1bb527	0.6082329
221	0x3f1d5e27	0.6147179
222	0x3f1abb1f	0.60441774
223	0x3f1f31d8	0.6218543
224	0x3f1c1f91	0.60985667
225	0x3f1df9e9	0.6170946
226	0x3f1b3e2c	0.6064174
227	0x3f1db349	0.6160169
228	0x3f14e053	0.5815479
229	0x3f164b0c	0.5870826
230	0x3f1ab60f	0.6043405
231	0x3f14bc74	0.58100057
232	0x3f183629	0.5945764
233	0x3f187731	0.5955687
234	0x3f1776e8	0.5916581
235	0x3f1d5976	0.6146463
236	0x3f1b3d90	0.6064081
237	0x3f1f8f5d	0.6232813
238	0x3f1abeea	0.6044756
239	0x3f1577a3	0.58385676
240	0x3f1ec3f6	0.6201776
241	0x3f1ba009	0.6079107
242	0x3f148f25	0.5803092
243	0x3f1bea27	0.60904163
244	0x3f1fdbd1	0.6244479
245	0x3f1f8959	0.6231895
246	0x3f1dc1b2	0.6162368
247	0x3f197043	0.5993692
248	0x3f148bf2	0.5802604
249	0x3f1689aa	0.5880381
250	0x3f1b1f2a	0.6059443
251	0x3f178335	0.5918458
252	0x3f1aa55f	0.60408586
253	0x3f16099f	0.5860843
254	0x3f1aa261	0.6040402
255	0x3f1ce624	0.61288667

linear1.bias f4 [100]
0	0x3f18c29a	0.5967194
1	0x3c891641	0.016734244
2	0x3f19a6e7	0.600203
3	0xbf165c40	-0.5873451
4	0x3f1c9f0a	0.61180174
5	0x3f2012dc	0.6252878
6	0xbf13c35a	-0.5771996
7	0x3f1ccf8c	0.6125419
8	0xbf1e51c1	-0.61843497
9	0x3a8397a0	0.0010039695
10	0xbf13737d	-0.57598096
11	0x3f1d094d	0.61342317
12	0xbf175feb	-0.59130734
13	0xbf1d5322	-0.61454976
14	0x3f1b4e6b	0.6066653
15	0x3f1facae	0.62372863
16	0xbf1c7a27	-0.6112389
17	0xbf1f7b11	-0.6229716
18	0xbccb6192	-0.024826799
19	0x3f1f2dc4	0.6217921
20	0x3f1a6b4b	0.60319966
21	0xbb98da28	-0.004664678
22	0xbf1b081a	-0.60559237
23	0x3f194ffe	0.59887683
24	0x3f1d4495	0.6143277
25	0xbf1474ed	-0.57990915
26	0xbf19055d	-0.5977381
27	0xbf169d02	-0.58833325
28	0x3c62faba	0.013853723
29	0xbf1941fb	-0.59866303
30	0xbf1e68c5	-0.61878616
31	0x3f1557d5	0.58337146
32	0x3f1be855	0.60901386
33	0xbf174209	-0.59085137
34	0x3f1e2fb8	0.61791563
35	0x3f1b65f5	0.6070245
36	0xbca8bab8	-0.020596847
37	0xbf19900b	-0.5998542
38	0x3b464dc0	0.0030258745
39	0xbf1dd78e	-0.61657035
40	0x3f1e0d11	0.6173869
41	0x3f159e06	0.5844425
42	0x3a7295c0	0.0009253882
43	0x3f17a58e	0.5923699
44	0xbf19fa68	-0.60147715
45	0x3f1997be	0.59997165
46	0xbf1c601a	-0.6108414
47	0x3f16b86d	0.5887516
48	0xbf1af6c8	-0.6053281
49	0x3f1d1d5a	0.6137291
50	0x3f1c937e	0.61162555
51	0x3f165f6f	0.5873937
52	0xbf17f101	-0.5935212
53	0xbf1a27ee	-0.6021718
54	0xbb42b890	-0.0029712059
55	0x3f192959	0.59828717
56	0xbf1544d8	-0.5830817
57	0xbf182406	-0.5942997
58	0x3f1c4bc4	0.6105311
59	0xbf148d76	-0.5802835
60	0x3b16bd90	0.0023001172
61	0xbf201225	-0.62527686
62	0xbcb701b5	-0.022339681
63	0x3c2170fa	0.009853596
64	0x3f1a632a	0.6030756
65	0x3bd15244	0.0063879807
66	0x3b4b9200	0.0031062365
67	0x3bdb536c	0.0066932943
68	0x3f164bcf	0.58709425
69	0xbf1d3ef9	-0.61424214
70	0x3f183ad5	0.5946477
71	0xba90f350	-0.0011058841
72	0xbf19ac2b	-0.6002833
73	0xbf156b6c	-0.5836704
74	0xbf1d7cb8	-0.6151843
75	0xbf17d2f1	-0.59306246
76	0xbf14cdeb	-0.58126706
77	0x3f1bbc50	0.6083422
78	0xbf1dcfea	-0.61645377
79	0xbf14fa02	-0.5819398
80	0xbf144eda	-0.5793282
81	0x3f1e0081	0.6171952
82	0xbc837306	-0.016046058
83	0x3f19ed28	0.60127497
84	0x3f1d0259	0.6133171
85	0x3f18fc2c	0.59759784
86	0x3f13acb5	0.57685405
87	0xbc82b4c2	-0.015955333
88	0xbba2ef18	-0.00497235
89	0xbf1b88f0	-0.60755825
90	0x3f16010f	0.58595365
91	0x3f1ce653	0.61288947
92	0xbf1d25f0	-0.61386013
93	0x3f1861d2	0.5952426
94	0xbf1b69f3	-0.6070854
95	0x3f1637d2	0.58678925
96	0xbc17b774	-0.009260047
97	0x3bbc0320	0.005737677
98	0xbc9c6b2b	-0.01909407
99	0x3f14468b	0.5792014

linear2.weight f4 [10, 100]
0	0xbf19b301	-0.60038763
1	0x3dc73687	0.09727197
2	0xbf25696d	-0.6461399
3	0xbf076008	-0.5288091
4	0xbf20da3f	-0.6283302
5	0xbf1d5655	-0.6145986
6	0xbf0cbde3	-0.54977244
7	0xbf0c39b6	-0.5477556
8	0xbf1b2b76	-0.6061319
9	0xbda16916	-0.07881372
10	0xbf1cd3fc	-0.6126096
11	0xbf0c4584	-0.5479357
12	0xbf05d257	-0.5227408
13	0xbf0d1f58	-0.5512595
14	0xbf323286	-0.6960834
15	0xbf0140e2	-0.5048963
16	0xbf030e06	-0.51193273
17	0xbf015b48	-0.5052991
18	0xbd71c32a	-0.059024014
19	0xbf317fe6	-0.6933578
20	0xbf202e0e	-0.62570274
21	0xbdb551d3	-0.08853497
22	0xbf09e67a	-0.53867304
23	0xbf22dc40	-0.63617325
24	0xbf2c7c97	-0.6737761
25	0xbf287022	-0.657961
26	0xbf1922a2	-0.5981847
27	0xbf22b588	-0.63558245
28	0x3dbfdc4b	0.093681894
29	0xbf1f77d0	-0.62292194
30	0xbf067a46	-0.52530324
31	0xbf0719f7	-0.52773994
32	0xbf0baaeb	-0.54557675
33	0xbf0d0a64	-0.5509398
34	0xbf1f5da8	-0.62252283
35	0xbf166a65	-0.58756095
36	0x3d2bae0a	0.041914023
37	0xbf16b496	-0.588693
38	0xbd7806f7	-0.060553517
39	0xbf2fe9f0	-0.68716335
40	0xbf027729	-0.50963074
41	0xbf2c02c5	-0.67191726
42	0xbdc31233	-0.095249556
43	0xbf205fd9	-0.6264625
44	0xbf1ef4d5	-0.62092334
45	0xbf25358a	-0.6453482
46	0xbf268cc3	-0.65058535
47	0xbf1bea28	-0.6090417
48	0xbf1f9278	-0.6233287
49	0xbf2b303c	-0.66870475
50	0xbf22409f	-0.63379854
51	0xbf10aea2	-0.5651647
52	0xbf073e92	-0.5282985
53	0xbf275d20	-0.6537647
54	0xbcbb738c	-0.022882245
55	0xbf033efa	-0.5126797
56	0xbf00a9a4	-0.5025885
57	0xbf225b0d	-0.6342018
58	0xbf066f90	-0.5251398
59	0xbf205702	-0.62632763
60	0x3dc87f49	0.09789903
61	0xbf1f23bd	-0.6216391
62	0x3d2953ee	0.041339807
63	0x3d34b166	0.044114493
64	0xbf142ee0	-0.57884026
65	0xbd1111e6	-0.03541746
66	0xbd59efe0	-0.05320728
67	0x3db96539	0.0905251
68	0xbf035647	-0.51303524
69	0xbf121b1b	-0.5707261
70	0xbf055b75	-0.5209268
71	0x3d0dc892	0.034615107
72	0xbf1154e2	-0.56770146
73	0xbf10dbaf	-0.5658521
74	0xbf32d8a2	-0.69861805
75	0xbf149f02	-0.58055127
76	0xbf07cd26	-0.53047407
77	0xbf226e48	-0.63449526
78	0xbf12d146	-0.57350576
79	0xbf06766f	-0.52524465
80	0xbf05e1de	-0.5229777
81	0xbf27d3ec	-0.6555774
82	0xbb7a5a40	-0.0038200766
83	0xbf1ac85b	-0.6046197
84	0xbf29c54e	-0.6631669
85	0xbf311468	-0.6917176
86	0xbf08247d	-0.53180677
87	0xbd912fe8	-0.070892155
88	0x3d1cd042	0.038284548
89	0xbf22ebc5	-0.63641006
90	0xbf1d3080	-0.6140213
91	0xbf1f59bc	-0.622463
92	0xbf2bae59	-0.6706291
93	0xbf0b5e29	-0.5444055
94	0xbf21493e	-0.63002384
95	0xbf048cad	-0.51777154
96	0xbd9331c5	-0.07187227
97	0xbcbb6a40	-0.022877812
98	0x3d6454c2	0.055744894
99	0xbf285a55	-0.65762836
100	0x3f28b83d	0.65906125
101	0xbd46c79d	-0.04853021
102	0x3f2973f3	0.6619255
103	0x3f077dee	0.5292653
104	0x3f0fc40e	0.5615853
105	0x3f1c3b34	0.61027837
106	0x3f02b285	0.5105365
107	0x3f2096c8	0.62730074
108	0x3f04f09e	0.5192965
109	0x3c3be890	0.011469021
110	0x3f165898	0.58728933
111	0x3f1b3f35	0.6064332
112	0x3f0cb03a	0.549564
113	0x3f02b83a	0.5106236
114	0x3f21476d	0.6299961
115	0x3f210f7a	0.6291424
116	0x3f128437	0.57232994
117	0x3f0bdeb8	0.54636717
118	0x3bbdea00	0.0057957172
119	0x3f242319	0.64116055
120	0x3f19e74c	0.60118556
121	0xbd2e8ae0	-0.04261291
122	0x3f1e4ef7	0.6183924
123	0x3f1929e9	0.59829575
124	0x3f21b18c	0.6316154
125	0x3f079ca4	0.5297339
126	0x3f12e6a1	0.5738316
127	0x3f0cd31f	0.55009645
128	0x3cb32fc8	0.02187337
129	0x3f0ace0d	0.5422066
130	0x3f05b0d2	0.5222293
131	0x3f2c6579	0.67342335
132	0x3f245c6e	0.64203537
133	0x3f04b0a9	0.5183206
134	0x3f22681b	0.634401
135	0x3f176282	0.59134686
136	0xbd420493	-0.047367644
137	0x3f10d035	0.565677
138	0xbce52fa0	-0.027976811
139	0x3f079b7f	0.52971643
140	0x3f2c710b	0.6735999
141	0x3f27722b	0.6540858
142	0x3cf5bb84	0.029996641
143	0x3f257cef	0.6464376
144	0x3f15dc00	0.5853882
145	0x3f2d7c9d	0.6776827
146	0x3f117b47	0.5682873
147	0x3f2fdda9	0.686976
148	0x3f0ef35b	0.5584008
149	0x3f275c8b	0.65375584
150	0x3f1af579	0.6053081
151	0x3f21985a	0.63123095
152	0x3f0a11e4	0.5393355
153	0x3f11a69c	0.5689485
154	0xbd460df0	-0.048353136
155	0x3f300ef5	0.6877282
156	0x3f11ff13	0.5702984
157	0x3f069236	0.5256685
158	0x3f30a013	0.68994254
159	0x3f05a330	0.5220213
160	0x3d5d5e0a	0.05404476
161	0x3f21e4b9	0.6323963
162	0xbd40a91d	-0.04703628
163	0x3d503172	0.050828405
164	0x3f21dd8f	0.63228697
165	0x3d439ed6	0.0477589
166	0xbdc185a0	-0.09449315
167	0x3d6a6542	0.057225473
168	0x3f274167	0.6533417
169	0x3f1ea591	0.61971384
170	0xbefe3b36	-0.4965455
171	0x3d020e1a	0.03175173
172	0xbf2c636c	-0.67339206
173	0x3f0ff91b	0.5623948
174	0x3f146573	0.579673
175	0x3f0a157a	0.5393902
176	0x3f23d7b5	0.6400102
177	0x3f1bcca1	0.60859114
178	0x3f1daed6	0.61594903
179	0x3f110f16	0.56663644
180	0x3f1bb747	0.60826534
181	0x3f260e56	0.64865625
182	0x3d4730d6	0.048630558
183	0x3f2961dd	0.6616495
184	0x3f242fbd	0.6413534
185	0xbf22e3e2	-0.6362897
186	0x3f1d10a2	0.61353505
187	0xbbbdd930	-0.005793713
188	0x3c17a0b0	0.0092546195
189	0x3f1602de	0.58598125
190	0x3f2aa913	0.66664237
191	0x3f22c704	0.63584924
192	0xbf118276	-0.5683969
193	0x3f1b3383	0.60625476
194	0x3f216715	0.63047916
195	0x3f1fc097	0.62403244
196	0x3ca08420	0.019594252
197	0xbd91fb82	-0.071280494
198	0x3cd1fe24	0.025633879
199	0x3f2bd719	0.6712509
200	0xbf20ee23	-0.6286337
201	0x3d9486c5	0.07252268
202	0xbf263ded	-0.6493824
203	0xbf1e9620	-0.6194782
204	0xbf1e288e	-0.6178063
205	0xbf0d553f	-0.552082
206	0xbf0fb33a	-0.56132853
207	0xbf0ae65c	-0.5425775
208	0xbf308f99	-0.6896911
209	0xbcc01be0	-0.023450792
210	0xbf0868f9	-0.53285176
211	0xbf172793	-0.5904476
212	0xbf03f0c3	-0.5153925
213	0xbf0d4219	-0.5517898
214	0xbf1deb54	-0.6168721
215	0xbf22bad2	-0.63566315
216	0xbf169c02	-0.588318
217	0xbf171256	-0.59012353
218	0x3cf21e3c	0.029555432
219	0xbf065de9	-0.52487046
220	0xbf2970ea	-0.6618792
221	0xbba45580	-0.005015075
222	0xbf1c7846	-0.6112102
223	0xbf2c4811	-0.67297465
224	0xbf18e3c9	-0.5972257
225	0xbf1e35b2	-0.6180068
226	0xbf132e1b	-0.57492226
227	0xbf2fc743	-0.68663424
228	0xbda7c1d6	-0.08191268
229	0xbf1b5518	-0.6067672
230	0xbf09f038	-0.5388217
231	0xbf28728d	-0.6579979
232	0xbf2897cd	-0.6585663
233	0xbf2ce1ec	-0.6753223
234	0xbf052d10	-0.52021885
235	0xbf294621	-0.66122633
236	0xbba96e00	-0.0051705837
237	0xbf278677	-0.6543955
238	0xbd23109d	-0.039810766
239	0xbf240cca	-0.64082015
240	0xbf16550a	-0.5872351
241	0xbf24158a	-0.64095366
242	0xbc6b5d68	-0.0143655315
243	0xbf0e6c16	-0.55633676
244	0xbf0c67f2	-0.5484611
245	0xbf042280	-0.5161514
246	0xbf256a6a	-0.646155
247	0xbf26c749	-0.65147835
248	0xbf0128be	-0.5045279
249	0xbf0e8865	-0.5567687
250	0xbf052e60	-0.5202389
251	0xbf2f35f2	-0.6844169
252	0xbf03525f	-0.51297563
253	0xbf019a3c	-0.5062597
254	0xbba3df80	-0.0050010085
255	0xbf1b9c74	-0.60785604

linear2.bias f4 [10]
0	0xbf279f4e	-0.65477455
1	0x3f025589	0.50911766
2	0xbf3271d8	-0.6970496
3	0x3f246089	0.642098
4	0xbf11373f	-0.56724924
5	0xbf0f46f8	-0.55967665
6	0x3f13e6a8	0.5777383
7	0xbf1758eb	-0.59120053
8	0xbf0f6dfe	-0.5602721
9	0x3f149068	0.58032846
